hw3/models/classifier_svhn.pth (torch_old, 20602 bytes, 2 tensors)

fc.weight f4 [10, 500]
00000000: 4e75 0cbf d076 1939 1cbd d0bd ef38 b2be
00000010: 61c5 bcbc 6262 c23c 5231 f6bd 3cdd f9bc
00000020: b477 4dbd 7fff c8bc 4fb5 88be 6730 3b3d
00000030: 2857 513d 8ca8 24be 8659 00be 0584 6b3d
00000040: ca71 41be 84af 12bd 2a5d cdbe 9ed0 66be
00000050: 70d5 c3bd 6ca6 06be 79a2 cfbb 724a bebe
00000060: f5d5 a23c 1e8d 9dbe 77eb f4bb 0a11 93bc
00000070: 1e13 603d 1914 eebd bfcd 713c 6850 16bf
00000080: 7117 813c 9ce7 24bf 2c24 1fbe 1421 67be
00000090: 8ca9 8ebe 43a6 56bc 0b89 8b3d 8e02 9abd
000000a0: af46 24be 3d77 04bf 2a67 c2be 14ab 36bd
000000b0: de95 afbe 57b9 203e 3f96 ddbe 7c98 12be
000000c0: b79f 623c 4752 a13c 6dab bebe 8288 b7be
000000d0: 3346 eebe 47e9 f73d 3676 76be b186 123c
000000e0: c396 493d 76a9 9cbe c386 133e f61d 96be
000000f0: 7d31 d8be bff1 a7bd c947 793c fc65 42be
00000100: c51b 163d 80de c2be eb75 8cbe 646a 85be
00000110: 02a0 d83c 7c67 31be f139 283e 4b83 4cbe
00000120: 3feb 76be 004c f3bc cbdc b6be 78ab 4a3e
00000130: 6b07 043e 14b6 2f3d 5efd edbd 2959 efbd
00000140: 868b c3be b776 74bd e07e 8bbe a6b7 0f3d
00000150: 68b1 c6be 659d 13bf f971 1cbf 25ba 79bc
00000160: 2afd 78bd 71e9 fcbe 721a f93c a7ba a2bc
00000170: 5a59 c03d ed0b 19bd caaf 83bc 1f64 473d
00000180: 114c 85bd ac6f 9abe f84d 88be d4a3 89be
00000190: 86f8 fc3c 03f2 dd3d 0311 e9be 6385 b8be
000001a0: 3ee7 f5bd 76d1 303b b384 ae3c 20df 403d
000001b0: 69ef 5fbe 2142 8dbe 3b39 b53c 66fa f1bb
000001c0: 4c71 a1be 0c59 153e e06c 04bc 66bc d03d
000001d0: 8ca8 d83c 60a5 d83d 406a bcbe 36be f2bd
000001e0: d837 d03d cd36 20be 6ef1 b93c 0a4c f8be
000001f0: 2577 dcbd 9a04 8a3d cc0b a8be db13 3dbc
00000200: 6fcb 50bd 9873 edbc 82d4 93bc dc2b 72bd
00000210: bbf6 8dbe 8820 c7bc d538 ed3c 9f32 bdbc
00000220: a5af 5fbc d52b a0be 360a f7be af80 aebe
00000230: bead e53b 2105 b3be 1ab6 843d 98d2 23bc
00000240: 9181 97bd 17ab 5f3b 8067 eebb 4440 f0be
00000250: a3da 67be ab4e f6bd 87f7 12be b0c2 a0bd
00000260: b777 fbbe 5a61 ebbd f660 a1be 3867 89be
00000270: 7cc9 4dbc dc4c 033c dd5c 49bd 5a7e f8be
00000280: b5ea 0a3d 7530 c2bc 7ee5 01bf 75f2 5b3d
00000290: 83e1 6cbe 73b2 42be 568f cebe 8265 6e3c
000002a0: 0f83 f8be eef2 63be 0245 eabd 0c27 953c
000002b0: 8537 5cbd 584c c0be 0cb6 e8be 53cf be3d
000002c0: 3fe4 c7bc 4b00 2fbb 4133 2b3d 6265 833d
000002d0: bb22 ff3b d235 143e 7ebb dc3d bbf5 43bd
000002e0: 9a8a 93ba ea70 0ebf 1a6e 81be 9aa9 9dbe
000002f0: 7efe 823d c8b4 b5be 1f0b 0c3c 1151 dbbe
00000300: 60dc 40be 07b4 0f3d fcf0 05bd f8c1 3cbe
00000310: c975 763c d960 09bd f74b c2be d965 233d
00000320: a2b0 e3bd af54 dfbd 0ca0 0a3e 88ad b8be
00000330: ff68 babe df5f a83c 4635 4a3d 9f32 f9bb
00000340: 076f 6c3d 65fd a83d f23b 4abe 1303 663c
00000350: c7ab e73d d047 3abd 230e 28be 1334 b9be
00000360: 3df0 3a3d da85 7c3d c4a2 21bd 5ad5 b1bd
00000370: bc67 58be 0750 3c3d efdd 67bd 4064 403c
00000380: 997e 9b3d 107d d2bb fe99 88be 80b8 c2be
00000390: 2fab 733d 9c8c ffbe fb65 f73a 3f0f 09bf
000003a0: 3565 25bf 3d98 cfbd 0319 14bd 7121 c13c
000003b0: acc7 f83c a396 15bf ffcf 72bd cfd6 0dbe
000003c0: 14c2 f9bd d91f 903d 5f14 193e 58b4 653d
000003d0: 5aa9 a33d f7fb d9bd 081f efbe 969f 0f3e
000003e0: dc3f 7abe 99fa efbc 0b0f 9ebd c977 37bd
000003f0: 05f8 373c 1da5 24bd c307 d2be 8c3d b5be
-0.5486649 0.00014635478 -0.1019232 -0.34809062 -0.023043336 0.023728553 -0.12021126 -0.030501
-0.050162986 -0.024535893 -0.26700827 0.045700457 0.05110851 -0.1607992 -0.1253415 0.05749895
-0.18891063 -0.035811916 -0.4011014 -0.22540519 -0.09562194 -0.13149422 -0.006336507 -0.37166172
0.019877413 -0.30771726 -0.0074743587 -0.01795246 0.05470573 -0.11624927 0.014758526 -0.5871644
0.015758248 -0.6441591 -0.15541142 -0.22571212 -0.2786373 -0.013101163 0.06813248 -0.075200185
-0.16042589 -0.51744443 -0.37969333 -0.044596747 -0.34294027 0.15695702 -0.4327869 -0.1431598
0.013832024 0.019692553 -0.37240162 -0.35846335 -0.46537933 0.12105041 -0.24068531 0.008943246
0.049216043 -0.30598038 0.14406876 -0.29319733 -0.42225257 -0.08200406 0.015214869 -0.18984216
0.036647577 -0.3806038 -0.27433714 -0.26057732 0.026443485 -0.17324632 0.16428353 -0.1997196
-0.24113177 -0.029699326 -0.35715327 0.19791973 0.12893455 0.042898253 -0.116205916 -0.11686928
-0.38192385 -0.059683528 -0.27245235 0.03508725 -0.38807225 -0.5766204 -0.6111141 -0.015242134
-0.06078831 -0.49396852 0.030408118 -0.019864393 0.093920425 -0.03736489 -0.016075034 0.048679467
-0.06508649 -0.30163324 -0.26621985 -0.26882803 0.030880224 0.10837176 -0.4552079 -0.36039266
-0.120069966 0.0026980317 0.02130351 0.04708779 -0.21868671 -0.27589515 0.022122016 -0.007384586
-0.3153175 0.1458475 -0.008082598 0.10192184 0.026447557 0.10578418 -0.36799812 -0.11852686
0.10166901 -0.15645905 0.02269813 -0.48495513 -0.107649125 0.06739159 -0.328215 -0.011540378
-0.05097526 -0.028985783 -0.018045668 -0.05912386 -0.27727303 -0.024307504 0.028957764 -0.023095427
-0.013652717 -0.3128344 -0.48249978 -0.34082553 0.007009237 -0.3496485 0.064800456 -0.00999894
-0.0739776 0.0034129077 -0.0072755218 -0.4692403 -0.22641997 -0.120267235 -0.14352237 -0.07849634
-0.49114773 -0.11493178 -0.31519288 -0.26836562 -0.012560245 0.00801393 -0.049160827 -0.485339
0.03391524 -0.023704747 -0.507408 0.053698022 -0.23132901 -0.19013385 -0.40343732 0.014550569
-0.4853749 -0.22260639 -0.114389434 0.018207096 -0.053763885 -0.37558246 -0.4545139 0.09316888
-0.024400828 -0.0026703055 0.041796926 0.064158216 0.0077861226 0.14473656 0.10777949 -0.04784177
-0.0011256516 -0.55641043 -0.25279313 -0.30793458 0.06396197 -0.35489488 0.008547573 -0.42835286
-0.18834066 0.035083797 -0.032700524 -0.18433368 0.015042731 -0.033539627 -0.37948582 0.03989205
-0.111176744 -0.10904824 0.13537616 -0.36069894 -0.3640823 0.020553527 0.04936721 -0.0076049115
0.05772307 0.08251456 -0.1974943 0.014038819 0.11312061 -0.045478642 -0.16411643 -0.36172542
0.045639265 0.06165109 -0.039461866 -0.08683272 -0.21133322 0.045974758 -0.056608137 0.011742651
0.07592506 -0.0064236 -0.26679987 -0.38031387 0.059489425 -0.49911964 0.0018874997 -0.5353889
-0.64607555 -0.10136459 -0.036156666 0.023575516 0.030368648 -0.5843298 -0.05928039 -0.13851474
-0.121952206 0.070373245 0.14949177 0.056080192 0.079912856 -0.106437616 -0.46703362 0.14025721
-0.24438423 -0.029294299 -0.07717713 -0.04479197 0.011228566 -0.040196527 -0.41021547 -0.3539852

fc.bias f4 [10]
00000000: c3ec 87bd 5ff9 90bd 1c06 e83b a0f6 2ebb
00000010: b47f 02bd 6aa3 853d e036 79bd 11c4 1bbe
00000020: bc93 603d 876e 713b
-0.066369556 -0.07078814 0.0070808064 -0.0026697293 -0.03186007 0.065253094 -0.06084335 -0.15211512
0.05482839 0.003683956
