hw3/models/classifier_mnistm.pth (torch_old, 20602 bytes, 2 tensors)

fc.weight f4 [10, 500]
000000 4e b2 1d 3e 32 e1 50 be 9d 33 0d be 32 a2 c7 be
       0.15400049 -0.20398405 -0.1378922 -0.38990933
000010 5e 82 81 3e 30 06 ed 3a e6 8f f5 bb 33 cf 27 be
       0.25294775 0.0018083509 -0.0074939607 -0.16387634
000020 a1 65 d2 bb a1 07 ba bd d9 16 8f be 20 a1 66 3c
       -0.0064208065 -0.09083486 -0.2794712 0.014076501
000030 c8 ea 95 be 94 e5 7c 3d 3a 6a d3 3c ef b5 e3 bd
       -0.29280686 0.06174238 0.025807489 -0.111186855
000040 67 38 69 be 13 e4 c6 bb ed 7e 4a 3d 64 d1 e8 3d
       -0.22775422 -0.006069669 0.049437452 0.11368063
000050 fe 51 1b bd 54 95 c8 be df 5b 76 3c 7a 9b 28 3d
       -0.03791999 -0.39176428 0.015036552 0.0411639
000060 ef e2 00 bd bc 27 7f be 1c 2a ad be a5 fd c8 be
       -0.03146642 -0.24917501 -0.3382119 -0.39256015
000070 ad 0f a0 be 2b 0b dc be 8e 34 04 3d 04 b1 91 be
       -0.3126196 -0.4297727 0.032276683 -0.28455365
000080 88 6d bd 3d 32 70 86 be 43 29 08 3d c5 6a bb 3d
       0.09249407 -0.26257473 0.033242475 0.09151224
000090 b8 a4 bf 3c 72 ed 4e be 97 fd 33 3e b0 db 83 be
       0.023393974 -0.20207766 0.17577206 -0.25753546
0000a0 49 7a ba 3a 06 60 01 3d b2 8e fd bc 37 25 bc ba
       0.0014227118 0.031585716 -0.030951831 -0.0014354353
0000b0 0d 1c e9 be 96 1f 1c be 42 36 20 3b 95 80 8c be
       -0.45529214 -0.15246424 0.0024446403 -0.2744185
0000c0 c5 24 54 3c ca 99 63 3e 54 9a 89 bd 4f da a4 be
       0.01294822 0.22226635 -0.06718889 -0.32197806
0000d0 af 14 16 bc d4 a0 ce be 46 4b c9 be 14 81 2e be
       -0.009160205 -0.40357077 -0.39315242 -0.17041427
0000e0 01 fa d3 be dc 1d 0f 3c 5b 7f 89 3b 24 a6 a2 be
       -0.41401675 0.008735146 0.00419609 -0.3176738
0000f0 0f 51 b8 be 7b 10 71 3d 1d 46 0a bd c0 ec ee bd
       -0.35999343 0.058853608 -0.03375827 -0.1166625
000100 d9 99 1b bd 83 27 96 bd 07 0c 8b be 2b 7b 25 3d
       -0.037988517 -0.07331755 -0.27157614 0.040400665
000110 af dc ce 3a fb 26 c8 bd 4b e1 63 3a 6f 9b 05 bd
       0.0015782322 -0.0977306 0.0008692934 -0.032618936
000120 f1 36 a5 3d 4b b9 2b 3d 07 ea 3b be 38 4e c7 be
       0.0806712 0.041924756 -0.18350993 -0.38926864
000130 1b bb 18 be 34 dc 6f be c0 69 df be 07 cb 89 bc
       -0.14915125 -0.23423845 -0.43635368 -0.016820444
000140 be 40 8c be ba 97 62 be 6b 26 b7 bc a0 fd 1d bd
       -0.27393144 -0.22128192 -0.022357186 -0.038571954
000150 18 e7 67 be ca 43 16 be ea c6 22 be 2f 3e 37 be
       -0.22646749 -0.14674297 -0.15896192 -0.17894815
000160 b7 1e b6 be f6 71 08 be 3d db 6b 3d 10 85 9f be
       -0.3557031 -0.13324723 0.05758213 -0.31156206
000170 ff 51 1b be c4 51 0a bc 9f 8e b6 be ea 18 ca bd
       -0.15167998 -0.008442346 -0.35655686 -0.09868033
000180 55 a8 d9 3b 42 13 e4 be d0 26 45 be b6 f1 45 be
       0.006642381 -0.44545943 -0.19253087 -0.19330487
000190 52 9c 38 3e 1c e0 e1 be 00 19 ab bd d0 82 81 3c
       0.18028381 -0.44116294 -0.08354378 0.015809447
0001a0 4c 13 bd bc 8f f6 48 be 39 11 74 be fd bf 92 bb
       -0.02308049 -0.19625305 -0.23834695 -0.004478453
0001b0 c9 e4 8c bd a6 92 f8 3c 1d 8e d6 be e9 7c fa 3b
       -0.06879575 0.030343365 -0.419053 0.007644285
0001c0 1b 9a aa 3d a2 50 cf be f4 5b 12 bd fe 17 8e be
       0.083301745 -0.40491205 -0.035732225 -0.2775268
0001d0 6a 31 63 be 67 ad d1 be c8 50 62 3d 56 1e 50 be
       -0.22186819 -0.40952608 0.05525282 -0.20324072
0001e0 ef f4 82 be b1 05 a7 be 42 36 73 bd 05 cd 94 bc
       -0.25577495 -0.3262153 -0.059377916 -0.018164167
0001f0 ca 8e 97 3c 88 45 bf 3d b4 4b eb 3c 1a a6 89 3c
       0.018500704 0.09339434 0.028722622 0.016802836
000200 68 c6 cb bd 76 57 4b bb 6c 37 8b 3c b8 a7 e0 3c
       -0.09949952 -0.0031027473 0.0169942 0.027423725
000210 64 0f 0c bf 05 14 82 3c 64 de fe 3c 1a 7c 5c be
       -0.54710984 0.015878687 0.031111903 -0.21531716
000220 86 1d 8c be 77 9f 24 3c 36 8d 26 be 8d 63 c8 ba
       -0.27366275 0.010047785 -0.16264805 -0.0015288458
000230 96 87 3e 3b d8 b6 f4 be 86 c3 ac be 82 6a 12 3d
       0.0029072515 -0.4779575 -0.33742923 0.035746105
000240 9d 3b ff 3c 09 27 1a bd 3d a3 17 bd e4 a4 95 3d
       0.031156356 -0.037634883 -0.03702091 0.07306841
000250 67 49 04 3b 71 c2 be 3c 9d d0 db be 91 8d 07 3e
       0.0020185353 0.023286076 -0.42932597 0.13237597
000260 0d ce 52 be 18 cb 16 3d ff 26 f7 3a 0c 93 74 be
       -0.20586415 0.03681478 0.0018856226 -0.23884219
000270 6c 13 a7 be 0c 91 ae 3d 76 e2 f0 bb 3e 15 6a be
       -0.32632005 0.08523759 -0.007351215 -0.22859666
000280 c6 83 97 bc b0 51 4e be 63 3e f9 b9 75 7d 83 3d
       -0.018495452 -0.20148349 -0.00047539463 0.064204134
000290 47 b4 12 3d 14 67 6b 3d b5 db af be 36 6d 34 bd
       0.035816457 0.05747135 -0.3434731 -0.044049464
0002a0 04 63 92 3d ca 68 a8 be eb 59 5f 3c 03 f4 44 3d
       0.07147792 -0.32892448 0.013632278 0.04808427
0002b0 03 ce 38 be 22 50 94 bd 3a e6 e7 3c 53 6a e3 bd
       -0.18047337 -0.072418466 0.028308023 -0.11104264
0002c0 6e c7 ea be b9 8d 6b be d5 0d 9a be b5 2f 81 be
       -0.45855278 -0.23003282 -0.30088678 -0.2523171
0002d0 76 45 2a 3d ba 93 58 bd 77 64 09 3c 7c 1b 65 3c
       0.04157015 -0.052875258 0.008385769 0.013983604
0002e0 ad ee be 3b 84 58 57 bd 2a 5f 49 be 1a 81 88 be
       0.005826792 -0.05257465 -0.19665208 -0.26660997
0002f0 98 b9 b6 bd df 6d 9b bd 76 64 83 b9 96 70 74 3b
       -0.08922118 -0.075893156 -0.00025061116 0.0037298552
000300 03 0a a9 3d 18 32 d9 be 18 09 a6 be 09 a9 95 bd
       0.08253863 -0.4242103 -0.32428813 -0.073076315
000310 da 3b 51 be c3 0b 4c be be a1 41 bd 66 fa c9 be
       -0.20432988 -0.19926362 -0.04727339 -0.3944885
000320 a5 ce 56 be 99 a6 16 3c b4 24 5c be f1 de 97 3d
       -0.20977266 0.009194993 -0.21498376 0.074155696
000330 bc 93 6a bd 07 92 8b 3d c0 69 ac be 34 04 16 3c
       -0.057269797 0.06814962 -0.3367443 0.009156276
000340 fb 2b 64 bc 5e 83 2a be 7f c8 e7 3c cd 96 3a be
       -0.013926501 -0.16651675 0.028293846 -0.18221588
000350 4d c5 01 3c e1 1e 9c be 7d 86 89 be 34 a5 d8 be
       0.007920575 -0.3049231 -0.2686042 -0.4231354
000360 d3 f7 4a be 60 76 ab be 62 14 2e be 86 ca ae be
       -0.198211 -0.3348875 -0.16999963 -0.34138888
000370 ac 9b c2 be 82 e1 20 3c 1e dd 37 3e c1 6a 16 3d
       -0.38009393 0.00981939 0.17955443 0.036722902
000380 83 9a 57 be 6c 6c c3 be 1e 74 29 be 18 30 ec 3d
       -0.21055035 -0.38168657 -0.16548201 0.11532611
000390 ad e3 dd be fa 58 a3 3c 1d 99 93 be e9 69 b1 be
       -0.43337765 0.019939888 -0.28827754 -0.34651116
0003a0 9c a8 fc bc bc d8 e4 be f7 b2 86 be 9e a1 48 3d
       -0.030842118 -0.44696605 -0.26308414 0.048982255
0003b0 1d e1 21 3c 7e e8 aa be be ac a1 be dd 43 6a be
       0.009880331 -0.33380502 -0.31577104 -0.2287745
0003c0 2e 35 77 3b 8b 9c c3 be 17 1a 12 3d 14 67 8c be
       0.0037720907 -0.3820537 0.035669412 -0.27422392
0003d0 35 b7 86 3e e7 d9 8f 3b 7c 7e 59 3d f4 d5 9b 3d
       0.2631165 0.0043899897 0.05309914 0.07609168
0003e0 c0 3b 72 3c d3 3c 5d be ca 87 a9 3c 4f 60 24 bd
       0.014784753 -0.21605234 0.020694632 -0.04013091
0003f0 89 d3 90 3d 4b 57 08 3d 6c f0 8e be c6 7a 85 3d
       0.07071597 0.033286374 -0.27917802 0.06517558

fc.bias f4 [10]
000000 1c 41 4e 3e 0a 06 f8 3c a0 60 10 be 70 13 88 3c
       0.20142025 0.030276317 -0.1409936 0.016610831
000010 f3 a0 09 be c6 94 3b bd 98 ae 6c 3c a7 7d 8d bd
       -0.13440304 -0.04579618 0.014445923 -0.06908732
000020 6f 66 0c be ee fc 78 3c
       -0.1371095 0.015197022
