hw3/models/classifier_usps.pth (torch_old, 20602 bytes, 2 tensors)

fc.weight f4 [10, 500]
0	0xbd4c4524	-0.049870625
1	0xbd9d55f7	-0.07682412
2	0x3aca1f2d	0.0015420668
3	0xbc7a9497	-0.015294216
4	0x3be0e34f	0.006863035
5	0xbd0ecf12	-0.034865446
6	0xbd943848	-0.07237297
7	0x3d0158f8	0.031578988
8	0xbd065733	-0.032798003
9	0x3cbfe4c1	0.023424508
10	0x3d42ab16	0.04752644
11	0x3d043a82	0.03228236
12	0x3c6b8ed0	0.014377311
13	0x3c0c21a8	0.008552946
14	0xbd2e2504	-0.04251577
15	0x3bd85223	0.0066015883
16	0xbd6464cc	-0.05576019
17	0xbda9433b	-0.08264776
18	0xbc4b4cc3	-0.012408438
19	0xbdaa5dd6	-0.08318679
20	0x3cc7388f	0.024318961
21	0xbd817039	-0.06320233
22	0xbdc9d192	-0.098544255
23	0xbd5e1616	-0.05422028
24	0xbd3186f2	-0.043341585
25	0xbd7b7c51	-0.061397854
26	0x3ca553c5	0.020181546
27	0xbd54a1d4	-0.051912144
28	0xbd362aad	-0.044474293
29	0xbd97a5e8	-0.07404691
30	0xbd3cc1fb	-0.04608343
31	0xbc07a531	-0.008279131
32	0xbcee9d39	-0.029127704
33	0x3cba839c	0.022767834
34	0x3d031eb4	0.032011703
35	0xbd3733e4	-0.04472722
36	0x3ce6cf83	0.028175121
37	0x3c85bdad	0.016325796
38	0x3d6bcf64	0.05757083
39	0x3cbc5415	0.022989312
40	0xbda42d76	-0.080164835
41	0xbd348282	-0.044069774
42	0xbd8d1c4b	-0.06890162
43	0x3d6a2108	0.057160407
44	0x3d1e4ce9	0.038647566
45	0xbdba48eb	-0.09095939
46	0xbc98ce2e	-0.018653002
47	0x3c8ba773	0.01704762
48	0x3ce17378	0.02752088
49	0xbd8c91d0	-0.06863749
50	0xbdb17daa	-0.08666547
51	0x3ca51abe	0.020154353
52	0x3ce4fd88	0.027952924
53	0x3c244dd2	0.010028319
54	0x3d54ed6b	0.051984232
55	0xbd0f32b1	-0.034960452
56	0xbc8c5676	-0.017131072
57	0xbd9e9eb4	-0.07745114
58	0xbc32af4d	-0.010906053
59	0x3c907bf0	0.017637223
60	0xbd8e1878	-0.06938261
61	0xbd9a33e5	-0.07529429
62	0x3b3d284a	0.0028863125
63	0x3d9bcea4	0.07607773
64	0x3cbefcab	0.02331384
65	0x3cb8bcc3	0.022550946
66	0xbda5a94d	-0.08088932
67	0x3d04ae84	0.032392994
68	0xbd2a0d0e	-0.041516356
69	0x3d1fe9c3	0.039041292
70	0xbd810aff	-0.063009255
71	0x3cb51b84	0.022107847
72	0xbcc439c3	-0.023953324
73	0x3d29bf8d	0.041442443
74	0x3cea15ba	0.028574813
75	0xbd2679bd	-0.040643442
76	0xbc1e9aa6	-0.009680426
77	0x3d0ed3ef	0.034870084
78	0x3cc44b80	0.023961782
79	0x3c800da5	0.015631506
80	0xbd1eb9c6	-0.038751386
81	0x3cd0a804	0.025470741
82	0xbb5fe1f3	-0.0034161776
83	0x3d2b7ec9	0.04186896
84	0x3d82db94	0.063895375
85	0xbc2af3fb	-0.010434146
86	0x3d96843f	0.07349443
87	0xbbe126d6	-0.0068710847
88	0x3c9c4595	0.019076148
89	0x3c4efe6a	0.012633899
90	0xbd3daafe	-0.04630565
91	0xbcc84f7a	-0.02445196
92	0x3cdcd3f6	0.02695654
93	0xbd11d46a	-0.035602964
94	0xbda8d295	-0.0824329
95	0x3cc17211	0.023613961
96	0x3c2a9dac	0.0104135685
97	0x3d07b66b	0.03313295
98	0x3c122f7b	0.008922453
99	0x3d5f0ca9	0.054455433
100	0x3d70af8f	0.058761176
101	0xbdb6c703	-0.08924677
102	0x3cd013fd	0.025400156
103	0x3c5395fd	0.012914178
104	0x3d015f45	0.031584997
105	0xbcd529e0	-0.026020944
106	0xbd5c0480	-0.05371523
107	0xbc487fed	-0.012237531
108	0xbda65434	-0.08121529
109	0x3d1dc428	0.038517147
110	0x3cf5e53a	0.03001653
111	0x3d532a2f	0.0515539
112	0xbda3bd8b	-0.07995137
113	0x3d171c85	0.036892433
114	0xb985ac25	-0.00025495994
115	0x3d211c2c	0.039333507
116	0x3d514ed5	0.05110057
117	0xbd0b6ec5	-0.034041185
118	0x3d0e8e9a	0.034803964
119	0xbd5fc4f9	-0.054631207
120	0xbd09b59d	-0.033620466
121	0xbd23ce37	-0.039991584
122	0xbdbafbb6	-0.09130041
123	0x3c8c8569	0.017153459
124	0x3cdc3142	0.026878957
125	0x3d4c9169	0.04994336
126	0x3b503208	0.0031768102
127	0xbdac16b2	-0.08402766
128	0xbd0a04b3	-0.033695888
129	0xbd271ac0	-0.040796995
130	0x3d681da6	0.0566689
131	0xbcd85147	-0.026405944
132	0x3c0f156e	0.008733137
133	0x3ccfcbb5	0.02536569
134	0x3d4c2da9	0.049848232
135	0x3c846b2f	0.01616439
136	0x3ca61b73	0.02027676
137	0xbda42bc0	-0.08016157
138	0x3cf13f77	0.029449208
139	0x3cd6dbb7	0.026227815
140	0xbda66c2c	-0.08126101
141	0x3cd7fb7a	0.02636503
142	0xbde38869	-0.111100025
143	0x3d4a1610	0.049337447
144	0x3c899e5b	0.016799143
145	0xbd212251	-0.039339367
146	0xbccdc7ee	-0.025119748
147	0x3c03a44d	0.008034778
148	0xbd9f2b8d	-0.077719785
149	0xbb5fbe6d	-0.0034140602
150	0xbd35b1f4	-0.044359162
151	0x3d742f9d	0.05961572
152	0x3c33e198	0.010979079
153	0x3d3122a5	0.04324593
154	0xbc33b16f	-0.010967596
155	0xbd2a8b9d	-0.04163705
156	0xbcf5cea5	-0.030005762
157	0xbd951fef	-0.072814815
158	0xbce26a48	-0.02763857
159	0xbce3c685	-0.027804622
160	0x3c1a2e9a	0.009410525
161	0x3cf4f971	0.0299041
162	0xbddc0740	-0.1074357
163	0x3d1e3466	0.03862419
164	0x3d1205c0	0.035650015
165	0x3c6f3002	0.014598848
166	0xbc0a8d10	-0.0084564835
167	0x3c97ade1	0.01851553
168	0x3c0bd84f	0.008535459
169	0xbc90ec27	-0.017690731
170	0xbd906c45	-0.07051901
171	0xbb11a677	-0.0022224465
172	0xbbf88c85	-0.0075851106
173	0x3d18c30a	0.03729538
174	0x3c7b31b5	0.015331675
175	0xbcfac1c0	-0.030609965
176	0xbbe3b06b	-0.006948521
177	0x3d3cf83f	0.046135183
178	0x3c11d7ae	0.00890152
179	0x3ccc2502	0.02491999
180	0xbd1ac004	-0.037780777
181	0xbd88ce09	-0.06679923
182	0xbcfa1910	-0.030529529
183	0x3ccbcd91	0.024878295
184	0xbd4a4d58	-0.049390167
185	0xbd65e677	-0.05612799
186	0x3cd31f8d	0.02577188
187	0xbd470a50	-0.04859382
188	0xbd017c6f	-0.03161281
189	0xbcf7fe86	-0.030272733
190	0xbd12238e	-0.03567844
191	0x3ca8e598	0.020617291
192	0x3d1897ff	0.03725433
193	0xbd28ab32	-0.04117889
194	0xbc8b44e8	-0.01700063
195	0x3d16fea0	0.036863923
196	0xbda50159	-0.08056898
197	0xbb40e36c	-0.002943243
198	0xbd32b26b	-0.043627184
199	0xbc4f568f	-0.0126549145
200	0x3c455814	0.012044925
201	0x3c975e10	0.01847747
202	0x3d139bfa	0.036037423
203	0x3cfe68cb	0.031055829
204	0x3d523e59	0.05132899
205	0x3cb0ea08	0.02159597
206	0xbd0bd96c	-0.034142897
207	0x3ce54bc0	0.027990222
208	0xbd6e807e	-0.05822801
209	0x3cdc914b	0.02692475
210	0xbab08874	-0.00134684
211	0x3d1ed1a9	0.038774166
212	0x3c35ba16	0.01109173
213	0x3cd041c8	0.025421992
214	0xbd5e7b25	-0.05431666
215	0xbd486bc3	-0.048930895
216	0x3d1a8989	0.03772882
217	0x3bdf3c67	0.0068126204
218	0x3be6edeb	0.007047405
219	0xbd5885a0	-0.05286181
220	0x3bdf20dc	0.006809337
221	0x3d22a86a	0.039711393
222	0xbdb2b975	-0.08726779
223	0xbcd220a5	-0.025650332
224	0xbdbd27ea	-0.09236129
225	0x3c53bb03	0.012923005
226	0x3cc48aea	0.02399202
227	0xbd5335db	-0.051565032
228	0xbdad2b09	-0.08455474
229	0xbd5cb1b6	-0.053880416
230	0xbd384760	-0.044989944
231	0x3ce672d1	0.02813092
232	0x3c373d46	0.011184042
233	0x3d19152a	0.0373737
234	0x3d8d390f	0.06895649
235	0xbd4edca3	-0.050503384
236	0xbc9752d8	-0.01847212
237	0xbc12c341	-0.008957685
238	0x3c5737c6	0.013135856
239	0xba41f240	-0.0007398464
240	0x39a675d8	0.00031749788
241	0x3d294366	0.04132404
242	0xbceb4c49	-0.028722899
243	0xbd3e5340	-0.046466112
244	0xbd54aab2	-0.0519206
245	0xbd22929d	-0.039690603
246	0xbda208ff	-0.07911872
247	0x3c88dc2a	0.016706545
248	0x3d255624	0.040365353
249	0xbd542634	-0.051794246
250	0xbd140d65	-0.036145587
251	0xbd806fd8	-0.062713325
252	0x3cddd1c8	0.02707757
253	0xbd21db52	-0.0395158
254	0xbd865624	-0.06559399
255	0xbbcc3530	-0.0062319264

fc.bias f4 [10]
0	0x3b5e8ced	0.003395851
1	0x3acac90a	0.0015471291
2	0x3c97287d	0.018451924
3	0x3cc1333c	0.023584
4	0x3c711446	0.014714306
5	0x3cdc8fce	0.02692404
6	0x3c022753	0.007943946
7	0x3d3dcdb1	0.04633874
8	0x3ce41e58	0.0278465
9	0xbbaaf4af	-0.005217157
