hw3/models/mnistm.pth (torch_old, 836884 bytes, 34 tensors)

feature.0.weight f4 [32, 3, 5, 5]
00000000: 472d 043e dadb 263e 43d1 073e 5a61 ae3d
00000010: 2e22 1dbd fa01 53bd 4001 25be 820a aebd
00000020: 1e44 8abd 8560 0d3d 15fb 05be f66d c43a
00000030: b9e2 b63c db55 a03d faf8 0fbe 35f1 f43c
00000040: 20cf 833d a01c b03d 0309 bebd 0b32 f03c
00000050: e245 c8bd 1bfe 093e 7ac0 af3d 7447 8a3e
00000060: 1c91 263e f524 ae3d 6073 253e 7aa2 a7bd
00000070: fd29 93bd f6d2 14be 1c12 1a3e fee3 293c
00000080: 3bde 1fbe 2974 73bb 4e38 0abe 2ef7 c2bd
00000090: bb57 4abd e32e f1bd 17ed c5bc fdec 68bd
000000a0: 33a3 02be f5e4 6bbd ebba 4fbd dcbd b3bd
000000b0: 9980 6abd 8691 a6bd f48d 503e 7aba 773c
000000c0: e51c 683e a239 593e cc56 d9bd 56ce e0bc
000000d0: 208a d4bc f0ba 0c3b 6245 a3bd 2bad 51bb
000000e0: 2917 e63d c37a a13d 5be1 093e c508 7a3c
000000f0: eade 1dbe 4d79 013e 4073 c33d 443f 6fbe
00000100: 9869 97be 4219 85bd 306c 9bbe c946 b1be
00000110: ae8a a4be 5696 5fbe 7649 61be 6340 f8bd
00000120: e2b4 bdbd ee85 c6bd b163 833c 3399 0abb
00000130: 4ff4 08be 69bd bd3d ee37 6b3e 4f6a ca3d
00000140: 6df2 163d e581 963d 0be1 a6bd 07fd 33be
00000150: 2cd7 a13a 2ebc 25bd 252a 33bd 1d8c 1f3e
00000160: f87c 883e 2040 dfbc d7c0 843c ce8d 3ebd
00000170: 7e9b 4abe a160 51be c9d0 0dbd cb12 81bd
00000180: 776a 9f3d 8271 28bb c948 e43d 8ef1 88bd
00000190: 469f 253d 7f7d 003e 9016 f03d abae 2c3e
000001a0: 2400 4b3e e104 723c 8c3a 06bc 5e7e 1bbe
000001b0: a431 52be 5636 b5bd 948c 33be 2d66 babd
000001c0: 9efc f93d 8400 d13d 9b1d acbd 2065 8b3a
000001d0: 677d 76bd 6768 97be 6276 4ebe cc58 14bd
000001e0: eafc 95bd 22d3 0d3d 898a 263e cde4 9a3d
000001f0: 8b61 05bb 2c8e a93b 46af 503c 29a6 6ebe
00000200: 4a32 0dbd c7e4 3dbe 8889 a8bc dcb6 9abb
00000210: 0999 ccbd 0d01 90be 12b8 abbd 764f 0a3e
00000220: 5960 0d3e 4aea 9c3e 0ce4 953e d581 ca3d
00000230: 160f b53d 7e40 a2bd a924 01bd 1e8c 863d
00000240: 7c11 f43d 8e29 9f3d 90d0 5ebc 61cf 923d
00000250: c29f acbd 2c9a acbb 8ce2 c73d b54c c6bc
00000260: 9360 b5bc ce84 04be af0a 4fbe 6ec2 423e
00000270: cb19 583e 0065 e73d 74c4 afbd 78b3 3ebc
00000280: 7855 21bd 7a7d b13d c79e 553e 7696 8f3d
00000290: 37a1 f8bb 96d6 183a f92f 87bd dac0 9a3d
000002a0: df2d 303e 08e1 d73c af88 88bd f3dd 37bd
000002b0: 3348 bf3c f696 d43d b5be 2b3e 3655 ad3c
000002c0: 545c 933d 31bb 613d 63b0 073e 0799 f93c
000002d0: 529c 823a a6ea 8a3d e319 8b3d 6f08 313e
000002e0: 9d00 ff3d be4e a0bd b701 92bd 0fc5 d2ba
000002f0: e669 863d 48d3 793e 5af6 97bd b30f 68bd
00000300: f6c4 f8bd 8aba 063d 054c f93d 34cb 21be
00000310: 5ee0 20be 0ee2 4fbe 5d70 8fbd 267c 893d
00000320: da7d 48be b2e6 cfbd 0b3c 3c3c 8d33 eebb
00000330: 8120 163e 5ba2 69be 0bd1 76be c841 cebd
00000340: 2967 c3bd 0dfe d0ba 6f5a 41bc 5c90 3cbe
00000350: 6e26 67be ba4b 14be ccdc 38be 3b36 763e
00000360: 0c2c 0e3d c581 3fbc 5cf8 a1be 1b24 32be
00000370: 5912 8f3e cc52 623e 067e 473e d0a9 c3bd
00000380: 20ab 84be 7511 03bc 179f 0fbe bca8 8cbd
00000390: f96c 45be b284 6ebd b440 513d 6c03 383d
000003a0: 726c 6bbd ed00 42bd 19db 39bd 7f67 3e3e
000003b0: dbd5 a63e b4f3 973e 8dfa 503e a8b4 14bc
000003c0: d575 b3bc 16bb 793d 44a2 003e 2220 413d
000003d0: d6f0 953d 3628 38be 53de 8abe 5650 73bd
000003e0: 4a5f 843c 8fc7 9aba 7a31 62bd 7acf 3cbd
000003f0: 9c35 86bd 9b62 e43c e74a b03c 080c c1bd
0.12907897 0.16294804 0.13263421 0.08514662 -0.038362674 -0.051515557 -0.16113758 -0.08498098
-0.067512736 0.034515876 -0.13084061 0.0014986384 0.022324907 0.07828876 -0.14059821 0.029900173
0.0643599 0.0859921 -0.092790626 0.029320737 -0.09778954 0.1347584 0.08581634 0.2700764
0.16266292 0.08503143 0.16157293 -0.08185287 -0.07185743 -0.145336 0.1504597 0.010369299
-0.15612118 -0.0037148094 -0.13498041 -0.09519802 -0.049400073 -0.11776521 -0.024160905 -0.056866635
-0.12757568 -0.057591397 -0.05071537 -0.08776447 -0.057251547 -0.08133225 0.20366651 0.015120143
0.22667272 0.21213391 -0.10612258 -0.027442139 -0.02594477 0.0021473728 -0.07972218 -0.0031994085
0.11234886 0.07884743 0.13464873 0.01526088 -0.15417066 0.12643929 0.095434666 -0.23363978
-0.2957275 -0.06498958 -0.30355978 -0.34624317 -0.32137054 -0.21834692 -0.2200068 -0.12121656
-0.09263016 -0.09693514 0.016038748 -0.0021148443 -0.13374446 0.09264643 0.22970554 0.09883558
0.03685229 0.07348994 -0.08148392 -0.17576991 0.0012347451 -0.040462665 -0.043741364 0.15580793
0.26657844 -0.027252257 0.016205234 -0.046521954 -0.19785878 -0.20447017 -0.03462294 -0.063024126
0.077839784 -0.0025702422 0.11146695 -0.06686698 0.040435098 0.12547873 0.117230535 0.16863506
0.19824272 0.014771671 -0.00819267 -0.15184924 -0.20526749 -0.088482544 -0.17534095 -0.0910152
0.12206386 0.102051765 -0.08404084 0.0010634996 -0.060178187 -0.2957184 -0.20162347 -0.036217496
-0.0732363 0.03462518 0.16263784 0.075631715 -0.002035233 0.005174419 0.012737101 -0.23305573
-0.034471788 -0.18544303 -0.020573393 -0.0047215056 -0.09990127 -0.28125802 -0.08384718 0.13506874
0.13806285 0.30647498 0.29275548 0.09888045 0.08840768 -0.07922457 -0.031529102 0.06569694
0.119173974 0.07771598 -0.01359953 0.07168461 -0.08428909 -0.005267402 0.09760007 -0.024206499
-0.022140777 -0.12941286 -0.20218919 0.19019482 0.21103589 0.11298561 -0.08582392 -0.011639468
-0.03938815 0.08666511 0.2086135 0.0701112 -0.0075875777 0.00058303156 -0.06600947 0.07556315
0.17204998 0.02635242 -0.06666695 -0.0448894 0.023349857 0.10380356 0.16771968 0.021158796
0.071953446 0.05511016 0.1325088 0.030468477 0.00099648 0.06783037 0.06792047 0.17288373
0.12451289 -0.07827519 -0.07129233 -0.0016080457 0.06563167 0.24397004 -0.07420035 -0.056655597
-0.12146942 0.03289274 0.12172703 -0.15800172 -0.1571059 -0.20301077 -0.070038535 0.067131326
-0.19579259 -0.101514235 0.011488925 -0.007269329 0.14660837 -0.2281584 -0.24103181 -0.100711405
-0.095411606 -0.0015944854 -0.011801346 -0.18414444 -0.22573254 -0.14482012 -0.18052977 0.24044125
0.034709975 -0.011688654 -0.31634796 -0.17396586 0.27943686 0.22101897 0.19481668 -0.095538735
-0.25911808 -0.007999768 -0.14025532 -0.06868121 -0.19279851 -0.058232017 0.051087096 0.04492514
-0.05747647 -0.047364164 -0.045374963 0.18594168 0.32585034 0.29678118 0.20408078 -0.009076275
-0.021906773 0.060969435 0.125619 0.047149785 0.073213264 -0.1798409 -0.27122745 -0.059402786
0.016158719 -0.0011808741 -0.055222966 -0.046096303 -0.06553194 0.02787905 0.021520091 -0.09426123

feature.0.bias f4 [32]
00000000: 34ee 673e 200a 8b3e 4017 553d 2150 503c
00000010: eec1 673d 9b6e 1cbe 5ea5 88bd b290 1ebe
00000020: 4cf4 3dbc c271 18bd 7147 85bd bbf5 993c
00000030: f541 22be c73f 053e 09dc 9cbd 4543 8c3d
00000040: 2595 ed3d 3f7a 2a3e 2c12 56bb 8896 523d
00000050: f25b e5bd 3bb8 de3d 0703 88bd c77e d4bd
00000060: 987d 323c 7645 4cbd a9d8 ba3d 8fb7 a13d
00000070: 1f4f e2bd 0480 d5bc 51ad 3abc 630c 8b3d
0.22649461 0.27156162 0.052024126 0.012714417 0.05658143 -0.15276568 -0.06672166 -0.15484884
-0.011593889 -0.037217863 -0.06507767 0.018793931 -0.15845473 0.1301261 -0.07659156 0.06848768
0.11600713 0.16648196 -0.003266464 0.05141309 -0.11199178 0.10874983 -0.066412024 -0.10375743
0.010894202 -0.04987093 0.09123356 0.07896339 -0.110502474 -0.02606202 -0.011393861 0.06789472

feature.1.weight f4 [32]
00000000: b586 a83e e0f1 873e e8ca 373f 1214 033f
00000010: ecf4 b83e e1bd 0e3f ff47 193f a0be 023f
00000020: 0df2 b13e 540e 133f 8118 1d3f 1bd2 df3e
00000030: 8d5f 193f 9b7e e03e cc7d 2e3f 8537 bd3e
00000040: e003 dc3e 47df d13e 01ed c83e bc25 a93e
00000050: fd21 913e c2df 833e 9c76 c13e cf24 833e
00000060: 1222 143f b332 503f 42de 2d3f 66c7 293f
00000070: 1511 dc3e 2809 453f 58f7 f53e a09a be3e
0.32915273 0.26551723 0.71793985 0.512025 0.3612436 0.5575848 0.5987548 0.5107212
0.34754983 0.5744374 0.61365515 0.43714985 0.59911424 0.43846592 0.681607 0.3695642
0.42971706 0.4099066 0.3924332 0.33036602 0.28346244 0.2575665 0.37785804 0.2561402
0.5786449 0.8132736 0.67917264 0.6631988 0.42981783 0.76967096 0.4804027 0.37227345

feature.1.bias f4 [32]
00000000: f6c0 743b 777c 9cbc 3b84 b13d 111f 67bd
00000010: 1e39 0a3d 4c29 74bd 08f1 8cbe 20c7 88bd
00000020: feee c2bd 4198 d2bd 575a 5cbd b42d d2bd
00000030: b902 23be f132 0ebe 580a 24be 83aa ffbd
00000040: 8966 0cbd a823 8cbd fc68 00bd bb3a 99bc
00000050: 601d 65bd e8a8 07bc 8004 163b 339d f6bd
00000060: 37fe 9fbd ba7d adbd ac8d 2cbd 547e 4ebe
00000070: 0baa 10bd 1ab2 97bd cf07 a0bd b6e8 30be
0.003734646 -0.019102318 0.08667799 -0.05642611 0.033745877 -0.059609696 -0.27527642 -0.06678605
-0.095182404 -0.102829464 -0.053797092 -0.102626234 -0.15919007 -0.1388662 -0.16019571 -0.124836944
-0.034277473 -0.068427384 -0.03135012 -0.018704763 -0.055936217 -0.0082800165 0.0022890866 -0.12041702
-0.078121595 -0.08471246 -0.042127296 -0.20165378 -0.035318416 -0.07407017 -0.07813989 -0.17276272

feature.1.running_mean f4 [32]
00000000: d830 0fbf de60 823e 152b 3dbd e6f3 d2b9
00000010: c5a4 98bf 7664 14be f248 b63e 727b 39be
00000020: 2ff8 123d c742 abbb 587e 48bd 6da1 7c3c
00000030: c468 f8bd de7d 0d40 1f73 6fbd 3ca3 ac3f
00000040: 59d4 d63c d1df 0f3f 7461 913d c890 6b3d
00000050: b6fc 8cbe 11e0 29bf 2a90 a2be d184 323e
00000060: 27bf 653c a2e6 00bd 9cc6 f23d 55e3 143e
00000070: 0c7e 29be a840 bfbd 0999 b43d 8898 1abf
-0.55933905 0.2546453 -0.046183664 -0.0004023604 -1.1925284 -0.14491448 0.35602528 -0.18113497
0.035881218 -0.0052264663 -0.048948616 0.015419346 -0.121293575 2.2108073 -0.058459397 1.3487315
0.026224302 0.5620089 0.07098666 0.05751112 -0.27536553 -0.66357523 -0.31750613 0.17433478
0.014022625 -0.03146995 0.11854288 0.14539845 -0.1655199 -0.09338504 0.08818252 -0.60388994

feature.1.running_var f4 [32]
00000000: ba0d 643e 9a5b cf3c 8bc5 623d 6d75 893c
00000010: 7c4d af3e 4fdc b13c fba3 7c3e 5d1b 813d
00000020: 7e51 0e3d b78b 023d ef05 813c ad65 dd3d
00000030: ff27 fd3c d439 423f 3b7f cb3c bea7 853e
00000040: 6219 983d 41b0 b33e b089 da3c 5f8b df3c
00000050: d2d0 8b3e 3ac0 1c3e d075 193e c289 893d
00000060: 1be1 a83c 2461 063d 4b02 843d 8295 153d
00000070: 120b 423d d104 413d 867f 3d3e cd49 6f3e
0.22270861 0.025312234 0.055364173 0.016779626 0.34238803 0.021711497 0.24671929 0.06304047
0.034745686 0.031871524 0.0157499 0.10810409 0.03090286 0.7586949 0.024840942 0.2610454
0.074267164 0.3509541 0.026676983 0.027288137 0.27307755 0.15307704 0.14986348 0.06715728
0.020615151 0.032807484 0.0644575 0.036519535 0.04737384 0.047123734 0.18505678 0.23367997

feature.4.weight f4 [48, 32, 5, 5]
00000000: 0a98 1cbd e97a a8bd 2eca b3bd 4156 9abd
00000010: a535 d2bd ec01 c6bd c483 95bd 3732 1ebe
00000020: 6d2a 1ebe da08 90bd c238 c2bc 5b67 f1bd
00000030: 7f64 e2bd f781 84bc 57ae 05be 4983 63bd
00000040: 49c5 ea3d f798 38be 59dc 32be 4246 8ebe
00000050: 3fbb dabc 49fc 8abd 870d 36bd b5e9 03be
00000060: eeb7 ad3d 17a8 1ebe 8f7b d1bd d674 4d3e
00000070: cc60 0d3e cb75 fe3d bf97 20bb 00ee b0bc
00000080: 1efb b03d 4f83 ee3c 6bda 623d b43f 1fbd
00000090: 6c5f 4b3d 4836 0fbc 685f a3bd 6125 733e
000000a0: 0818 00be 008f d5bc c62e 14bd 6aa0 b1bd
000000b0: f3ec 823d c361 e53d 51bb 4f3d bdc7 833d
000000c0: 07fa 7dbc 2451 2a3e e743 b5bc cdca 913c
000000d0: 5e33 f8bc 0223 7dbd d79d 883d ef99 533e
000000e0: 8920 9fbc b6c2 e0bd 9643 a4bd 2419 d9bd
000000f0: 47ba d73d 4a2f 53bd 61cb 51be fdda 14be
00000100: 968c 00be 48af 243a 2dc9 0d3c d7db 453c
00000110: 0fbb 34bd bbfa 1e3c 958f 00be 4f4c 02bc
00000120: 1a2a 73be 2745 ac3d 417e a5bb aeeb 00be
00000130: 4fd2 07be 4084 943c 66be 79bc bf8d 02be
00000140: bfa8 623e c7ad f2bd a856 7cbe 8bd2 a5bd
00000150: d6cc 7c3c 4b27 d83d d601 04be 1fb8 e4be
00000160: 44fe c3bd d781 9a3d 2127 fcbd d75a e8bd
00000170: e4ba 5fbe 89de 23be ddff b33d fa8a 43be
00000180: a395 48be 7fcf 94bd 6f74 ddbd b003 ef3c
00000190: c510 a53c ff31 8d3b 2c3d eabd 064b 9fbd
000001a0: 833d 9fbc 0604 f63c 3239 b63d 4775 9b3d
000001b0: 23e4 eebd 0c4a de3c 035f 893d ad14 27bd
000001c0: 4c1b 27be 0d6a 41be 6ace fbbd b1c3 cf3d
000001d0: c59f 55bd d3fa 613d abae 323c b7a9 32be
000001e0: af07 c9bb 4123 02be 6138 8c3d 35b7 1cbe
000001f0: f5f9 b7bd 9a47 eebd ccd4 bbbd 86f2 e13d
00000200: 7053 453e eac5 d03d 22e2 b2bd 2d3b e8bd
00000210: 0be0 29bd 82fe 9abc 3b8a 65bd 3f75 c13d
00000220: 4f97 c6bc ba66 2cbe cfff 7abb 292c 663e
00000230: 19a1 bd3d 71c1 a1bd 68a2 80be 65ba 32be
00000240: 7af6 9a3d 8afc f8bc 2744 83bc ae4d 10bd
00000250: 3598 05be 469f d23c cca8 d73d 8408 483d
00000260: 09d0 ffbd df14 c8bd 75b2 dbbd 9fb4 433d
00000270: cbff fdbb 2cc7 0ebe eb6c 9dbe 23be a8bd
00000280: 4198 5a3c b480 14bb 2a88 c3bd e24b 25be
00000290: 5543 77bd ee47 943d 8bca 813d 38a4 a6bd
000002a0: ccf7 b0bc 8eef cfbd 87ab 0f3e d48b 283e
000002b0: c3aa 983b 7ccb 0b3d 21c0 f7bd 4a10 f53d
000002c0: 60c2 b9bb 90aa a33d 8bb0 773d 57c8 093c
000002d0: dbe5 693e c464 b3bd 3ebf b4be 1ab4 00be
000002e0: 05c2 9dbe 2187 873d d029 9ebd 9011 3dbe
000002f0: 33c9 40be a51b f4bd 3ff8 3abd 0f59 6ebe
00000300: 228d c6bd cf8a a8bd 3dc9 b93d d77e a9bb
00000310: 4941 52be 010e bdbd b8ba 013d a31c 063d
00000320: 2bfb 00be f96c a0be 970b 5cbd a6dd 993e
00000330: 68dc 263e 6036 24be 8f7f 12be 4fe4 0d3e
00000340: 3c28 d3bd 8af7 1d3e 130c 11be 26de 0cbd
00000350: 3595 b3bd 1ac2 d53d be85 463e c150 b03d
00000360: d832 9d3d 08ba 323e 4d5f 74bd df68 b13d
00000370: dd1d d93d bae4 003e 7e7c 253d 9f24 413e
00000380: c251 95bd 8537 50be 692d 9abe 16fd 07be
00000390: f344 d6bd 3f08 b7bc 2718 10bd 5a88 04be
000003a0: 5195 163d c95e 023e 1666 9a3d 48de bc3c
000003b0: 61a6 33bd 0b74 5138 753d 81bd 0099 11be
000003c0: 8271 f13d 7979 2a3d fca9 32bd 385e adbd
000003d0: 6a2f 14be a427 7a3d 640d 023d de24 91bd
000003e0: bb8f a7bd 1ea9 4bbe 366f 26be 0331 62be
000003f0: 0b49 603c 042a 753e 8d7b 9e3d 6b44 323d
-0.038230933 -0.08226568 -0.08778797 -0.07535983 -0.10264138 -0.09668335 -0.07300523 -0.15448843
-0.15445872 -0.07032938 -0.023708705 -0.117872916 -0.11054324 -0.016175253 -0.13054787 -0.055545125
0.114634104 -0.18027101 -0.17466868 -0.27787977 -0.026700614 -0.06786401 -0.044446494 -0.12882121
0.084823474 -0.15493809 -0.10228645 0.200641 0.13806456 0.12424811 -0.002450451 -0.021597862
0.08641647 0.029115347 0.05538408 -0.03887911 0.04965155 -0.008740969 -0.07977182 0.23744728
-0.12509167 -0.026069164 -0.03617742 -0.08673175 0.06392851 0.11200287 0.05071575 0.064345814
-0.015501506 0.16632515 -0.022127105 0.017796898 -0.030297931 -0.061800964 0.066707306 0.2066419
-0.019424694 -0.10974638 -0.080207035 -0.10600498 0.105335765 -0.05155877 -0.20487739 -0.14536662
-0.1255363 0.00062822225 0.008653921 0.01207634 -0.044123705 0.0097033335 -0.12554772 -0.007952764
-0.23746529 0.08411627 -0.005050451 -0.12589905 -0.1326382 0.018129468 -0.015243148 -0.12749384
0.22134684 -0.11849552 -0.24642432 -0.080967985 0.015429696 0.105543695 -0.12891325 -0.44671723
-0.09569982 0.07544296 -0.12312151 -0.11345451 -0.21848637 -0.16002859 0.087890364 -0.19095984
-0.19588332 -0.07266139 -0.108132236 0.029176563 0.020149598 0.0043089385 -0.11437449 -0.077779815
-0.01943851 0.030031215 0.08897628 0.07590728 -0.116646074 0.027134918 0.06707575 -0.040791202
-0.16319007 -0.18888111 -0.1229523 0.10144747 -0.05215432 0.055170845 0.010905902 -0.17447554
-0.006134949 -0.12708761 0.06846691 -0.15304263 -0.089832224 -0.11634751 -0.09171447 0.11032586
0.1927011 0.10193999 -0.08734538 -0.11339412 -0.04147343 -0.018920187 -0.05604003 0.09446191
-0.024242071 -0.16836062 -0.0038299446 0.22477783 0.092592426 -0.07898224 -0.25123906 -0.17453916
0.07566543 -0.030393858 -0.016023709 -0.03523033 -0.13046344 0.025710713 0.10530242 0.048836246
-0.124908514 -0.09769606 -0.10727397 0.047779676 -0.00775144 -0.13943166 -0.3074716 -0.08239391
0.013341964 -0.002265972 -0.095474556 -0.16142228 -0.060366947 0.07240282 0.0633746 -0.08136791
-0.021602534 -0.10153113 0.14030276 0.1645959 0.0046590283 0.034129605 -0.120971926 0.119659975
-0.0056689233 0.079915166 0.0604711 0.008409581 0.22841589 -0.08759454 -0.35302156 -0.12568703
-0.30812088 0.06617571 -0.07722819 -0.18463731 -0.18826751 -0.11919335 -0.045646902 -0.2327616
-0.09694888 -0.08229601 0.09071586 -0.005172591 -0.20532717 -0.09231187 0.03167221 0.032742154
-0.12595813 -0.3133314 -0.05372199 0.30051917 0.16295016 -0.16036367 -0.14306472 0.13856624
-0.103104085 0.1542646 -0.14164762 -0.034391545 -0.08768693 0.104374126 0.19386956 0.086091526
0.07675713 0.17453778 -0.0596612 0.08662581 0.10601399 0.12587252 0.040401928 0.18861626
-0.07290985 -0.20333679 -0.3011277 -0.13280138 -0.1046237 -0.0223428 -0.035179283 -0.12942639
0.036763493 0.1273147 0.075390026 0.02305521 -0.043859843 4.9937556e-05 -0.0631055 -0.14218521
0.11789228 0.04161975 -0.04361914 -0.084652364 -0.14471212 0.06107296 0.03175105 -0.0708711
-0.08181711 -0.19888732 -0.16253361 -0.22089009 0.01368929 0.23941809 0.07738409 0.04352228

feature.4.bias f4 [48]
00000000: e691 f73c 9fd4 dbbb 2533 e8ba 37fe 813a
00000010: 4a08 5e3d 4a42 c03c c4d0 4c3d 8abe a3bb
00000020: 0627 f0bb 8824 f0bb 0093 1f3c 47ba bf3c
00000030: 50ca c5bc 0631 00bd fbac 0b3d 4e43 b93c
00000040: 5a41 7e3d c852 e4ba 752d 9d3b cd72 1abd
00000050: f625 75bc 10b3 b13c 7b46 903c 76d6 923c
00000060: 729a 0c3d 6ec6 9b3c c5be ad3d e8b0 3f3d
00000070: c2e1 99bc 98a4 ba3c 694f f73b 7f0c 8bb8
00000080: 359a bc3c 1e4b bbbc 58b2 bbba debf eabc
00000090: 3fc7 e1bc c599 07bd 47e4 453c 3922 fdbb
000000a0: 51d0 02bd 619f 43bd bd61 28ba add5 06bc
000000b0: 6589 26bd d5e9 593c daa0 d7bb 6c6e 1b3c
0.030220937 -0.006708696 -0.0017715438 0.0009917681 0.054207124 0.02346911 0.050003782 -0.0049970793
-0.0073288707 -0.0073285736 0.009739637 0.023404254 -0.024144322 -0.031296752 0.034100514 0.022615101
0.062074043 -0.001741969 0.0047966787 -0.03770714 -0.014962664 0.021691829 0.017611733 0.017924529
0.034326978 0.019015517 0.08483652 0.04679957 -0.018784408 0.022783563 0.007547308 -6.630364e-05
0.02302275 -0.022862967 -0.0014320118 -0.028655943 -0.027560828 -0.03310563 0.012078351 -0.007725027
-0.031936947 -0.047759417 -0.00064232555 -0.008229655 -0.040658373 0.013300379 -0.0065804543 0.009486776

feature.5.weight f4 [48]
00000000: 9c6b f33e 955c f93e ab5f c53e 796c c33e
00000010: 683c 0b3f 4e98 c33e ad50 fc3e 859c 163f
00000020: dc62 153f f73c d43e a8bb a63e 470e 0c3f
00000030: 24df df3e e5c1 f43e c5b4 143f 4537 853e
00000040: 8e4a 293f d65c d53e 1708 9a3e 8278 f53e
00000050: 0cea 83be 995a 1f3f 4f89 df3e 8727 013f
00000060: 2cc2 c73e 4145 d23e 6a0d 143f 2ea4 de3e
00000070: 3dda a33e 8c6f b73e fb48 cf3e f6e0 fa3e
00000080: ceb7 b33e 0420 c03e f639 8d3e 7a50 bc3e
00000090: 06aa 933e 4145 233f 3839 173f ee6c f83e
000000a0: 4049 0a3f 05b8 103f f4ef f23e 6120 193f
000000b0: bd74 1e3f d020 cd3e ae0d 133f 6731 193f
0.47543037 0.48703447 0.3854955 0.38168696 0.5438905 0.38202137 0.492803 0.5883258
0.5835397 0.41452762 0.32565045 0.54709285 0.4372493 0.4780418 0.5808833 0.2601873
0.66129386 0.4167239 0.30084297 0.47943503 -0.257645 0.62247616 0.43659446 0.5045094
0.3901533 0.41068462 0.5783297 0.43484634 0.3200244 0.3582729 0.40485367 0.48999757
0.3510117 0.37524426 0.27583283 0.3678015 0.28840655 0.6377755 0.59071684 0.48520607
0.5401802 0.5653079 0.47448695 0.5981503 0.6189688 0.40064096 0.5744275 0.59841007

feature.5.bias f4 [48]
00000000: 58a1 b6be dbc8 b3be d032 aabe ffc1 9ebe
00000010: 5a7b efbe bb03 6dbe 351c e9be 063b 09bf
00000020: e7b4 f4be a486 84be ed55 65be 6151 acbe
00000030: 9da4 b3be 6e58 d0be f5b6 02bf 63a5 0cbe
00000040: a8e7 e4be 05f3 b1be 1584 e1bd b3d7 c5be
00000050: ca60 36be 10f7 22bf 3086 adbe c021 f4be
00000060: 6de4 94be 0707 b5be 9a11 dabe 3d8f a7be
00000070: 980a 4abe a091 42be a26e b7be e878 98be
00000080: ded5 9dbe be10 8cbe 466e 0ebe 953a 82be
00000090: 5541 21be f1c7 1abf 277e d9be e948 8cbe
000000a0: e4ce cdbe f1c0 f8be 8059 b6be 044c 0ebf
000000b0: c84f 00bf 5623 44be c60b febe d0d6 00bf
-0.3566997 -0.35114178 -0.33241892 -0.31007382 -0.46773797 -0.23145954 -0.45529333 -0.5360569
-0.47794268 -0.25883973 -0.2239606 -0.33655837 -0.35086527 -0.40692466 -0.5106042 -0.13734965
-0.4470799 -0.34755722 -0.11011521 -0.38641128 -0.1781036 -0.6365824 -0.3389144 -0.47682
-0.29080525 -0.35356924 -0.42591554 -0.3272647 -0.19730604 -0.19000864 -0.35826594 -0.29779744
-0.3082723 -0.27356523 -0.13909253 -0.2543532 -0.15747578 -0.60461336 -0.4247906 -0.27399376
-0.40196908 -0.48584703 -0.35615158 -0.5558474 -0.50121737 -0.19154105 -0.49618357 -0.5032778

feature.5.running_mean f4 [48]
00000000: f220 ddbf 8c55 e5bf c3e7 46c0 b630 c1bf
00000010: b5e6 12c0 608a 9abf ff9d 2cc0 ef2a 1fc0
00000020: e7fe 03c0 3382 fdbf a809 18c0 8e7d 12c0
00000030: 8da7 ccbf 56e8 1ac0 0179 13c0 69aa d0bf
00000040: da26 11c0 d69d f2bf 3f7e 6ebf c5b8 e2bf
00000050: dfe0 b33f 655f 08c0 eb97 05c0 b70c 01c0
00000060: a44f dcbf 247d 24c0 4b5d 14c0 71ee d7bf
00000070: 232d e0bf 2b86 a0bf d48d aabf 2f05 1ac0
00000080: 4622 05c0 3a1a ffbf 4bf8 f3bf 4bd3 02c0
00000090: 65a4 0ac0 4eef 0bc0 7931 febf a9d4 20c0
000000a0: b606 e7bf 401e 29c0 99f7 c8bf 82f2 f7bf
000000b0: d35a 14c0 8a5d d5bf 9fc3 18c0 cab3 1ec0
-1.7275679 -1.7916732 -3.1078956 -1.509299 -2.2953312 -1.2073479 -2.6971433 -2.4869955
-2.062433 -1.9805359 -2.3755894 -2.2889132 -1.5988632 -2.4204307 -2.3042605 -1.6302005
-2.2679963 -1.8954418 -0.93161386 -1.7712637 1.4053 -2.1308224 -2.0873973 -2.016401
-1.7211804 -2.570138 -2.3181942 -1.6869642 -1.7513775 -1.2540945 -1.3324533 -2.4065664
-2.080217 -1.9929879 -1.9060148 -2.0441463 -2.1662838 -2.186481 -1.9858848 -2.5129797
-1.8048923 -2.6424713 -1.5700561 -1.9370883 -2.3180435 -1.6669171 -2.3869398 -2.4797235

feature.5.running_var f4 [48]
00000000: 117a 9140 6cff a040 521b 1741 a63b 4e40
00000010: b262 b640 ae2c 8840 3b1f b140 99b6 9c40
00000020: 0f0e a040 51e8 ca40 9ecc 0d41 ef78 0041
00000030: 6dbc 5040 5566 ba40 dd29 b940 1913 d040
00000040: 2563 e840 a294 8a40 b9c4 9040 e95a 6b40
00000050: 3bf3 8540 139b 8040 7e5e 9640 cb05 8d40
00000060: 7c3f a940 0b0d ae40 1da7 c240 6c84 a140
00000070: 6d7b b740 62e1 8740 791c 2c40 c670 2241
00000080: a108 7240 e626 9040 63e7 d640 491f a440
00000090: d29b 3141 4492 9f40 a90e b440 0ef4 df40
000000a0: 2582 9440 ed73 ed40 099a 6340 526c 8740
000000b0: 5b07 b840 288e cf40 109c d640 d2a8 aa40
4.5461507 5.0311794 9.44417 3.2223907 5.699548 4.255454 5.5350623 4.8972898
5.001716 6.340859 8.862455 8.029525 3.2615006 5.8249917 5.7863603 6.5023313
7.2621026 4.3306437 4.524014 3.6774237 4.185941 4.01893 4.6990347 4.406957
5.2889996 5.439092 6.0828996 5.047415 5.7338166 4.2462626 2.6892378 10.152533
3.7817767 4.5047483 6.7157454 5.128819 11.100542 4.9866047 5.6267896 6.998542
4.640887 7.420401 3.5562766 4.2319727 5.750898 6.486103 6.7065506 5.333108

class_classifier.0.weight f4 [100, 768]
00000000: 350b a43c 9f99 0b3d 72bc f23c 555c 87bd
00000010: 27a9 02be 37ed 80bc acab 1f3c 09d1 fabd
00000020: 94d3 7b3d c948 9b3c eaf9 50bc 0cdf 6a3c
00000030: df6c c0bc 47d9 fdbd 5458 45bd 8cf5 d73d
00000040: 2706 bc3c a5b3 15be 382a 8ebe a10d 11be
00000050: 8817 39bc 4b16 0cbe dd27 fdbd fe12 aebc
00000060: f12e 94bd 5f55 6b3d ec7c 9fbd 14c0 843d
00000070: c53f d2bc f15b 853d 4874 6d3d f700 963d
00000080: 6e8a 373d fc94 823e 4627 113e 0eab d8bd
00000090: 4d65 7abd ce82 b0bd 4f2a 91bd b322 18be
000000a0: 7ae4 8fbe 6c47 46bd c350 81bd 414d acbd
000000b0: d88c 22be 5ea0 143e b7c4 9a3d 74c9 ee3c
000000c0: 76e2 303e f518 16be a334 713d 3416 b5bd
000000d0: a77d ec3d 01ab edbd 555f dc3d c3f9 c0be
000000e0: 92f8 b8bd fedc 37be 3b4b a0bd 4336 9abe
000000f0: 387a cabd 85c3 543c 3a60 113d 8fbf 913c
00000100: 74f4 03be db30 9c3c 4aac 363d 73c3 b8bc
00000110: 9edf 2b3d 87b8 823d a342 9c3d ec97 a4bd
00000120: 7b10 a2bc cab8 273e d559 803c 7f84 cfbd
00000130: b88a ebbd c8c2 a53d f4e1 cb3d 18ec 103e
00000140: d184 c13e fb72 063e 57ba 6abb 6875 343e
00000150: b3f6 81bc 3976 3ebe 6413 8abd c1ec 2bbe
00000160: c4c6 a53c 9d19 0fbd 4421 a63d f8c0 9abd
00000170: e3b7 8d3d 828c 10bd f9b3 84bd 7821 debd
00000180: 40e4 9cbb 9158 b03c 8e6f b23d 02bf aa3d
00000190: 39a1 423d 2006 1e3d 758d a53d 4709 ffbd
000001a0: 34a2 4b3e cc4b 093e f418 833d d86a 43be
000001b0: 01dd 56be 96a3 a6bd 8459 313e 2f05 21bd
000001c0: 525b 903c c68c ecbb 084f db3d 812b 0ebe
000001d0: 072e 7abc 7f77 24be d65f d23d ceb5 ccbd
000001e0: ff1f 043e a48c a6bd 7ea7 8a3e 37e3 c83d
000001f0: 86f8 c6ba 611f c13d 12d5 07be 9a5f 65bd
00000200: 45fe 283e 7913 593c 9b0b 6a3d 3fc6 bbbd
00000210: dd04 23bd 4d5a 583c 9ad3 5dbd 187d 93be
00000220: 0cc2 c7ba f080 b63d d658 0a3e 3dc6 213e
00000230: 86ed b93b 6a92 fc3c 84a1 88bd 283f 34be
00000240: a58e 903c 7422 b2be 7056 70bc b9fb f5bd
00000250: f8f7 a7bd 8c1a 94be 2936 da3c a48b 2bbe
00000260: 3187 47be 70f6 493b f937 873d 9a49 263d
00000270: f606 87bc 9941 7d3d 9652 1c3e 6eaa 633e
00000280: ea54 8e3c dd61 a13d c183 423e c109 3a3e
00000290: fdd6 093d 0c49 5cbe cd4f 46bc 6fd4 533d
000002a0: 9ce8 6fbd 8d90 33be c456 453e 12e6 43bd
000002b0: b0b8 a43d b7ed 75bd 8bdc eebd f97e 86be
000002c0: a46f 36be 94a1 9f3d ad0d 843d 242f 89bd
000002d0: f0d6 c3bd 4131 9f3d 38f1 513c a20f c2bc
000002e0: 49b3 003e fd3e b73d c1d9 dc3d ce00 f83d
000002f0: 6748 dc3d 0ae9 3abc 7788 20be 9210 e9bd
00000300: d36e cb3d 5499 feb9 aa6b c23b 27e5 343c
00000310: 2323 b6bd 664f e0bc d6c5 0c3b 6b3c 533d
00000320: 9fbd 74be 5b29 e4bc 4147 4cbd 6873 1b3d
00000330: 6abf c73d 75df 19be 8e10 99be 970e 6b3e
00000340: 5847 0c3d 5a7b 44be 2674 30be fb19 e93c
00000350: f870 003d b2a1 6bbd 9946 c63d d43e 493e
00000360: 2ec8 5abe 23a7 81bd 6755 d33b 5b8b 843e
00000370: a19d 85bc 1daa 95ba bfe2 833d d8b7 8a3e
00000380: 5b07 1bbd 173b f7bd 833e 97bd 0d8b 23be
00000390: d8c9 db3c 839a e2bd d9cf 8e3d 2aaa d2bb
000003a0: 48ee 3abe c23d c7bd 55a9 9abd bc18 d43d
000003b0: bf00 743d 5545 c1bd c2eb 173e 994b 943e
000003c0: b374 ee3d 206b 75be c18a b4bd 9a96 03be
000003d0: 3de3 043e 273e 63bc 5faf 9a3d 9a86 82bd
000003e0: 0eec 5c3d 8aaf b8bd 3f22 e13c 6831 d73d
000003f0: 09c1 ad3c 0e33 673d 2fc0 053d 937c a93d
0.020024875 0.03408205 0.029630873 -0.06609408 -0.12759839 -0.015738113 0.00974552 -0.122469015
0.061481073 0.018955605 -0.012754897 0.014335405 -0.023489414 -0.12394958 -0.04817994 0.10544881
0.022952152 -0.1461931 -0.27766585 -0.14165355 -0.011297114 -0.13680379 -0.12361119 -0.02124929
-0.07235516 0.057454463 -0.07787499 0.064819485 -0.025665173 0.06511677 0.057972223 0.07324403
0.04480975 0.2550429 0.14175138 -0.10579501 -0.061131764 -0.08618699 -0.07088148 -0.14856987
-0.28104 -0.048407957 -0.06314232 -0.084131725 -0.1587404 0.145143 0.07557052 0.029148795
0.17273888 -0.14657958 0.05888809 -0.088421255 0.11547404 -0.11604882 0.10760371 -0.37690553
-0.09031786 -0.17955396 -0.07826849 -0.30119523 -0.098865926 0.012986069 0.03549216 0.017791538
-0.1288622 0.019066265 0.0445979 -0.022554135 0.041961305 0.06382852 0.076298974 -0.08036789
-0.01978325 0.16379085 0.015667835 -0.101326935 -0.11501068 0.08093792 0.099552065 0.14152563
0.37796643 0.13129799 -0.0035816634 0.17622912 -0.015864706 -0.18599786 -0.0674198 -0.16789533
0.02023638 -0.034936536 0.08111814 -0.07556337 0.06919839 -0.03529025 -0.064796396 -0.108462274
-0.0047879517 0.021526607 0.087126836 0.08337213 0.047517035 0.03858006 0.080836214 -0.124529414
0.19886094 0.1340782 0.06401244 -0.19083726 -0.20982744 -0.0813667 0.17319304 -0.039311584
0.01762167 -0.00721893 0.107084334 -0.13883783 -0.015269763 -0.16061209 0.102721855 -0.09995614
0.1290283 -0.08132294 0.2708091 0.09808963 -0.0015180267 0.09429813 -0.13264874 -0.055999376
0.16503246 0.013249272 0.057139974 -0.09168672 -0.03979956 0.013205123 -0.054156877 -0.28806376
-0.0015240326 0.089113116 0.1351045 0.15798278 0.005674067 0.030831534 -0.06671432 -0.17602217
0.017646143 -0.3479191 -0.014669046 -0.12010903 -0.08201593 -0.28926504 0.026637154 -0.16752487
-0.19485165 0.0030817054 0.06602473 0.040597536 -0.016482811 0.061830137 0.15265879 0.22232983
0.017374475 0.07879994 0.18995573 0.18167783 0.033652294 -0.2151224 -0.012103987 0.051716264
-0.058571443 -0.1753561 0.1927138 -0.047826834 0.08043039 -0.060041156 -0.11663159 -0.26268747
-0.17816025 0.077944905 0.06447921 -0.066984445 -0.095624804 0.07773066 0.012813859 -0.023689095
0.12568392 0.08947561 0.10783721 0.121095285 0.10755997 -0.0114081 -0.15677057 -0.11380114
0.099332474 -0.00048560894 0.0059332447 0.011040962 -0.088934205 -0.02738161 0.0021480224 0.05157129
-0.2390046 -0.027851751 -0.04987264 0.037951857 0.09753306 -0.15026648 -0.29895443 0.22954784
0.034247726 -0.1918768 -0.17231807 0.028454771 0.031357735 -0.05752725 0.09681434 0.19652873
-0.21365425 -0.06330707 0.0064493897 0.2588757 -0.016310515 -0.0011418496 0.06439733 0.27093387
-0.03784881 -0.12071817 -0.0738497 -0.15971012 0.026829645 -0.11064627 0.069732375 -0.0064289765
-0.1825496 -0.09728576 -0.07551829 0.1035628 0.059571024 -0.09437052 0.14836028 0.28963926
0.11643352 -0.23966646 -0.08815528 -0.12850419 0.1297731 -0.013869799 0.07552981 -0.063733295
0.053936057 -0.090178564 0.02748215 0.1050747 0.02121021 0.056445174 0.032653984 0.08275714

class_classifier.0.bias f4 [100]
00000000: f11d e33c 421b 86bb 9f6c 393d 8c45 7abc
00000010: 594d 7abc 49e8 86bc a0df 0ebd 79a7 ef3c
00000020: 8eda 003b ad13 f13c ef00 a33c 5e42 5a3d
00000030: 4bb8 1dbc 2ab5 5b3b 66de c6bc ab42 cc3b
00000040: 28de ce3b 84f5 fc3c a720 69bc 0e20 c8bc
00000050: 1102 fabc d3f7 ab3b 9016 91bb ec50 03bc
00000060: 815e d8bc 127d ed3b cf54 843c 89cd 543c
00000070: 23e2 2abd 665e 0b3d 514e b3bb 562e a7bc
00000080: 065c ad3c ec1e 983a 23cb 603b fb66 b7ba
00000090: d76b 06bd caf2 e43b 2533 803c a471 b8bc
000000a0: 935e 4fbb 6861 e33b f0ab a0bb e445 e13c
000000b0: 93b9 92bb b489 f33b db95 dfbc e94a a2bb
000000c0: 07a2 473c d102 a33c 2574 e4bc 537b 80bc
000000d0: 7da1 b5bc 0036 f73c dfea 95bc 3aff c8bc
000000e0: c1c4 59bb 7c91 61bd df84 d63c 1f60 bbbc
000000f0: 98cf 103d 91a2 1e3d a70d 0f3d ab86 80bb
00000100: c698 1fbd 46b0 cabc 51be 34bc cd0f 0abd
00000110: 5407 abbc 8db2 a2bc c48a 22bd 09c9 94bc
00000120: 4834 ba3c a914 093d 1da5 36bc 3858 88bc
00000130: 74a7 0f3d 2d4a c23c 139a a03c 6ecb edbb
00000140: 6fc6 073b dbe6 913c 2356 953c 18f3 b6bb
00000150: b02f 07bd 0e62 1b3b e71b d33c ac0e ab3c
00000160: eb90 db3c 81bb 983c b7ea 98bc 3c16 1e3c
00000170: 6617 153c b4c5 083a 7aae e8bc 6511 b2bb
00000180: 5f78 f2ba b206 ff3a 9d10 d1bb f29b 90bc
0.027724238 -0.004092605 0.045269605 -0.01527537 -0.01527723 -0.016468184 -0.034881234 0.029254662
0.0019661519 0.029428327 0.019897906 0.05328595 -0.009626458 0.003352473 -0.02427597 0.0062335334
0.006313104 0.03087879 -0.014228976 -0.024429347 -0.030518563 0.005248049 -0.0044277385 -0.008014899
-0.02641225 0.0072475756 0.016153721 0.0129884565 -0.041719567 0.034025572 -0.0054719825 -0.020407837
0.021162044 0.0011605895 0.0034300766 -0.0013992483 -0.032817688 0.0069869505 0.015649388 -0.022515126
-0.0031642064 0.006939102 -0.004903309 0.027499147 -0.0044776886 0.007432187 -0.027293136 -0.0049527776
0.012184626 0.019898804 -0.027887413 -0.015683806 -0.02217173 0.030177116 -0.018300472 -0.024535764
-0.0033228847 -0.055070385 0.026186405 -0.022872983 0.035354227 0.038729254 0.03492513 -0.0039223037
-0.038964055 -0.024742257 -0.011031703 -0.033706475 -0.020877518 -0.01986053 -0.03968312 -0.018162267
0.022730008 0.03346697 -0.0111477645 -0.016643628 0.035071805 0.02371701 0.019604718 -0.0072569167
0.002071764 0.017810276 0.01822955 -0.0055831783 -0.033004463 0.0023709568 0.02577014 0.02088102
0.0268025 0.018644096 -0.018666608 0.009648856 0.009099817 0.00052174483 -0.02840351 -0.0054342025
-0.0018499008 0.0019456951 -0.0063801543 -0.017652486

class_classifier.1.weight f4 [100]
00000000: 5b27 c83e 925c 393f cc2f 0b3f 1ab5 f63e
00000010: e41b 2c3f 71a7 033f 964d 053f 3747 f73e
00000020: 6208 023f 885c dc3e e81f c03e 7e10 2d3f
00000030: eeb2 133f f2d1 2c3f 79eb 293f 8ae7 193f
00000040: 4bd5 e13e 2100 ae3e 7360 1f3f 6a04 323f
00000050: 8c66 2d3f 358a d03e 0931 a63e 2320 f53e
00000060: a253 063f 2719 d03e 95d3 e83e eb14 e33e
00000070: 0ec0 f43e 1928 273f 3ce8 a03e f079 b13e
00000080: 6c30 b23e 9080 133f ddff 123f 71a1 0c3f
00000090: 2853 143f a6fd 3f3f 6cef ef3e 8733 bf3e
000000a0: 5e2e cf3e a48b f43e 23f4 ac3e d685 0a3f
000000b0: 048b 343f d41a cc3e 90fb 0a3f 7211 3f3f
000000c0: a7bd 093f 03ef d33e 5794 dd3e b33c 293f
000000d0: d17a b53e eb3f 323f 2509 a63e dec8 ca3e
000000e0: 99bf c63e 85e3 083f d480 313f 1e94 c53e
000000f0: e332 e03e ad66 c03e 4733 303f cd82 c83e
00000100: bdad 3c3f 9eeb 093f 2217 d63e b224 293f
00000110: a0da c03e b249 cb3e daca 203f 21be 363f
00000120: 5821 af3e 76fb f43e 1dd0 993e 9fb0 dc3e
00000130: 098e 273f 61a8 0d3f 7f2e 213f d04b de3e
00000140: f4b7 ee3e 0bd9 103f 51ba c73e 90e0 ea3e
00000150: 9c09 f33e d01b d53e 2414 1e3f 50de 083f
00000160: 48fa 103f 3ae2 ee3e e9cf 353f 14ea b13e
00000170: ca44 ac3e 4853 363f b375 223f 7479 b03e
00000180: 1255 db3e 3313 c33e 8977 283f 6a83 283f
0.39092526 0.72406876 0.5436981 0.48185045 0.6723006 0.5142737 0.5207151 0.4829652
0.5079404 0.43039346 0.37524343 0.6760329 0.576949 0.6750785 0.6637493 0.60118926
0.44108042 0.33984473 0.62256545 0.69537985 0.677346 0.40730444 0.32459286 0.4787608
0.52471364 0.4064419 0.45473924 0.44351897 0.47802776 0.6529556 0.3142718 0.34663343
0.34802568 0.57618046 0.57421666 0.5493384 0.57939386 0.7499641 0.46862352 0.37344
0.40465063 0.47762787 0.33780012 0.5411047 0.7052462 0.39864218 0.54290104 0.74635994
0.5380501 0.4139329 0.43277237 0.66108245 0.35445264 0.6962878 0.32428852 0.39606375
0.38818052 0.5347217 0.693372 0.38589567 0.43788823 0.37578335 0.68828243 0.39162293
0.73702604 0.5387515 0.41814524 0.6607162 0.37666798 0.39704663 0.62809527 0.71383864
0.34205127 0.478481 0.3004159 0.431035 0.65451103 0.5533505 0.6296157 0.43417215
0.4662472 0.5658118 0.39009336 0.45874453 0.4746827 0.41622782 0.6174948 0.5346422
0.566319 0.46656972 0.7102037 0.347489 0.33646232 0.7122083 0.63460845 0.3446766
0.4283834 0.38100585 0.65807396 0.6582552

class_classifier.1.bias f4 [100]
00000000: 3ed2 19be 93b1 cdbe 1c01 4ebe c601 5dbe
00000010: ea07 7cbe ad0f 5ebe 93b9 4cbe 995a 36be
00000020: eb23 dabd bd45 25be 597c 80bd e916 83be
00000030: 947c f8bc cf2a 5dbe 5912 66be adb3 10be
00000040: ac5b 05be fe98 f9bd 4025 41be bf98 a8be
00000050: f23c a5be 50aa 64be 30a3 19be 4e2a 51be
00000060: a088 80be 1b76 dfbd a4e6 50be 131a 1ebe
00000070: 507d 83be f89d 15be b52f acbd 6ebf acbd
00000080: 77ee 25be 0929 46be 460f 80be ac3a 74be
00000090: ad81 9ebe 1d94 afbe d9d8 ffbd 86ba b8bd
000000a0: 79f2 f0bd 52b5 5ebe 6af3 04be 8517 82bd
000000b0: 9f74 58be 6d2e 3ebe 5ab6 6dbe 1d28 c0be
000000c0: 963a 31be 1d6e 12be cdf8 f2bd ce59 28be
000000d0: d85e 94bd 51fa 6dbe 36a0 11be 912a 10be
000000e0: cfa8 4fbe eca1 a5be 3b93 6dbe fba9 19be
000000f0: e04c 62be f397 39bd 7827 78be 9304 edbd
00000100: 24c0 2ebe 734e 7bbe f5e2 19be 135f 5ebe
00000110: eb19 28be 265a 12be 5982 55be 9a83 70be
00000120: d558 08be d3cf 34be 55da 07be e89e 85be
00000130: 3e46 62be bd8d 84be 11e8 86be a80e 1dbe
00000140: 11f5 3abe 5673 45be 2ff2 2bbe 2f9c f6bd
00000150: e1ae 71be ae36 ccbd 355c b0be 7288 2abe
00000160: 9315 4fbe 3761 33be e8ff c5be aab4 b5bd
00000170: 68da 80bd 011d cfbe 6a4f 53be 536e 35be
00000180: d0ec 73be 725b e1bd 8e96 b3be 8a92 53be
-0.15021607 -0.4017454 -0.2011761 -0.21582708 -0.24612394 -0.21685667 -0.19992666 -0.17807998
-0.10651382 -0.16139884 -0.062737174 -0.25603417 -0.030332841 -0.21598361 -0.22467937 -0.14131041
-0.13023251 -0.12187384 -0.18861866 -0.32929036 -0.3227306 -0.22330594 -0.15003657 -0.20426294
-0.25104237 -0.10911199 -0.20400482 -0.15439634 -0.25681543 -0.14611042 -0.08407537 -0.0843495
-0.16204248 -0.19351591 -0.25011653 -0.23850507 -0.3095831 -0.3429269 -0.12492532 -0.090199515
-0.11764998 -0.21748856 -0.1298348 -0.06352142 -0.21138237 -0.18572398 -0.23214093 -0.37530604
-0.17307505 -0.14299817 -0.11863861 -0.16440508 -0.072446525 -0.2324002 -0.14221272 -0.14078738
-0.20279239 -0.323501 -0.23200695 -0.15006249 -0.22099638 -0.045310926 -0.24233806 -0.11573138
-0.17065483 -0.24541645 -0.15027983 -0.21715955 -0.16416137 -0.14292201 -0.20850505 -0.23487702
-0.13315137 -0.17657404 -0.13266881 -0.26097798 -0.22097108 -0.25889388 -0.26348928 -0.15337622
-0.18257548 -0.19282278 -0.16791604 -0.120415084 -0.23601867 -0.09971367 -0.34445348 -0.16653612
-0.20223074 -0.17517553 -0.38671803 -0.088723496 -0.06291658 -0.40451816 -0.20635763 -0.17717867
-0.23820806 -0.1100377 -0.35075802 -0.20661369

class_classifier.1.running_mean f4 [100]
00000000: b9b9 afbf 73c9 b4bf f73a 5fbf 2f74 b8bf
00000010: b7b9 65bf 7fcb 7fbf e7de a6bf 4505 5cbf
00000020: 0188 24bf 8e19 63bf 160f c6be 0396 72bf
00000030: 21f0 03be 5687 64bf 2e89 8dbf 30a1 24bf
00000040: 8cf9 38bf f31d 3fbf 9ddc 72bf 9f78 d3bf
00000050: 344f a8bf e9a2 dabf 63b2 80bf c56d 90bf
00000060: b0fc a8bf cd65 10bf 3dd7 49bf 4057 a4bf
00000070: 4fc8 b8bf 7634 24bf 01cf 0bbf 1594 35bf
00000080: b1e5 7fbf 7d1e 9bbf e0d4 a2bf 9ba3 b1bf
00000090: 58c0 abbf 4dc5 9abf 59c7 6fbf 5e6d 0ebf
000000a0: 78ce 33bf b42c b7bf 8a2a 76bf 1b8c 57be
000000b0: a756 89bf ac59 dfbf cff1 7cbf 86b1 f3bf
000000c0: 98d4 96bf edca afbf f34f 33bf b963 4abf
000000d0: cf62 24bf 93fb 38bf 5166 86bf 007a 82bf
000000e0: 11c9 81bf 3a1a ccbf 1378 8cbf 3ea4 b9bf
000000f0: 835c c9bf 4f4d 41be 3916 86bf c292 91bf
00000100: 5752 7fbf f0ef bdbf b00d 80bf 52b5 66bf
00000110: d74d b9bf ce84 60bf 332c 8cbf eabc 9cbf
00000120: 5317 88bf d321 c4bf abc8 a3bf 1bb9 e1bf
00000130: 4246 80bf 5efd bebf cc98 cabf 120d 53bf
00000140: c664 babf 8c45 55bf 67cd 6abf 3358 90bf
00000150: a78d b5bf d7b4 28bf f574 bbbf 0612 79bf
00000160: 6e45 26bf d92d a3bf 7d0a f4bf 3ba0 dabe
00000170: 3e10 26bf 176f abbf a903 8fbf eb1f fabf
00000180: f746 d3bf 48ee 21bf 9030 c9bf d8eb 8cbf
-1.3728553 -1.4123977 -0.8719935 -1.4410456 -0.89736503 -0.99919885 -1.3036774 -0.8594554
-0.64270025 -0.8871087 -0.38683385 -0.9476015 -0.1288457 -0.89269006 -1.1057489 -0.6430845
-0.7225578 -0.74655074 -0.9486788 -1.6521186 -1.3149171 -1.7080966 -1.0054439 -1.1283499
-1.3202114 -0.56405336 -0.7884405 -1.2839127 -1.4436129 -0.6414255 -0.5461274 -0.7092908
-0.99959856 -1.2118679 -1.2721214 -1.3878053 -1.3418074 -1.2091461 -0.93663555 -0.5563563
-0.7023692 -1.4310517 -0.9615866 -0.2104954 -1.0729569 -1.7449241 -0.9880647 -1.9038551
-1.1783628 -1.3733803 -0.7004387 -0.79058415 -0.6421327 -0.7225887 -1.0499974 -1.0193481
-1.0139486 -1.5945504 -1.0974144 -1.4503248 -1.5731357 -0.18877147 -1.0475532 -1.1372912
-0.99735016 -1.4838848 -1.0004177 -0.9012042 -1.447688 -0.87702644 -1.0950989 -1.2245152
-1.0632118 -1.5322822 -1.2795614 -1.7634615 -1.0021441 -1.4921072 -1.582788 -0.8244182
-1.4562004 -0.83309245 -0.9171967 -1.1276916 -1.4183854 -0.6590094 -1.4645067 -0.97293127
-0.6494969 -1.2748367 -1.9065701 -0.4270037 -0.64868534 -1.3393277 -1.1172992 -1.954099
-1.6506032 -0.63254213 -1.5717945 -1.1009474

class_classifier.1.running_var f4 [100]
00000000: 2938 6740 4f78 1140 22f4 2440 922f 5940
00000010: 137a 0d40 56ba 1640 2ebf 7d40 4532 3e40
00000020: f539 3240 47c7 1940 a0d9 0f40 e72c 1c40
00000030: fdcb 1440 e04c 5140 5bb2 3a40 b973 0e40
00000040: a4f6 3a40 668e 3040 7ab0 4240 7150 8340
00000050: 43a6 3440 a0da a640 da45 2440 4f8c 2f40
00000060: 9017 6b40 f802 0940 646c 0540 e6d7 4440
00000070: 08ed 5640 8121 1740 31f2 4340 b788 1340
00000080: 0e8a 2a40 a93c 8240 2c34 3740 7aad 3540
00000090: 1eaa 3340 fcf9 4940 5893 2a40 6a60 0740
000000a0: 46c3 0a40 5a39 8640 4f2b 0740 3271 1740
000000b0: 8e4b 3240 ef4a 9140 7045 4140 2a4e 9a40
000000c0: c510 4140 2b9b 8440 c534 4c40 ff34 5240
000000d0: 4da8 5840 1461 1140 b0ed 3440 ee73 2c40
000000e0: 126a 4a40 5ede 3440 a93f 1f40 b30c 5340
000000f0: f134 5640 b6b5 4940 4cf2 2140 b328 6140
00000100: d402 1640 fa38 6b40 9eae 3140 e4b3 2f40
00000110: f3ee 4e40 267a 2540 4e7c 5040 81f5 7240
00000120: 37ec 2b40 64ba 9e40 b744 1b40 8ce3 5240
00000130: fb13 3e40 afa2 7940 6366 9e40 f761 2540
00000140: 5b14 4740 a7f7 4040 f651 1440 48aa 4d40
00000150: 8b6d 5240 a97b 0740 2535 4740 bf86 4040
00000160: 4604 fa3f 6a36 1040 0c70 9f40 51e3 0140
00000170: cd35 2a40 fd60 0040 d47d 0540 46f1 b040
00000180: 1050 6f40 7e43 0e40 0b07 4b40 b081 2640
3.6128027 2.272968 2.5774007 3.3935285 2.2105758 2.355123 3.9647937 2.9718182
2.7847874 2.402788 2.2476578 2.4402406 2.3249505 3.270317 2.917136 2.2258132
2.9213037 2.7586913 3.0420213 4.1035695 2.8226478 5.2141876 2.5667634 2.7429388
3.6733131 2.1408062 2.0847406 3.0756774 3.3582172 2.36142 3.0616572 2.3052194
2.6646762 4.069905 2.8625593 2.8387132 2.8072581 3.1558828 2.6652431 2.1152596
2.1681685 4.194501 2.1120183 2.366284 2.7858615 4.540397 3.0198631 4.8220415
3.0166485 4.1439414 3.1907208 3.2844846 3.3852723 2.2715502 2.8270073 2.6945758
3.162724 2.8260722 2.4882605 3.29765 3.3469813 3.1517158 2.5304136 3.518109
2.3439226 3.6753526 2.7762828 2.7453547 3.2333343 2.5855803 3.257587 3.7962344
2.6862924 4.960253 2.426069 3.2951384 2.9699695 3.9005544 4.9499984 2.5841043
3.1106174 3.0151155 2.3175025 3.2135181 3.287936 2.1169226 3.1126187 3.0082242
1.9532554 2.2533212 4.9824276 2.0294993 2.6595337 2.0059197 2.085805 5.5294523
3.7392616 2.2228694 3.1723049 2.6016655

class_classifier.4.weight f4 [100, 100]
00000000: 77d1 03be d041 3cbe 2db6 463d 848c 713d
00000010: 3740 cfbb 8c3b 1e3e c7c6 22bd 69bc 2d3e
00000020: 8e5d ef3d 337e 68bc 848e b93c 68da 29be
00000030: c851 e5bc ad4b b1be 9364 fc3d e6f1 983d
00000040: 00e4 003e efca 52bd dd8e 213d 9667 843d
00000050: 3396 5cbe daec 593d 8684 01bd 957d 43bd
00000060: 2c5a 553d 49e6 48be 6c0f 403c 0444 5a3d
00000070: 8bd3 1a3e f2aa 13bd af41 b23d feac 133e
00000080: c580 d5be fc44 c93a bc96 353d 3516 afbe
00000090: 6459 3dbd d469 ccbc 796f 513c e3b7 f73d
000000a0: 5a22 383e 1140 1ebc af7c ad3d e648 4d3d
000000b0: b223 143c b9f6 2a3e d29f 453d 20ed 5f3c
000000c0: 0943 afbc c8d1 3dbd bdab 7bbd bb9b 573d
000000d0: 7e73 10bf 3a71 4cbd ee7a da3b 0b54 51bd
000000e0: f04d 95be f44a 103d 2ec6 ddbd 9026 a03d
000000f0: f476 a7bd ddd7 24bd 9a87 10bc 13be df3d
00000100: a70c 093e 2519 3fbd cff7 c7be a234 e73d
00000110: b03d 53be a0b5 023d 46b5 3b3e a67b 08be
00000120: 9a94 e0bd a798 893e cd00 79bd 6937 bebd
00000130: 2353 85bd 5870 763e 7aff ba3d c97e 803d
00000140: cf99 d0be fcc4 15bd 99cd 433d 2b18 f4be
00000150: 0566 943d b1ec 3abd daa7 2ebd 292c a7bd
00000160: 383e 9e3c 4d4c 05bd 58c2 903d 7e9e 873e
00000170: 3c9f 8c3d 1cba 98bd 220b d1bd 3b66 da3d
00000180: 1e2b ecbd cebf cb3c bf89 40bd d043 183e
00000190: 6abe 883d 77cb 303d dd67 e73d 196d 523e
000001a0: 294f 0fbd 8463 8fbd ce67 603e f252 bf3d
000001b0: f4ac 96be d916 9bbc 5960 823d d7d5 43bd
000001c0: 348c 08be 2333 29be b261 b4bb dd9b 313d
000001d0: 4ebe 11be dbf9 97be 632f 39be cede 9f3d
000001e0: 8a0e a2bc 19eb c13d 5d35 e3be cf42 183e
000001f0: 919e 47bd 80ff 47be 0950 8dbe 04ca f7ba
00000200: e71d aabd 461d 23be 360f f7bd 8619 eabe
00000210: 85a3 d7be 6ab9 523d bfa2 4fbd cef1 33be
00000220: c902 dfbc 5f44 03bd 92c6 74bd 08dc 3d3c
00000230: 517d 49ba 3d64 d53c 07bd e23b e79f a53d
00000240: 39da e1bd ff99 3f3e 2332 f4bd 75f0 7abc
00000250: 2ed6 c63d e13f fe3d 3412 0fbe 8012 c2bd
00000260: 257c 8cbe b40e 2cbe 592f a4bc 6f07 a2be
00000270: ed61 2fbe 9728 d8bc b978 c4bd 15cf a83d
00000280: 6f5a 46bd 0800 7bbd ec8e 323d e44b b43b
00000290: aa12 e5bd 39b9 6b3c ddc8 c8be 9c4c f7bc
000002a0: ea18 c73c 18ac d03d ab87 b93c 1a43 afbc
000002b0: 43e2 05bd fc15 3a3e da9e a2bd dee6 913d
000002c0: 2377 253d df6a 0f3e 8697 d63d a049 7cbe
000002d0: 979e 16be ed88 cbbd a05f 27be 125f 01be
000002e0: f03c 6f3c b70f c0bd e781 ecbd bc54 f03c
000002f0: cd9b a2bd e17b b73e a60c a33d c842 8abe
00000300: 04db 33be a007 d3bd b672 fd3d 890b 013e
00000310: a7bc a53d 871b 1ebe 9785 3d3d 478d c3bc
00000320: c44f e4be 7c9c 25bc 164a d13d 20be 73be
00000330: 0d9f bfbc e39b 6dbd bcf3 70bd 96b0 983d
00000340: c99e ff3d 44f9 173d 6bb1 6d3d 66a2 c13c
00000350: 62db 38bb 77a2 203d a0bc 85bd 6e90 8e3d
00000360: 2258 44bb 541c dc3d 21c8 53be 9834 b6bd
00000370: 407a da3d 7cbd 193d 2059 5a3d b43a 99bd
00000380: e3d7 a43d 51fe 20be 3c05 b53d 5473 23be
00000390: 71d9 b93c 252b 973c c11e 5a3e c455 8e3c
000003a0: 5b66 6e3e 155a 233d 4528 b4be 7681 9e3d
000003b0: 05d5 acbd 9fec b73d 2931 92be bfaf 623e
000003c0: 2992 043e 9951 56bc ad1e 15bc 76b3 78bd
000003d0: 895a 20be 7f78 11be 0fe1 a13c 4af8 aebd
000003e0: ffb3 5f3d 5a83 a2be 852a 993d 4e5d ea3d
000003f0: 805c 193e badb b2bd 7a39 1ebe 172b ae3e
-0.12872873 -0.1838448 0.04851358 0.058971897 -0.0063247937 0.15452403 -0.03974035 0.16966404
0.11687766 -0.0141902445 0.022650965 -0.16587222 -0.027993098 -0.3462805 0.123238705 0.074680135
0.12586975 -0.051463064 0.039442886 0.0646507 -0.21541671 0.053204395 -0.031620525 -0.047727186
0.052087948 -0.19619097 0.011722427 0.05328752 0.1511976 -0.036051698 0.087039344 0.1442146
-0.41699806 0.0015355642 0.044333205 -0.3419663 -0.046227828 -0.024952807 0.012782925 0.120956205
0.17981854 -0.009658829 0.08471047 0.05011835 0.009041714 0.1669568 0.04824812 0.013667375
-0.02139427 -0.04634264 -0.06144308 0.05263875 -0.5642623 -0.04991267 0.0066674864 -0.05110554
-0.29161024 0.03522773 -0.108288154 0.07819855 -0.081769854 -0.040244926 -0.008821392 0.10924926
0.13383733 -0.04665484 -0.3905625 0.11289336 -0.20629 0.031911492 0.18330869 -0.13328418
-0.109658435 0.26874277 -0.06079178 -0.092879124 -0.06509998 0.24066293 0.091307595 0.06274182
-0.40742347 -0.036564812 0.047803495 -0.4767469 0.07246021 -0.045635883 -0.042640544 -0.0816272
0.019316778 -0.03254347 0.07068318 0.26488107 0.06866309 -0.074573725 -0.102072015 0.1066403
-0.115316615 0.024871733 -0.047006365 0.14869618 0.066769436 0.04316279 0.11299107 0.2054943
-0.034987602 -0.07001403 0.21914598 0.093419924 -0.29428828 -0.018931793 0.06366033 -0.047811355
-0.13334733 -0.16523413 -0.0055048103 0.043361533 -0.14232752 -0.29682812 -0.18084483 0.078061685
-0.019782323 0.094686694 -0.4437665 0.14869235 -0.048735205 -0.1953106 -0.27600124 -0.001890481
-0.08306485 -0.15929136 -0.12063448 -0.45722598 -0.42116943 0.051446356 -0.050692316 -0.1757271
-0.027223008 -0.032047626 -0.059759684 0.011588104 -0.0007686215 0.026048774 0.0069195065 0.080871396
-0.11027951 0.18711089 -0.11923625 -0.0153161185 0.0970882 0.12414528 -0.13971788 -0.09476185
-0.27438465 -0.16802484 -0.020042108 -0.31646296 -0.171272 -0.026386542 -0.095933385 0.08242623
-0.048426088 -0.061279327 0.043593332 0.005502211 -0.111852005 0.014387422 -0.39215747 -0.030187897
0.024303872 0.10189074 0.0226477 -0.021394301 -0.032686483 0.18172449 -0.07940455 0.071241125
0.04039682 0.14005612 0.104781196 -0.2463746 -0.14708935 -0.09938226 -0.16345072 -0.12633923
0.014601931 -0.09377997 -0.115482144 0.02933728 -0.07939873 0.358367 0.07961397 -0.27004075
-0.17564017 -0.10304189 0.12375395 0.12602057 0.08092623 -0.15440188 0.04626998 -0.023871077
-0.44592106 -0.01010811 0.10219209 -0.23802996 -0.023391271 -0.058009993 -0.058826193 0.07455556
0.12481458 0.037102953 0.058030527 0.023637008 -0.0028206934 0.03921744 -0.06530118 0.069611415
-0.0029959758 0.10747591 -0.20681812 -0.0889675 0.106678486 0.037534222 0.053307652 -0.074819
0.080489896 -0.15722014 0.08838889 -0.15961963 0.022686692 0.01845319 0.21300794 0.01737488
0.23281233 0.03988083 -0.35186973 0.077395365 -0.08439068 0.08980679 -0.2855313 0.22137354
0.1294638 -0.013080978 -0.009101552 -0.060718022 -0.15659536 -0.14206122 0.019760637 -0.08543451
0.054615017 -0.31740838 0.07478813 0.11443578 0.14976692 -0.08733316 -0.15451613 0.3401725

class_classifier.4.bias f4 [100]
00000000: 6ef6 b4bc 69ad 54bd 1499 b73d 4954 73bd
00000010: 3fd0 52bd 5c60 4d3c 0d98 293d f20d 373d
00000020: 2c8d 873d 3e2e ca3b 7cc1 02bc c05f 87ba
00000030: cbf9 50bd 5031 b53b 8f34 393d c97d 80bc
00000040: 9d18 2f3d faab b03d 5754 c0bd 013f bdbd
00000050: 3ab8 14bd 4044 bdbd 24f2 86bd b2fd 8b3d
00000060: 201a 10bd 1f01 8e3d 50f5 a73d 645e d13c
00000070: f060 94bd b716 54bb 3caf 68bd 7c2d 393d
00000080: 2d6a c43d e316 90bb 8c6f b4bc 7a49 be3d
00000090: a067 2cbd b8ab d4bc e283 2a3d 60e0 8c3d
000000a0: 1f3e c7bd 6fe6 6b3b fa62 bd3d a672 1cbd
000000b0: 21ac 653d e9ab 66bd 563d c13d 69b4 be3d
000000c0: 020b 363d 9f77 643c f185 233c 53cb 50bd
000000d0: 8f8e bf3d e986 a2bd 650c 6dbc be69 70bc
000000e0: 1f3b 60bd dbfa a03d 7e40 033a 1381 40bd
000000f0: e0a4 953c c9db b1bd aeb1 c53d 6f17 acbd
00000100: f591 c3bc 77f3 b1bd 3e92 bdbd 1d3a e2bc
00000110: e09c 553d ddc9 9dbc 6e7a f23d be34 993d
00000120: 6a94 70bd 9c47 c83d 0949 ae3d 57b6 b5bd
00000130: 851f 663d 18c5 573d 5a26 d23c 0196 c83d
00000140: 9336 623b bef3 b7bd d429 8e3c a591 0e3d
00000150: 55b7 913d 33c7 093d 53c5 163c 5e2b 173d
00000160: bf3a 56bd 8e89 db3c 7c72 9d3d a4dc 78bd
00000170: 308b 8a3d ec82 b73d 615e 983d 55ec 963d
00000180: c7d5 bd3c 0dc6 533d 4f66 f5bc 5cb0 713c
-0.022090163 -0.05192319 0.08964744 -0.059406552 -0.05146813 0.012535181 0.041404773 0.044691034
0.06618723 0.0061700633 -0.007980701 -0.0010328218 -0.05101947 0.00552956 0.04521614 -0.015684979
0.042748082 0.08626552 -0.093910865 -0.09240533 -0.036308505 -0.09241533 -0.065891534 0.06835498
-0.035181165 0.069338076 0.082010865 0.025557704 -0.07245052 -0.0032362172 -0.05680774 0.045209393
0.09590564 -0.0043972596 -0.022025846 0.09291358 -0.042091012 -0.025960788 0.04162968 0.06878734
-0.097286455 0.0035995503 0.09247394 -0.038195275 0.056072358 -0.05631629 0.09435527 0.09311754
0.04444409 0.0139445355 0.009980665 -0.050975155 0.09353363 -0.07935888 -0.014468287 -0.014673648
-0.054743882 0.07860347 0.00050068635 -0.046998095 0.018267095 -0.08684499 0.0965303 -0.08402907
-0.023873309 -0.08689015 -0.09256409 -0.027615601 0.05215156 -0.019261295 0.11839758 0.07480763
-0.05873529 0.097792834 0.08510024 -0.08872669 0.056182403 0.052678198 0.025653053 0.09794236
0.0034517392 -0.08982037 0.01735393 0.034806866 0.07115046 0.033637237 0.009202319 0.036906593
-0.05230212 0.02679899 0.07687852 -0.060757294 0.06764829 0.08960518 0.07439876 0.073692955
0.023173226 0.051702548 -0.029956011 0.01475152
