hw3/models/mnistm_svhn.pth (torch_old, 836884 bytes, 34 tensors)

feature.0.weight f4 [32, 3, 5, 5]
0	0xbe452e1a	-0.19255868
1	0xbd0df2c7	-0.03465536
2	0x3da8b2f8	0.082372606
3	0xbddd9573	-0.10819521
4	0xbdc298d0	-0.09501803
5	0x3dbc57d6	0.09196441
6	0x3acbfac8	0.001556241
7	0x3cd5565b	0.026042154
8	0x3e9857c0	0.29754448
9	0x3e5a2cd2	0.2130616
10	0x3e3e1b18	0.18565023
11	0x3e6bc043	0.23022561
12	0x3e9e8c3e	0.3096637
13	0x3d4e9449	0.050434384
14	0xbd5c9b8e	-0.053859286
15	0x3dfbfd7b	0.12304207
16	0x3c949cf1	0.018141242
17	0xbe808bb5	-0.25106588
18	0xbe4375ad	-0.19087858
19	0xbcf8738c	-0.030328535
20	0xbe0d3e0a	-0.13793197
21	0xbe0f501a	-0.139954
22	0xbdf64257	-0.12024372
23	0xbd3414d3	-0.043965172
24	0xbe107109	-0.1410562
25	0x3aaf8bd1	0.0013393109
26	0x3db1acd0	0.086755395
27	0x3e1649a2	0.14676526
28	0x3da9762d	0.08274493
29	0x3d087130	0.03331107
30	0x3ba20cf2	0.004945391
31	0x3db58c6f	0.08864676
32	0xbdd289f0	-0.10280216
33	0xbd826a5d	-0.063679434
34	0xbe313045	-0.1730357
35	0xbdc0d500	-0.094156265
36	0xbdd33c6f	-0.10314261
37	0xbdc0d2c2	-0.09415199
38	0xbe8670fb	-0.26258072
39	0xbde8ddb9	-0.11370415
40	0xbdaa2d05	-0.08309368
41	0xbd965d97	-0.073420696
42	0xbd88338f	-0.06650459
43	0x3d8fc512	0.0702001
44	0xbd4014d2	-0.046894856
45	0x3d324777	0.043525185
46	0x3d9d026b	0.07666477
47	0x3e2e0215	0.16992982
48	0x3e1f2381	0.15540887
49	0x3e341dd0	0.17589498
50	0x3e343188	0.1759702
51	0x3d9e3858	0.077255905
52	0xbd9ee465	-0.077584065
53	0xbe5bb3b0	-0.21455264
54	0xbd36ff36	-0.044676982
55	0xbdbb0111	-0.09131063
56	0xbe741b3a	-0.23838511
57	0xbe8b9a9a	-0.2726639
58	0x3d04b63e	0.032400362
59	0x3d3cf207	0.046129253
60	0xbe4822f7	-0.19544588
61	0xbdbe60b9	-0.09295792
62	0x3d9e61bc	0.07733485
63	0x3dbf588f	0.09343063
64	0x3e3f587c	0.18686098
65	0x3c678a66	0.014132118
66	0x3e077658	0.13228738
67	0x3e30430e	0.1721308
68	0x3e5dfa61	0.21677543
69	0x3e5db7a8	0.2165209
70	0x3dd6cc62	0.10488202
71	0x3d93c985	0.07216171
72	0x3dcc2f57	0.09969967
73	0xbdd9099e	-0.105975375
74	0xbd6be2b2	-0.05758924
75	0xbdc1d87e	-0.09465121
76	0xbd230d75	-0.039807756
77	0xbd990b6a	-0.0747288
78	0xbda659d4	-0.08122602
79	0x3df1e3b8	0.11811012
80	0xbe6a6034	-0.22888261
81	0xbd5cd18b	-0.053910773
82	0xbdc38c8f	-0.09548294
83	0x3deb9cde	0.115045294
84	0x3dba36a2	0.09092452
85	0xbe4a0f29	-0.19732346
86	0xbc989297	-0.018624587
87	0xbc961b95	-0.018323699
88	0x3d90ab73	0.07063951
89	0x3da81e73	0.08208933
90	0xbd2390b5	-0.039932925
91	0xbdb83bb7	-0.08995765
92	0x3cc66378	0.024217352
93	0x3e099e71	0.13439347
94	0x3dcf02f6	0.10107987
95	0xbd8ecbb5	-0.06972448
96	0xbdc8a189	-0.097964354
97	0xbd119eba	-0.035551764
98	0x3df7b4a1	0.12094999
99	0x3c9f937d	0.019479508
100	0xbdfb4a83	-0.12270071
101	0xbe1743af	-0.14771913
102	0xbddd5866	-0.10807876
103	0x3d77b95f	0.060479518
104	0x3c9a6fab	0.018852076
105	0xbd508f30	-0.050917804
106	0xbd998700	-0.07496452
107	0xbe2aa472	-0.16664293
108	0x3e03ec30	0.12883067
109	0x3e01fdbf	0.12694453
110	0xbd8a4230	-0.067509055
111	0xbdfcb4ba	-0.12339158
112	0xbcad3971	-0.021145554
113	0x3e0b9fdf	0.13635205
114	0x3de0420a	0.10950096
115	0xbd218775	-0.039435823
116	0xbd01a5f2	-0.0316524
117	0xbca641c7	-0.020295037
118	0x3e248d08	0.16069424
119	0x3e0c5a81	0.137064
120	0xbe274bbd	-0.16337486
121	0x3d8ec787	0.069716506
122	0xbc87cca8	-0.01657708
123	0x3da60cb9	0.081078954
124	0x3de71e7d	0.11285112
125	0x3e7e03d8	0.24806154
126	0x3eaf7b9d	0.34273997
127	0x3ea0b30e	0.31386608
128	0x3d8dcbc9	0.069236346
129	0xbce31f19	-0.02772479
130	0x3e41e4f0	0.18934989
131	0x3e884b59	0.26619986
132	0x3e15028a	0.1455175
133	0x3d8638b6	0.065537855
134	0xbe4ff971	-0.20309998
135	0x3e8cf967	0.2753403
136	0x3e7a1f67	0.24426042
137	0x3e4caa5e	0.19986865
138	0x3d8b6a20	0.06807351
139	0xbe60fd1b	-0.21971552
140	0x3e249a65	0.16074522
141	0x3e84c303	0.25930032
142	0x3de50674	0.111828715
143	0xbe889e15	-0.26683107
144	0xbeba3d4e	-0.36374897
145	0x3da3eba8	0.08003932
146	0x3de7e2b1	0.11322535
147	0xbb2d4370	-0.00264379
148	0xbe6959b2	-0.22788122
149	0xbe95e4f4	-0.2927624
150	0xbe31da76	-0.17368492
151	0xbe6041c9	-0.21900095
152	0xbe57d111	-0.21075846
153	0xbe31c8cd	-0.17361756
154	0xbe3a1246	-0.18171033
155	0xbdaf709e	-0.08566402
156	0xbcc5abb5	-0.024129728
157	0xbde490b4	-0.111604124
158	0xbdff4e29	-0.1246608
159	0xbe714145	-0.23560055
160	0x3ddee693	0.10883822
161	0x3d7e2eb2	0.06205625
162	0xbddf55b6	-0.1090502
163	0x3d2f9275	0.04286428
164	0x3ca75264	0.02042503
165	0x3deae8f7	0.11470216
166	0x3ddea3ea	0.10871108
167	0x3e0827f0	0.13296485
168	0x3dd3f452	0.10349335
169	0x3e5a24b3	0.21303062
170	0xbe66a0da	-0.22522298
171	0x3e29a531	0.16566922
172	0x3e903d3d	0.2817172
173	0x3e833d26	0.2563259
174	0x3eef9a04	0.46797192
175	0xbdb6c504	-0.089242965
176	0xbe221550	-0.15828443
177	0xbe3ce805	-0.18447883
178	0xbdea45ef	-0.1143912
179	0x3ac7b9ba	0.0015237846
180	0xbdc01015	-0.093780674
181	0x3e21e3c0	0.15809536
182	0x3cb3987a	0.021923292
183	0xbdc59e79	-0.09649367
184	0xbe701d3a	-0.23448649
185	0x3db217a3	0.086959146
186	0x3e6ec294	0.23316413
187	0xbd949737	-0.072554044
188	0xbe17ebf2	-0.148361
189	0x3d22c139	0.039735053
190	0x3cac6944	0.021046288
191	0x3d9689b0	0.073504806
192	0x3d1b4fd5	0.03791793
193	0x3c94374a	0.01809277
194	0xbd3f0935	-0.04663964
195	0xbe0a57d7	-0.1351007
196	0x3d6a5d09	0.05721763
197	0x3d74cf6b	0.05976812
198	0x3d4053eb	0.04695503
199	0x3e0975dd	0.13423868
200	0xbe3821b2	-0.17981604
201	0xbe1602fb	-0.14649574
202	0xbe4893f1	-0.19587685
203	0xbe45123b	-0.19245236
204	0xbe3620ec	-0.17785996
205	0x3b1ad036	0.0023622639
206	0x3bf95b54	0.007609764
207	0xbe2a2571	-0.16615845
208	0xbe0a8dab	-0.13530605
209	0xbd66b3c3	-0.056323778
210	0x3e0998f2	0.1343725
211	0x3e6c6ddf	0.23088787
212	0x3e1ea675	0.15493186
213	0x3dbbb3e6	0.09165172
214	0x3cdceae4	0.026967473
215	0xbd5c7c01	-0.053829197
216	0x3e687c41	0.22703649
217	0x3de26527	0.110544495
218	0x3d96bf0c	0.07360658
219	0xbd566e9c	-0.05235158
220	0x3c80b66b	0.015711984
221	0x3e6beaba	0.2303876
222	0x3e60525e	0.2190642
223	0x3db1dcbc	0.0868468
224	0x3e863cac	0.26218164
225	0xbdf91555	-0.12162272
226	0xbca03a8f	-0.019559173
227	0x3e203ef5	0.15649016
228	0xbd971880	-0.0737772
229	0xbe742671	-0.23842789
230	0x3d5e6345	0.05429389
231	0x3c1bb173	0.009502756
232	0x3d63c399	0.05560646
233	0x3df2fb78	0.1186437
234	0xbde26e73	-0.11056223
235	0xbd607efe	-0.05480861
236	0x3e53068c	0.20607966
237	0x3e0ef651	0.1396115
238	0x3cdc245a	0.026872803
239	0xbcdc0ba3	-0.026861018
240	0xbe8b4d62	-0.27207476
241	0x3d0fff2a	0.035155453
242	0x3e2c7645	0.16841991
243	0x3e50065a	0.20314923
244	0xbd968a98	-0.073506534
245	0xbe93959d	-0.28825083
246	0xbd9865c4	-0.07441285
247	0x3c997279	0.018731343
248	0x3dd111d2	0.10208477
249	0x3d56b957	0.052422848
250	0xbda2926a	-0.079380825
251	0xbce018bf	-0.02735555
252	0x3ceed1d8	0.029152796
253	0x3da7c4c7	0.08191829
254	0x3e88ca64	0.26716912
255	0xbe1411eb	-0.1445996

feature.0.bias f4 [32]
0	0x3e629436	0.2212685
1	0xbe0042c7	-0.12525474
2	0xb9af2747	-0.00033407865
3	0x3da50b8e	0.080588445
4	0xbcf35092	-0.029701505
5	0x3e528c17	0.20561253
6	0xbdcfeebd	-0.101529576
7	0xbc3e3842	-0.011610093
8	0x3bd5fee3	0.006530629
9	0xbe914a08	-0.28376794
10	0xbe30fd92	-0.1728423
11	0xbc4beab8	-0.012446098
12	0xbde0a16b	-0.10968288
13	0xbd9efa9c	-0.07762644
14	0xbd84f377	-0.0649175
15	0x3ddbedd7	0.10738724
16	0xbe034920	-0.12820864
17	0x3d4b9a4b	0.049707692
18	0xbe1cdbdf	-0.15318249
19	0xbdfe527d	-0.12418077
20	0xbe72ce5b	-0.23711531
21	0x3e290798	0.16506803
22	0x3d00c7f7	0.0314407
23	0x3e4f6a26	0.20255336
24	0x3e56f539	0.20991983
25	0xbd0fa543	-0.035069715
26	0x3e9a8c08	0.3018496
27	0x3bc41486	0.005983892
28	0x3de0fd39	0.109857984
29	0xbdd0ed74	-0.102015406
30	0xbe82cef6	-0.25548524
31	0x3d07cf4c	0.033156678

feature.1.weight f4 [32]
0	0x3f32e456	0.69879663
1	0x3f048e1b	0.51779336
2	0x3efdb333	0.4955078
3	0x3f134860	0.5753231
4	0x3f2d3c21	0.67669874
5	0x3f2dfd60	0.67964745
6	0x3eef91ab	0.46790823
7	0x3efd4cd5	0.4947268
8	0x3ed24c2e	0.41073745
9	0x3f0c58f8	0.54823256
10	0x3eceecee	0.40415138
11	0x3ece4afb	0.4029158
12	0x3ea25d2e	0.31711715
13	0x3ebc0738	0.36724257
14	0x3f1f69da	0.6227089
15	0x3f1cb4ca	0.6121336
16	0x3ed2243a	0.41043264
17	0x3f1bbcd0	0.6083498
18	0x3ef6af5b	0.4818066
19	0x3e91c3c9	0.28469685
20	0x3f2bc1c1	0.6709252
21	0x3ee2d71a	0.44304734
22	0x3f11c840	0.5694618
23	0x3efc78a9	0.49310806
24	0x3eb46b18	0.35237956
25	0x3f37de4d	0.7182358
26	0x3f10b32f	0.5652341
27	0x3f4e51be	0.8059348
28	0x3f0b54ca	0.5442625
29	0x3f259cda	0.6469246
30	0x3f158e58	0.58420324
31	0x3ef8d956	0.48603314

feature.1.bias f4 [32]
0	0xbe41bec3	-0.18920426
1	0xbe5908b2	-0.21194723
2	0xbed93fa0	-0.42431355
3	0xbe0ca0ed	-0.13733263
4	0xbe9ceefe	-0.30651087
5	0xbe274bda	-0.16337529
6	0xbe3f17a7	-0.18661366
7	0xbe06243a	-0.13099757
8	0xbc999209	-0.018746393
9	0xbd925003	-0.07144167
10	0xbe87e7a9	-0.2654393
11	0xbe87d90f	-0.2653279
12	0xbc7567d9	-0.0149783725
13	0xbd5ed75d	-0.054404605
14	0xbd9dc2ba	-0.07703157
15	0xbe121422	-0.14265493
16	0xbc8eff13	-0.017455613
17	0xbd8d31d5	-0.0689427
18	0xbbd388a1	-0.0064554964
19	0x3c44e69a	0.01201787
20	0xbd59d47e	-0.053181164
21	0xbd8bca19	-0.068256564
22	0xbd37bb7e	-0.04485654
23	0xbe4d4a1c	-0.20047802
24	0xbe8d8b71	-0.27645448
25	0xbf5fc27f	-0.8740615
26	0xbe254a0c	-0.16141528
27	0xbe5adb39	-0.2137269
28	0xbed5107f	-0.41614148
29	0xbe128b22	-0.14310887
30	0xbd96a08a	-0.07354839
31	0xbd88d210	-0.06680691

feature.1.running_mean f4 [32]
0	0x3eb13794	0.34612715
1	0x3ed27fb5	0.41113058
2	0x3e1a78e7	0.15085183
3	0x3db4c356	0.0882632
4	0xbe64d2ee	-0.22346088
5	0x3ef10ab1	0.4707847
6	0xbfcde3f9	-1.6085197
7	0x3dde3314	0.10849586
8	0x3e3139e4	0.1730724
9	0xbe1d6e09	-0.15374006
10	0x3ee99618	0.45622325
11	0x3f886a9f	1.0657538
12	0x3ce876bf	0.028376935
13	0x3dcd9370	0.10037887
14	0xbdb55511	-0.08854116
15	0x3e032679	0.12807645
16	0x3e62ab08	0.22135556
17	0x3c625f23	0.013816628
18	0xbe82b128	-0.25525784
19	0xbfa99c8b	-1.3250898
20	0xbe83c3fc	-0.25735462
21	0x3e4f6a2e	0.20255348
22	0x3e2662cb	0.16248624
23	0x3f379403	0.7171022
24	0x3ec1d55f	0.37858102
25	0x3e4d85ff	0.20070647
26	0x3ea26244	0.31715596
27	0x3d407c3c	0.04699348
28	0xbf759111	-0.9592448
29	0xbda47d93	-0.08031764
30	0xbe89a36a	-0.26882488
31	0x3cffc20b	0.031220457

feature.1.running_var f4 [32]
0	0x3c62683f	0.0138187995
1	0x3de785c3	0.1130481
2	0x3e653472	0.22383288
3	0x3d0611de	0.032731883
4	0x3d2ca57b	0.042150002
5	0x3cd25c86	0.025678884
6	0x3eb7f13b	0.35926232
7	0x3cc9a357	0.02461402
8	0x3cce356d	0.02517196
9	0x3c15d5df	0.009145229
10	0x3db621fd	0.088932015
11	0x3e8828df	0.26593682
12	0x3cad3b09	0.021146314
13	0x3d7e14d9	0.0620316
14	0x3d36ef5c	0.044661865
15	0x3d27e381	0.04098845
16	0x3d71c05f	0.05902135
17	0x3e187b9b	0.14890902
18	0x3e2056c0	0.15658092
19	0x3e8612d6	0.26186246
20	0x3cf48c13	0.029851949
21	0x3d07d8a1	0.033165578
22	0x3dc94df4	0.098293215
23	0x3dbb3e32	0.09142722
24	0x3cf803e4	0.030275293
25	0x3dbfe4e7	0.093698315
26	0x3d424241	0.047426466
27	0x3c96b49d	0.01839667
28	0x3eb300c7	0.3496153
29	0x3c39c36a	0.011338094
30	0x3db2f3c6	0.08737902
31	0x3ddc762e	0.107647285

feature.4.weight f4 [48, 32, 5, 5]
0	0xbd8c4dff	-0.06850814
1	0xbe0fe89c	-0.14053577
2	0xbdd1a4b1	-0.102364905
3	0xbe3b901c	-0.18316692
4	0xbd9cea7d	-0.076619126
5	0xbd00efb1	-0.031478588
6	0xbe683b7b	-0.2267894
7	0x3c528515	0.012849112
8	0x3e0964c8	0.13417351
9	0xbd09d13c	-0.033646807
10	0xbc8e829a	-0.01739626
11	0xbdabb3b0	-0.08383882
12	0x3dd439ca	0.10362585
13	0x3e2c86d8	0.16848314
14	0xbe148e97	-0.14507519
15	0x3d388b81	0.045054916
16	0xbd0cb60a	-0.034353293
17	0x3e0d3a9e	0.13791892
18	0x3bf0e907	0.007351998
19	0xbd603dfc	-0.054746613
20	0x3cf4974c	0.0298573
21	0x3b887b1f	0.004165068
22	0x3cadf4b7	0.021234853
23	0x3da60f9e	0.081084475
24	0xbe354df8	-0.17705524
25	0xbdfd39e6	-0.12364559
26	0xbd5a064a	-0.053228654
27	0xbd643962	-0.055718787
28	0xbccc32e4	-0.02492661
29	0xbdb43580	-0.08799267
30	0xbd07c283	-0.033144485
31	0x3e0d79dc	0.13816017
32	0x3e28bde0	0.16478682
33	0x3ceccbc5	0.028905759
34	0x3cfb1fc9	0.030654805
35	0xbd62fa77	-0.055414643
36	0x3e494c3a	0.19657984
37	0x3c07f94e	0.008299185
38	0x3d2d32dc	0.04228483
39	0x3ddbac5e	0.10726236
40	0xbc75cc10	-0.015002266
41	0xbe0924a6	-0.13392887
42	0xbd5d28dc	-0.053994045
43	0xbca3d7d4	-0.020000376
44	0xbd5e0141	-0.054200415
45	0x3d26bca5	0.04070725
46	0xbd6f64a2	-0.05844558
47	0x3dbdac54	0.092613846
48	0x3d2c7979	0.042108033
49	0xbd58a415	-0.052890856
50	0x3de77aec	0.11302742
51	0x3e61775a	0.22018185
52	0x3e9ea37f	0.30984113
53	0x3e0cf37e	0.1376476
54	0x3e1a16e0	0.15047789
55	0x3e6f274e	0.23354837
56	0x3e60e66a	0.21962896
57	0x3e454bfb	0.19267265
58	0xb9958693	-0.0002851976
59	0x3df38682	0.1189089
60	0x3de4d621	0.11173654
61	0x3db7e53d	0.089792706
62	0xbcc38553	-0.023867285
63	0xbdbcaa1f	-0.092121355
64	0xbe08b6b1	-0.13350941
65	0xbc41c78d	-0.011827362
66	0x3ce29aeb	0.027661761
67	0xbc9c3a47	-0.019070758
68	0xbdcf3e2e	-0.10119282
69	0x3d85f979	0.06541724
70	0x3db16b0b	0.08662995
71	0x3db6914b	0.08914431
72	0x3e80a070	0.25122404
73	0x3cd8f492	0.026483808
74	0xbd964602	-0.07337572
75	0x3e286354	0.1644414
76	0x3e277bcc	0.16355819
77	0xbab03084	-0.0013442193
78	0x3d18e061	0.03732336
79	0xbe462f6f	-0.19354032
80	0x3ec1bf74	0.3784138
81	0x3e4625f2	0.19350412
82	0x3e6d1b11	0.23154856
83	0xbbd2112d	-0.006410739
84	0x3ce8ae90	0.02840355
85	0x3d92be24	0.07165173
86	0xbe0a6c46	-0.13517866
87	0xbc08236b	-0.008309226
88	0xbda33efb	-0.07970997
89	0x3d5b43f2	0.053531595
90	0xbedebd61	-0.4350386
91	0xbee1de9f	-0.4411516
92	0xbe9a2d4b	-0.3011268
93	0xbe30aca8	-0.17253363
94	0xbd5e53c4	-0.054279104
95	0xbe9a3e84	-0.3012582
96	0xbe18b587	-0.14912997
97	0xbdeb6fce	-0.114959344
98	0xbd10805b	-0.03527866
99	0xbbb009fa	-0.005372283
100	0xbe363149	-0.17792238
101	0xbe7d1743	-0.24715905
102	0xbeaae2c1	-0.33376125
103	0xbe3f36ec	-0.18673295
104	0xbea8278f	-0.3284268
105	0x3d9042fe	0.07044028
106	0x3de247c4	0.110488445
107	0xbd288ee3	-0.041151892
108	0x3e43aac8	0.19108117
109	0x3c5e4aeb	0.0135676665
110	0x3dab7847	0.083725505
111	0x3dc63963	0.096789144
112	0x3b146c2a	0.0022647479
113	0x3e4719e4	0.1944347
114	0x3da6e9c4	0.08150056
115	0xbe2b3ee9	-0.16723217
116	0xbe0b8114	-0.13623458
117	0xbe2415f4	-0.16024
118	0xbdacdc55	-0.084404625
119	0xbe342784	-0.17593199
120	0xbded39eb	-0.115833126
121	0xbc17d8b4	-0.009267975
122	0xbc7632c3	-0.015026751
123	0xbe041d78	-0.12901866
124	0xbe55cba4	-0.20878464
125	0xbcb050fa	-0.021522988
126	0x3d9db79c	0.07701036
127	0x3d252344	0.040316835
128	0xbd5c1fbd	-0.053741205
129	0xbd48a2b2	-0.048983283
130	0xbe0b746f	-0.13618635
131	0xbdbe717d	-0.0929899
132	0xbd44301d	-0.047897447
133	0x3d255438	0.04036352
134	0x3d8c0b81	0.06838132
135	0xbd29f726	-0.041495465
136	0xbdab0a86	-0.083516166
137	0xbdcbcb25	-0.09950856
138	0xbdd858cb	-0.10563811
139	0xbdeafbc1	-0.114737995
140	0x3d1bfd56	0.038083397
141	0x3d04c428	0.03241363
142	0x3d9c8a3a	0.07643552
143	0x3e09b696	0.13448557
144	0x3d844ab3	0.0645956
145	0x3dec5b8b	0.11540898
146	0x3e2e4169	0.1701714
147	0x3e112ef0	0.14178061
148	0x3e209e41	0.15685369
149	0x3de006c7	0.10938793
150	0x3ddd1c75	0.107964434
151	0x3dd15685	0.102215804
152	0x3d9b52ba	0.07584138
153	0x3e63df9c	0.22253269
154	0x3e50d33c	0.2039308
155	0xbe1b7505	-0.15181358
156	0xbce29599	-0.027659224
157	0xbd305dc9	-0.04305819
158	0x3db9b508	0.09067732
159	0x3d2b5370	0.04182762
160	0xbe1c809e	-0.15283439
161	0xbdaf2521	-0.08552004
162	0xbc12f1ea	-0.00896881
163	0x3dbdb63a	0.092632726
164	0x3e0d6c41	0.13810827
165	0x3e1176c9	0.14205469
166	0x3d4568bd	0.04819559
167	0x3e55ddde	0.20885417
168	0x3dc2f189	0.095187254
169	0x3de3c29f	0.111211054
170	0x3e13c728	0.14431441
171	0x3e1e85eb	0.15480773
172	0x3e4cea87	0.2001134
173	0xbd745d03	-0.059659015
174	0x3cacd0a2	0.021095578
175	0x3e9ad096	0.30237263
176	0x3e3c44a7	0.18385564
177	0xbe2def99	-0.1698593
178	0xbd8bcf66	-0.068266675
179	0xbe1d038c	-0.15333384
180	0x3edf6861	0.43634322
181	0x3ecfeab2	0.40608746
182	0x3e13ee13	0.14446287
183	0x3df280a2	0.11840941
184	0x3cba3c14	0.022733726
185	0x3e0fc19f	0.14038704
186	0x3e2981bd	0.16553397
187	0x3d7eaf96	0.06217917
188	0xbb45972c	-0.003014992
189	0xbcb6a1fa	-0.022294033
190	0xbe67a976	-0.22623238
191	0xbe255af8	-0.16147983
192	0xbe26f5c2	-0.16304687
193	0xbe1bf351	-0.15229537
194	0xbda6f1b7	-0.08151572
195	0xbe3e1d28	-0.1856581
196	0x3cb1d753	0.02170912
197	0x3d4d593d	0.050133932
198	0xbe29d4f6	-0.16585144
199	0xbe30f5ba	-0.17281237
200	0xbe4220f2	-0.1895788
201	0xbda3dbf6	-0.080009386
202	0xbd7414fd	-0.05959033
203	0xbe3367fa	-0.17520133
204	0xbe530886	-0.2060872
205	0xbd08b558	-0.033376068
206	0x3e3b0b02	0.18265918
207	0x3e2500a6	0.16113529
208	0xbe14dce1	-0.14537384
209	0xbd2cd89e	-0.04219877
210	0x3b825da1	0.0039784466
211	0xbdbcb161	-0.0921352
212	0x3e350e2a	0.17681184
213	0xbdee6ea4	-0.11642197
214	0xbcb0d002	-0.02158356
215	0xbdccc345	-0.09998182
216	0xbe70ea3f	-0.23526858
217	0xbd443a81	-0.047907356
218	0x3d171e58	0.036894172
219	0x3e0e2dce	0.1388466
220	0xbbe0f92a	-0.00686564
221	0xbe0214f0	-0.127033
222	0x3cc37c8b	0.023863098
223	0x3d8a6bc1	0.06758834
224	0x3e9f5419	0.3111885
225	0xbda98d8e	-0.082789525
226	0xbd5c02e1	-0.053713683
227	0xbc367896	-0.011137148
228	0xbdf0f5a2	-0.11765601
229	0xbdc8b99e	-0.09801029
230	0xbea6b39e	-0.32558912
231	0xbea8e575	-0.32987562
232	0xbdb76c52	-0.08956207
233	0xbcb906ce	-0.022586253
234	0x3d22116d	0.0395674
235	0xbea3a14d	-0.31959
236	0xbe091599	-0.13387145
237	0xbd480919	-0.0488368
238	0x3d4e84b9	0.050419543
239	0xbbf7e59a	-0.0075652124
240	0xbdc1450a	-0.09436996
241	0x3c3aa400	0.01139164
242	0x3e1cfc3a	0.15330592
243	0x3de8083d	0.11329696
244	0xbd8c2f75	-0.06844989
245	0x3d804744	0.06263593
246	0x3e2e29d7	0.17008148
247	0x3e18c86e	0.14920208
248	0x3db791a4	0.089633256
249	0xbe030680	-0.12795448
250	0xbda3570a	-0.07975586
251	0x3d3105c4	0.04321839
252	0x3e8e4189	0.27784374
253	0x3de70b13	0.11281409
254	0x3e1d86f4	0.15383512
255	0x3d803e03	0.06261828

feature.4.bias f4 [48]
0	0x3d354d7f	0.04426336
1	0xbd675c5f	-0.056484576
2	0x3d06f952	0.032952614
3	0x3cf6a655	0.03010861
4	0xbc50622e	-0.01271872
5	0x3b6c6a48	0.003607409
6	0xbdcce2b6	-0.10004179
7	0x3c390811	0.011293427
8	0xbc7b3108	-0.015331514
9	0x3c6b126a	0.014347652
10	0xbc14106a	-0.009037117
11	0xbb366936	-0.0027833707
12	0x3c750c47	0.01495654
13	0xbcadfa02	-0.021237377
14	0xbd58f538	-0.052968234
15	0x3c81c5dd	0.015841419
16	0x3c10228c	0.008797299
17	0x3ca9d531	0.02073154
18	0x3b17b6db	0.0023149762
19	0xbc4d571d	-0.012532976
20	0x3c807f40	0.015685678
21	0xbcbfe527	-0.023424698
22	0x3afdc473	0.0019360915
23	0x3d1360d3	0.03598101
24	0x3da71371	0.08158005
25	0x3d462308	0.048373252
26	0x3cb83876	0.02248786
27	0x3c99f535	0.018793682
28	0x3cb64423	0.022249287
29	0xbc335423	-0.010945353
30	0xbd23e912	-0.040017195
31	0xbc53f8c4	-0.012937728
32	0x3d075e6f	0.033049043
33	0x3c90915f	0.017647443
34	0xbcdee767	-0.02720995
35	0xbc6b915a	-0.014377916
36	0xbb00f4f8	-0.0019677263
37	0xbcc6af18	-0.024253413
38	0x3d36a92f	0.04459494
39	0x3bd16a4a	0.0063908445
40	0x3d326db5	0.043561656
41	0x398ce7f7	0.00026875708
42	0xbd39987b	-0.045311432
43	0xbc90edc5	-0.017691502
44	0xbb8cdfed	-0.004299155
45	0x3c5d2cf3	0.013499486
46	0xbd80692f	-0.06270062
47	0xbafb0674	-0.0019151703

feature.5.weight f4 [48]
0	0x3ead8dfe	0.33897394
1	0x3ee90e45	0.455187
2	0x3f98424b	1.1895231
3	0x3f48adfe	0.7839049
4	0x3e263958	0.16232812
5	0x3f4c3767	0.7977204
6	0x3e4a4d5e	0.19756076
7	0x3f07f9b1	0.53115374
8	0x3f30879c	0.68956923
9	0x3edcd0cd	0.43128052
10	0x3e44c95c	0.19217438
11	0x3f0d0289	0.55081993
12	0x3e90e36c	0.2829851
13	0x3e84e171	0.25953248
14	0x3ea82892	0.32843453
15	0x3e9a77ba	0.3016947
16	0x3ed34c17	0.4126899
17	0x3f869fc1	1.0517503
18	0x3f4a7d7b	0.7909772
19	0x3e81a98a	0.2532466
20	0x3faffbc1	1.3748704
21	0x3e8c02dd	0.27345935
22	0x3eabbd47	0.33542845
23	0x3fd3b76c	1.6540351
24	0x3ef4cf13	0.47814235
25	0x3e72675f	0.23672245
26	0x3d4cee86	0.05003216
27	0x3e4b054b	0.19826238
28	0x3f55498d	0.83315355
29	0x3e65fc21	0.22459461
30	0x3f463dbb	0.77437943
31	0x3ebb9747	0.36638853
32	0x3eb02dd6	0.3440997
33	0x3f218594	0.6309445
34	0x3e67654e	0.22597238
35	0x3e29d8ca	0.16586605
36	0x3e3bf51b	0.18355219
37	0x3e31726d	0.17328806
38	0x3ec1b530	0.37833548
39	0x3ed04d20	0.40683842
40	0x3e2e173c	0.1700105
41	0x3e85866e	0.26079124
42	0x3ea46dc6	0.32115
43	0x3ee799eb	0.45234618
44	0x3ea24e12	0.31700188
45	0x3eccce2c	0.40001047
46	0x3e9a0866	0.30084532
47	0x3eff94ca	0.49918205

feature.5.bias f4 [48]
0	0x3eef0e99	0.46690825
1	0x3ec59982	0.3859368
2	0x3ef930b0	0.48669958
3	0x3f79ed71	0.9762793
4	0x3debb47e	0.115090355
5	0x3e8acca4	0.27109253
6	0xbdc7e27c	-0.09759995
7	0xbee74a47	-0.45173857
8	0xbe669537	-0.22517858
9	0xbeb36cbe	-0.350439
10	0xbdd46d83	-0.1037245
11	0xbf147957	-0.5799765
12	0xbe84d59a	-0.25944215
13	0xbdf92580	-0.12165356
14	0xbe84eb6a	-0.25960857
15	0xbe5409c9	-0.20706858
16	0xbed6f28b	-0.4198192
17	0x3eaea07d	0.34106818
18	0x3f26e332	0.6519042
19	0x3db59593	0.0886642
20	0x3f12c9ef	0.57339376
21	0x3f19c070	0.6005926
22	0xbe4c8335	-0.19971927
23	0x3f692ca3	0.91083735
24	0x3e7341fa	0.23755637
25	0x3f2bb4ff	0.67073053
26	0xbf0dfaad	-0.55460626
27	0xbf0142bb	-0.5049245
28	0x3e85cf27	0.26134607
29	0x3efee9c8	0.49787736
30	0xbda04f22	-0.078275934
31	0xbec37124	-0.38172257
32	0xbe7f3e8e	-0.24926206
33	0x3ec5226b	0.3850282
34	0xb96721ef	-0.00022042518
35	0x3b4aee6b	0.0030964862
36	0xbd8b1482	-0.06791021
37	0x3cf7d4fc	0.030252926
38	0xbed4074d	-0.4141182
39	0xbe809141	-0.2511082
40	0x3f413da0	0.7548466
41	0xbf0d4786	-0.5518726
42	0xbe613d39	-0.21996011
43	0xbefe3cd9	-0.49655798
44	0x3e911d19	0.28342512
45	0xbe9e91b8	-0.3097055
46	0xbe85f109	-0.26160458
47	0xbec3e6b6	-0.38261956

feature.5.running_mean f4 [48]
0	0xbf92b556	-1.1461589
1	0xbf80527a	-1.002517
2	0xc03b98ee	-2.931209
3	0xbfa964e8	-1.3233919
4	0x3e3c30c3	0.18377976
5	0xbf16d2c1	-0.58915335
6	0xbf8aba6f	-1.0838145
7	0xc02d0e24	-2.703988
8	0xc00f1db1	-2.2361872
9	0xc03e2b46	-2.9713912
10	0xbfa2f0ff	-1.2729796
11	0xc04517f1	-3.0795863
12	0xc0176585	-2.3655713
13	0xbfbaedd5	-1.460383
14	0xc016d945	-2.357011
15	0xbfde98ec	-1.7390418
16	0xc003e4b2	-2.0608335
17	0x3ea017fa	0.31268293
18	0xbef1e071	-0.47241548
19	0xbfafc259	-1.3731185
20	0xbf5439a8	-0.82900476
21	0xbd23a205	-0.039949436
22	0xbfd984a0	-1.6993599
23	0xbfc3b4f9	-1.5289603
24	0xbf0b5f9e	-0.54442775
25	0xbe5b8d0b	-0.21440522
26	0x4059161c	3.3919744
27	0xc071398d	-3.7691376
28	0xbf482083	-0.7817461
29	0xbec171b1	-0.37782052
30	0xbe5b650f	-0.2142527
31	0xc047ce17	-3.1219537
32	0xbffc0f39	-1.9692146
33	0xbf32a248	-0.6977887
34	0xbf26d235	-0.651645
35	0xbef8fa6b	-0.48628554
36	0xbf638175	-0.8886941
37	0xbd0efd9c	-0.03490983
38	0xc0401427	-3.00123
39	0xbfb0c09e	-1.3808782
40	0xbe08b344	-0.13349634
41	0xc085c714	-4.1805515
42	0xc01efe2c	-2.4842634
43	0xc04f1028	-3.235361
44	0x3e73591b	0.2376446
45	0xc00c5b02	-2.1930547
46	0xc053ae87	-3.3075273
47	0xc0468c73	-3.1023223

feature.5.running_var f4 [48]
0	0x4041b249	3.0265067
1	0x4039fcbc	2.9060507
2	0x40d20609	6.5632367
3	0x40a12f34	5.037012
4	0x40121d46	2.2830367
5	0x40967a17	4.7024035
6	0x404639a4	3.097268
7	0x40e04d84	7.0094624
8	0x40d2df9b	6.5897956
9	0x40dcd779	6.901303
10	0x4075d273	3.8409698
11	0x40dac5fc	6.836668
12	0x40a72bd5	5.2241006
13	0x4085307a	4.1621675
14	0x40a0ccab	5.024984
15	0x4096be86	4.7107573
16	0x407294a2	3.7903218
17	0x403127d5	2.7680562
18	0x3fda0d8d	1.7035385
19	0x4031b6da	2.7767854
20	0x405ed3f5	3.4816868
21	0x4018d42a	2.3879495
22	0x406c757d	3.694671
23	0x40740346	3.8126998
24	0x407211ec	3.7823439
25	0x4058e9b8	3.389265
26	0x40b9ced9	5.8065
27	0x40e8388f	7.256904
28	0x405de17f	3.4668882
29	0x400e1540	2.220047
30	0x406b0b95	3.672582
31	0x40eb4c91	7.3530965
32	0x409ce6a4	4.9031544
33	0x4038a097	2.8848016
34	0x400fe586	2.248384
35	0x40413f6e	3.0194964
36	0x4061afec	3.5263624
37	0x40459513	3.0872238
38	0x40e6e78b	7.2157645
39	0x4078c89b	3.887244
40	0x405246a1	3.2855608
41	0x4106e65a	8.431238
42	0x40ac24b4	5.3794804
43	0x40da6899	6.8252683
44	0x40117998	2.2730465
45	0x40ba6975	5.825373
46	0x40e2b6b6	7.0848036
47	0x40fe7582	7.951844

class_classifier.0.weight f4 [100, 768]
0	0xbccf24dd	-0.025286132
1	0xbe114f64	-0.14190441
2	0xbdf3074f	-0.118666284
3	0xbe339536	-0.17537388
4	0x3e8c43d6	0.27395505
5	0xbd04053f	-0.032231566
6	0xbd35a7d0	-0.04434949
7	0x3da0b44d	0.0784689
8	0xbd738e6e	-0.059462003
9	0xbdc1e440	-0.09467363
10	0xbd3862e7	-0.045016196
11	0x3e3af9e5	0.1825939
12	0x3de9129b	0.11380502
13	0x3dd93956	0.10606639
14	0xbda5be88	-0.080929816
15	0x3d0b3058	0.03398165
16	0xbd35ca04	-0.04438211
17	0x3bde385e	0.006781622
18	0xbcf4c926	-0.029881071
19	0xbdb44449	-0.08802087
20	0xbdbe4114	-0.092897564
21	0x3ccba890	0.02486065
22	0x3ba4eec2	0.005033345
23	0x3da9591e	0.08268951
24	0x3e50ff85	0.20409973
25	0x3dcc5e7c	0.09978959
26	0x3c94a443	0.018144732
27	0xbdda01ec	-0.10644898
28	0xbdb38d6a	-0.08767207
29	0xbe19c84c	-0.15017813
30	0x3cac8322	0.021058623
31	0x3dd4570f	0.103681676
32	0x3d2898b7	0.041161265
33	0xbda03edc	-0.078244895
34	0x3bae18b8	0.0053130053
35	0x3d56a618	0.052404493
36	0x3d773c94	0.060360506
37	0x3d24a1e5	0.040193457
38	0xbc67fdac	-0.014159601
39	0xbd5ee941	-0.054421667
40	0xbd81169c	-0.063031405
41	0x3ccbefbf	0.024894593
42	0x3ca15561	0.019694032
43	0x3b41792d	0.002952169
44	0x3cbbb648	0.022914067
45	0xbce4e0e0	-0.02793926
46	0xbc482174	-0.012215007
47	0x3bb464c4	0.0055051763
48	0x3d5e2539	0.054234717
49	0xbddc1168	-0.107455075
50	0xbdd9e60c	-0.10639581
51	0xbd919e5f	-0.07110285
52	0xbd88c42c	-0.06678042
53	0x3cba8b05	0.022771368
54	0xbda5e8d0	-0.08101046
55	0xbc80a0c2	-0.015701655
56	0x3ddabb8b	0.10680302
57	0x3dde5ec7	0.10857921
58	0x3df40df3	0.11916723
59	0x3d49119e	0.049089067
60	0xbcfce243	-0.030869609
61	0xbc1fb6a4	-0.009748135
62	0xbd418cab	-0.047253292
63	0x3d7a110f	0.061051425
64	0xbd775aee	-0.06038945
65	0xbe75c7b3	-0.2400196
66	0x3dcfaf83	0.10140898
67	0x3ebeb8dc	0.37250412
68	0x3d4c48f1	0.04987425
69	0x3d2507df	0.04029071
70	0x3d5e29da	0.05423913
71	0xbde518e3	-0.111863874
72	0xbb3794db	-0.0028012309
73	0xbe5f54cd	-0.21809693
74	0xbe20a824	-0.1568914
75	0xbc2cfb92	-0.010558026
76	0x3e2fb43a	0.17158595
77	0x3959a1ea	0.0002075505
78	0xbce9ce5d	-0.028540784
79	0xbc6acbc2	-0.014330806
80	0x3d887969	0.06663782
81	0xbcbb5db2	-0.022871826
82	0xbd037de3	-0.032102477
83	0xbd716193	-0.058930945
84	0xbe0a8212	-0.1352618
85	0xbd822ddc	-0.06356403
86	0x3d023afe	0.03179454
87	0xbd5b8d61	-0.053601626
88	0x3d2d2f65	0.042281527
89	0xbc8ca4b2	-0.017168377
90	0x3d42479b	0.04743157
91	0x3d90c4f8	0.07068819
92	0x3db4037b	0.08789726
93	0xbd7a9d64	-0.061185256
94	0xbc0b8f56	-0.008518061
95	0x3d7c3c49	0.06158093
96	0xbd75c5a3	-0.060002934
97	0xbdce5292	-0.10074343
98	0x3cff586e	0.031170096
99	0x3ebe6860	0.37189007
100	0xbe8099a8	-0.2511723
101	0x3dfa01fc	0.1220741
102	0x3d0969d8	0.033548206
103	0xbdde5b78	-0.1085729
104	0x3d514731	0.051093284
105	0xbd915116	-0.07095544
106	0xbe919f39	-0.2844179
107	0xbd93a011	-0.072082646
108	0x3d781f04	0.060576454
109	0xbe44e2aa	-0.1922709
110	0xbd12409d	-0.03570615
111	0x3c809ff0	0.015701264
112	0x3e9b945d	0.3038663
113	0x3df64531	0.12024916
114	0x3d3c009e	0.045899026
115	0x3e83ed66	0.25767058
116	0x3de8546d	0.11344228
117	0x3e0773d7	0.13227783
118	0xbd9a6b26	-0.07539968
119	0xbe410efa	-0.1885337
120	0xbee7b127	-0.45252344
121	0xbc60c3e8	-0.013718583
122	0xbdb4af11	-0.08822454
123	0xbe6f906d	-0.23394938
124	0xbd044f2b	-0.032302063
125	0x3d69fc43	0.05712534
126	0x3d6384ff	0.055546757
127	0xbdc072f3	-0.09396925
128	0xbc365367	-0.011128283
129	0x3cb9593f	0.022625564
130	0x3c161b14	0.009161729
131	0xbe15719f	-0.14594124
132	0x3da6f50c	0.08152208
133	0x3dd139c0	0.10216093
134	0x3e10a490	0.14125276
135	0x3d6154c9	0.055012498
136	0x3d131d62	0.035916694
137	0xbd7ba84a	-0.06143979
138	0xbe2abf30	-0.16674495
139	0xbdc6c658	-0.097058
140	0xbd6b56a9	-0.057455692
141	0xbcca1874	-0.024669863
142	0x3de40ffb	0.111358605
143	0xbc1edac4	-0.0096957125
144	0xbc02d485	-0.007985239
145	0x3dc3b99a	0.09556885
146	0xbdfec843	-0.12440541
147	0xbe269250	-0.16266751
148	0xbc940257	-0.018067522
149	0xbdca6c6e	-0.098839626
150	0xbd159303	-0.036517154
151	0xbd90bd3f	-0.07067346
152	0x3e556e26	0.208428
153	0xbc2f2a49	-0.010691234
154	0x3e0f3bff	0.1398773
155	0x3dce6643	0.100780986
156	0x3b2e3c38	0.0026586186
157	0x3d232f50	0.039840043
158	0xbd18d971	-0.037316743
159	0x3d3dfa18	0.046381086
160	0x3dba19d1	0.09086955
161	0xbd978e95	-0.07400242
162	0xbebff38a	-0.37490493
163	0xbea6b347	-0.32558653
164	0xbed2a443	-0.41140947
165	0xbe86316f	-0.2620959
166	0xbe2ccdc8	-0.16875374
167	0x3ddf3df0	0.109004855
168	0x3d46eacc	0.048563763
169	0x3e36057f	0.17775534
170	0x3db8c71c	0.09022352
171	0xbc36ed9b	-0.011165048
172	0x3eb79f6e	0.35863823
173	0x3df94569	0.12171442
174	0x3d311302	0.043231018
175	0xbdc5c880	-0.09657383
176	0x3ef05647	0.46940824
177	0x3ea8bbb6	0.32955712
178	0x3cf4a7b5	0.029865125
179	0xbc48d430	-0.012257621
180	0xbe038f15	-0.1284755
181	0xbe50bf15	-0.20385392
182	0xbe11a2eb	-0.14222305
183	0xbe1bcc7f	-0.15214728
184	0xbe4179bd	-0.18894096
185	0xbe057e7d	-0.13036533
186	0xbe54a788	-0.20767033
187	0xbd2cc839	-0.042183135
188	0x3f0cf57d	0.55062085
189	0x3e55020b	0.2080156
190	0xbe42413e	-0.189702
191	0xbe633868	-0.22189486
192	0x3eaee213	0.34156856
193	0x3bf903ec	0.0075993445
194	0xbe6ceb0c	-0.23136538
195	0x3ce3edc1	0.02782333
196	0xbe6e6f3d	-0.23284622
197	0x3d64a9e2	0.055826075
198	0xbde729bb	-0.11287256
199	0x3da9d2ee	0.08292185
200	0x3dbc4792	0.091933385
201	0xbd8e7e98	-0.069577396
202	0x3ea83cc2	0.32858855
203	0xbe356a5a	-0.17716351
204	0x3e521b91	0.20518328
205	0xbd7fcf8d	-0.062453795
206	0xbea63f68	-0.3247025
207	0xbdbb689d	-0.09150813
208	0xbdee3dc8	-0.116328776
209	0x3e25c83a	0.16189662
210	0x3eae20d3	0.34009418
211	0x3e0a9068	0.13531649
212	0x3eb4a4a6	0.35281867
213	0x3eaf8dc5	0.3428785
214	0x3e28930c	0.16462344
215	0xbecf1cd4	-0.40451682
216	0x3d0b497f	0.03400564
217	0xbeb3a13d	-0.35083953
218	0xbe229a57	-0.15879188
219	0x3e116117	0.14197193
220	0xbeb2c6b2	-0.34917217
221	0x3dc17c39	0.09447522
222	0xba858396	-0.001018631
223	0xbd8e788c	-0.06956586
224	0xbd61a89f	-0.05509245
225	0x3c2726f7	0.010202161
226	0x3be745f8	0.0070579015
227	0x3ea7856a	0.32718974
228	0x3ea3c903	0.31989297
229	0x3e08f4df	0.13374661
230	0x3e3a34fa	0.18184271
231	0x3b74ad8a	0.0037334883
232	0xbe597954	-0.2123769
233	0xbe5ed4cc	-0.21760863
234	0x3e42a7ad	0.19009276
235	0x3e45db79	0.19322003
236	0xbf109869	-0.5648256
237	0xbe0c0cf5	-0.13676818
238	0x3ea735eb	0.32658324
239	0xbd2683ad	-0.04065292
240	0x3c8a2f3b	0.016868224
241	0x3e29d9b6	0.16586956
242	0x3e891576	0.26774186
243	0x3d4949f2	0.049142785
244	0x3d26942d	0.040668655
245	0x3dc878a3	0.09788635
246	0x3d7c022b	0.061525505
247	0xbec871d5	-0.39149347
248	0x3bee1247	0.0072653624
249	0xbea37988	-0.31928658
250	0xbe6b5b78	-0.22984111
251	0x3e114b54	0.14188892
252	0x3db3f3fb	0.0878677
253	0xbbc9accc	-0.006154632
254	0x3d0f90b3	0.035050105
255	0x3db12960	0.0865047

class_classifier.0.bias f4 [100]
0	0x3cf04cfb	0.029333582
1	0x3b466c1c	0.003027684
2	0xbca5f543	-0.020258551
3	0xb9ada103	-0.00033117094
4	0xbb4c2ad9	-0.003115347
5	0x3c8cbb9a	0.0171793
6	0x3c7483d0	0.014924005
7	0xbcbb9e84	-0.022902735
8	0xbcc54195	-0.024079124
9	0x3ca35c2b	0.01994141
10	0xbd43d15b	-0.04780708
11	0xbd0a3cbc	-0.033749327
12	0xbd395681	-0.045248512
13	0x3b0dae34	0.0021618726
14	0x3d37f170	0.044907987
15	0x3c986c91	0.018606456
16	0x3ad8d7ca	0.0016543802
17	0xbccb63ef	-0.024827925
18	0xbcd1f9ca	-0.025631804
19	0x3c8c8273	0.017152047
20	0x3d14a7bb	0.036292773
21	0x3d114ea1	0.035475377
22	0x3bbae207	0.005703214
23	0xbb0afd72	-0.0021208194
24	0x3c9b3452	0.018945847
25	0xbcbd1fc7	-0.023086442
26	0x3cf1dc75	0.029524067
27	0xbcfb02fc	-0.030641071
28	0xbc980b4f	-0.01856008
29	0xbc7bae6d	-0.015361411
30	0xbc57bd16	-0.01316764
31	0x3d058297	0.032595243
32	0xbc8199ee	-0.01582047
33	0xbcee348a	-0.029077787
34	0x3a76a209	0.00094083004
35	0xbccab6e0	-0.024745405
36	0x3be7bbe0	0.007071957
37	0xbd36c456	-0.044620834
38	0xbc650cfc	-0.0139801465
39	0xbcb7e765	-0.022449205
40	0xbc5f78bf	-0.013639628
41	0x3ceeebcd	0.029165173
42	0xbbef4cfc	-0.0073028784
43	0x3cc44562	0.023958866
44	0xbcf716b9	-0.030162202
45	0x3b99e7b4	0.0046968106
46	0x3c2c0109	0.010498294
47	0x3cdef0d5	0.027214447
48	0x3cdaa7fc	0.02669143
49	0x3cd78750	0.02630964
50	0x3c9bf62e	0.019038286
51	0x3c467437	0.012112669
52	0xbc2c3ad5	-0.0105120735
53	0xbd06da2a	-0.0329229
54	0x3b6b5af3	0.0035912364
55	0xbcafeac1	-0.021474244
56	0x3b45e7eb	0.0030198048
57	0xbc490a6d	-0.012270552
58	0xbc56a4eb	-0.013100843
59	0x3d0555d9	0.032552574
60	0x3cc871db	0.024468353
61	0x3c5d13bf	0.013493477
62	0x3b685b03	0.0035454638
63	0x3a49eca9	0.00077028066
64	0xbbd42fae	-0.0064754104
65	0xbca88039	-0.020568954
66	0x3d25c349	0.04046944
67	0x3bc23392	0.005926558
68	0xbc59c1b0	-0.013290808
69	0xbc23a682	-0.009988429
70	0xbcf83111	-0.030296834
71	0x3ccb1e1a	0.024794627
72	0x3ca8d601	0.020609858
73	0x3ccadda7	0.024763895
74	0xbc871248	-0.01648821
75	0xbcd33e28	-0.025786474
76	0x3d08153d	0.03322338
77	0x3cbd61e6	0.02311797
78	0x3c1d6973	0.009607661
79	0xbc3fa788	-0.011697657
80	0x3cfc7dfe	0.030821797
81	0x3ce31c31	0.027723404
82	0xba267b21	-0.0006350745
83	0x3c87a461	0.016557874
84	0xbcdc23b5	-0.026872495
85	0x3ac21d84	0.0014809822
86	0xbca1d767	-0.019756032
87	0xbb928d58	-0.004472416
88	0xbc8fbb44	-0.01754535
89	0xbc7d142e	-0.015446706
90	0xbc85d28c	-0.016335748
91	0xbccc8774	-0.024966933
92	0xbc9c86c5	-0.019107232
93	0xbc5fa831	-0.01365094
94	0xbd07e3c7	-0.03317621
95	0x3d017370	0.03160423
96	0x3b19ab97	0.0023448223
97	0x3b92b890	0.004477568
98	0xbcd21e86	-0.02564932
99	0xbc510267	-0.01275692

class_classifier.1.weight f4 [100]
0	0x3ed92adb	0.4241551
1	0x3f34486b	0.70423
2	0x3ed2ccd3	0.41171893
3	0x3edf7264	0.4364196
4	0x3eb139f3	0.34614524
5	0x3edcb9b0	0.43110418
6	0x3f17d32b	0.5930659
7	0x3f058a96	0.5216459
8	0x3efbb4bd	0.4916133
9	0x3eaded03	0.33969888
10	0x3f346b85	0.7047656
11	0x3eb11ba7	0.3459141
12	0x3ee74985	0.45173278
13	0x3f3c0ec8	0.73460054
14	0x3ef63f02	0.48094946
15	0x3f0a7163	0.54079264
16	0x3f3e5f74	0.743644
17	0x3ebcdb40	0.36886024
18	0x3ec8fbb6	0.3925454
19	0x3f15821f	0.58401674
20	0x3f09dfb4	0.5385697
21	0x3f063131	0.5241881
22	0x3ef46202	0.47731024
23	0x3ec6362a	0.387132
24	0x3f023901	0.5086823
25	0x3f06ba39	0.52627903
26	0x3f3e4a04	0.7433169
27	0x3f4e5dbf	0.80611795
28	0x3eddf084	0.4334756
29	0x3ef02cda	0.4690922
30	0x3ecbf1ea	0.39833003
31	0x3ef71d47	0.48264524
32	0x3f405ee9	0.7514482
33	0x3ef1e09d	0.4724168
34	0x3f180f65	0.5939849
35	0x3eb39ba5	0.35079685
36	0x3f418be4	0.7560408
37	0x3ec17f8d	0.37792626
38	0x3ee8dda0	0.45481586
39	0x3f29a8de	0.66273296
40	0x3f41d60a	0.7571722
41	0x3f367ce4	0.7128432
42	0x3f24c394	0.6436093
43	0x3ebd127d	0.36928168
44	0x3ef958ca	0.48700553
45	0x3eeddf51	0.4645944
46	0x3f117137	0.5681338
47	0x3f16807b	0.58789796
48	0x3f00ebd7	0.50359863
49	0x3ee73698	0.4515884
50	0x3ec340de	0.38135427
51	0x3f25c373	0.64751357
52	0x3edd9efe	0.43285364
53	0x3ed8d0d8	0.42346835
54	0x3f1f9451	0.6233569
55	0x3ef3f544	0.4764806
56	0x3ec7455b	0.38920102
57	0x3f0cbeba	0.54978526
58	0x3f38ae56	0.72141016
59	0x3eda2e9f	0.42613694
60	0x3f3275f9	0.6971126
61	0x3ebe3452	0.37149292
62	0x3f35f65a	0.7107903
63	0x3ee9914f	0.45618674
64	0x3f1b4942	0.6065866
65	0x3f0b8a9b	0.5450837
66	0x3f1bb513	0.6082317
67	0x3ee8b55b	0.45450863
68	0x3f2a2dcb	0.66476125
69	0x3f428f4f	0.7599992
70	0x3f20492a	0.6261164
71	0x3f1b14e4	0.6057875
72	0x3f46491f	0.77455324
73	0x3f332ee9	0.69993454
74	0x3ee5b5cb	0.4486526
75	0x3ed3469b	0.41264805
76	0x3f1dee60	0.61691856
77	0x3f1a6875	0.6031564
78	0x3f1f2238	0.6216159
79	0x3f44fa5f	0.76944536
80	0x3f1f840f	0.6231088
81	0x3f1f7942	0.622944
82	0x3f1a852c	0.60359454
83	0x3f383793	0.719598
84	0x3f3449dc	0.704252
85	0x3f1f410b	0.6220862
86	0x3eb0eecc	0.34557188
87	0x3f454c5b	0.77069634
88	0x3ece34ad	0.40274563
89	0x3f160510	0.58601475
90	0x3eb423f2	0.35183674
91	0x3f52a117	0.82277054
92	0x3f00a1ef	0.5024709
93	0x3eff284d	0.49835435
94	0x3f005aaa	0.5013834
95	0x3f1a80f9	0.60353047
96	0x3f07a61d	0.52987844
97	0x3ea93dcf	0.3305497
98	0x3f18ceae	0.5969037
99	0x3ebda8d2	0.37042862

class_classifier.1.bias f4 [100]
0	0xbc12aa59	-0.008951747
1	0xbe1840ac	-0.1486842
2	0xbe19b085	-0.15008743
3	0xbe312198	-0.17297971
4	0xbdc98a21	-0.09840799
5	0xbdadcbce	-0.08486138
6	0xbdf29a00	-0.118457794
7	0xbdfa01ea	-0.12207396
8	0xbd8e4897	-0.06947439
9	0xbdec4eec	-0.11538491
10	0xbd40a806	-0.04703524
11	0xbe103f3c	-0.14086622
12	0xbd755441	-0.059894804
13	0xbe1c0be4	-0.15238911
14	0xbd9f33dc	-0.07773563
15	0xbdb25878	-0.0870828
16	0xbe53be08	-0.2067796
17	0xbd9e4ebd	-0.07729862
18	0xbcacfda3	-0.021117037
19	0xbe274842	-0.16336158
20	0xbe33639c	-0.17518467
21	0xbd98bf9d	-0.07458422
22	0xbdee25e4	-0.11628321
23	0xbe257c81	-0.16160776
24	0xbd8588f5	-0.06520263
25	0xbddbe234	-0.10736504
26	0xbe8595d1	-0.26090863
27	0xbea2d66f	-0.31804225
28	0xbde2f107	-0.110811286
29	0xbd6d1957	-0.057885494
30	0xbde0b29c	-0.10971567
31	0xbe1b9cd9	-0.15196551
32	0xbe913253	-0.28358707
33	0x3d65be1c	0.056089506
34	0xbd507f5a	-0.050902702
35	0xbe40b821	-0.1882024
36	0xbe30dbad	-0.172713
37	0xbcae7410	-0.021295577
38	0xbd85f77e	-0.06541346
39	0xbe09c4b7	-0.13453947
40	0xbea2b9dc	-0.31782424
41	0xbdb8c612	-0.09022154
42	0xbd8d8b88	-0.06911379
43	0xbe19d806	-0.15023813
44	0xbd9c9733	-0.076460265
45	0xbe246afd	-0.16056438
46	0x3bc384f6	0.005966778
47	0xbe337bdd	-0.17527719
48	0xbe04f71a	-0.12984887
49	0xbdb8e050	-0.09027159
50	0xbcbab756	-0.0227925
51	0xbe369880	-0.17831612
52	0xbbe53d28	-0.006995816
53	0xbe24f70c	-0.16109866
54	0xbdf0e09e	-0.11761592
55	0xbdb977ef	-0.09056079
56	0xbd0b2f5e	-0.03398072
57	0xbe047f15	-0.12939103
58	0xbe212a6b	-0.15738837
59	0xbe05727c	-0.13031954
60	0x3c700d94	0.014651675
61	0xbd88619a	-0.06659241
62	0xbdcf7ca2	-0.10131194
63	0xbe212aae	-0.15738937
64	0xbdb7984d	-0.08964596
65	0xbdfadd95	-0.12249295
66	0xbdd1fd1f	-0.10253357
67	0x3d0689c6	0.032846235
68	0xbca98bc0	-0.02069652
69	0xbe3182b7	-0.1733502
70	0xbe29263a	-0.16518489
71	0xbd4b4b29	-0.049632225
72	0xbe858491	-0.26077703
73	0xbe3e82ad	-0.18604536
74	0xbd08fc76	-0.03344389
75	0xbca04baa	-0.01956733
76	0xbdf31b2a	-0.118704155
77	0xbd20ef02	-0.039290436
78	0xbe5d0e42	-0.2158747
79	0xbe3a5344	-0.18195826
80	0xbe08ab83	-0.13346677
81	0xbc72ab43	-0.01481134
82	0xbe289f85	-0.16467102
83	0xbe5441d6	-0.2072824
84	0xbe10103d	-0.14068694
85	0xbd86b20a	-0.06576927
86	0xbd3fa0cc	-0.046784207
87	0xbe1c891f	-0.15286683
88	0xbdf9455f	-0.121714346
89	0xbd1704fb	-0.036869984
90	0xbdbf70c3	-0.093476795
91	0xbde07153	-0.10959115
92	0xbd5caa3c	-0.053873286
93	0xbe1526cf	-0.14565586
94	0xbdeb6523	-0.114939
95	0xbe3b96a2	-0.1831918
96	0xbd23eee8	-0.04002276
97	0xbdbce7ff	-0.09223937
98	0xbdea7564	-0.11448172
99	0xbdbe29f7	-0.09285348

class_classifier.1.running_mean f4 [100]
0	0xbeb0ae9a	-0.3450821
1	0xbf2c6f4a	-0.67357314
2	0xbf77651a	-0.96638644
3	0xbf970e19	-1.1801177
4	0xbf4ef98b	-0.8084952
5	0xbdef1260	-0.11673427
6	0xbf35f024	-0.7106955
7	0xbf6ba3a9	-0.920466
8	0xbe9b6bc0	-0.30355644
9	0xbf44ab17	-0.7682356
10	0xbea609dd	-0.324294
11	0xbf4fa1b5	-0.8110612
12	0xbf47d8a9	-0.7806497
13	0xbf0b076c	-0.543082
14	0xbefb7d04	-0.49118817
15	0xbed6051d	-0.41800776
16	0xbf443211	-0.76638895
17	0xbf5f5750	-0.87242603
18	0xbeaffda1	-0.3437319
19	0xbf4d4d27	-0.8019585
20	0xbf0bef51	-0.5466204
21	0xbe92ac83	-0.2864724
22	0xbf806c69	-1.0033084
23	0xbf9e7dcf	-1.2382144
24	0xbee2b77a	-0.44280607
25	0xbf45e0a2	-0.7729589
26	0xbf2ace80	-0.66721344
27	0xbf86787b	-1.0505518
28	0xbf3e1339	-0.7424808
29	0xbeea98c5	-0.4581968
30	0xbf238876	-0.638801
31	0xbf2717b1	-0.65270525
32	0xbf54241c	-0.828676
33	0xbe13e47b	-0.14442627
34	0xbf151479	-0.58234364
35	0xbf840b55	-1.0315958
36	0xbf3beae8	-0.73405313
37	0xbe9d67db	-0.30743298
38	0xbf2763a6	-0.65386426
39	0xbf65a4e7	-0.89704746
40	0xbf2187b7	-0.6309771
41	0xbede2965	-0.43390957
42	0xbf326ee1	-0.6970044
43	0xbf5d5221	-0.86453444
44	0xbf23ee5b	-0.64035577
45	0xbf55d28f	-0.8352441
46	0x3d1450ff	0.036210056
47	0xbf6c11d0	-0.9221468
48	0xbf0a2bed	-0.53973275
49	0xbf48e611	-0.78476053
50	0xbec9fdc8	-0.39451432
51	0xbf1ac3ad	-0.6045483
52	0xbf177ca4	-0.5917456
53	0xbf87f45f	-1.0621451
54	0xbf1ff017	-0.62475723
55	0xbf2aa813	-0.6666271
56	0xbeb63b8e	-0.35592312
57	0xbf61b80e	-0.8817147
58	0xbf0f3668	-0.5594239
59	0xbeefc092	-0.46826607
60	0xbea60582	-0.32426077
61	0xbea2b586	-0.31779116
62	0xbf42df16	-0.7612165
63	0xbf4ff130	-0.812274
64	0xbf24e308	-0.6440892
65	0xbf643f6c	-0.89159274
66	0xbeb8888e	-0.36041683
67	0xbed4f276	-0.41591233
68	0xbf092228	-0.53567743
69	0xbf520219	-0.8203445
70	0xbf4c2b09	-0.79753166
71	0xbeed0875	-0.46295515
72	0xbeff9102	-0.4991532
73	0xbf1eb7a5	-0.6199897
74	0xbf3198bd	-0.69373685
75	0xbedad74a	-0.42742378
76	0xbf179281	-0.5920792
77	0xbedc2bbd	-0.4300212
78	0xbf4f0b61	-0.8087674
79	0xbef00fcf	-0.4688706
80	0xbee753ad	-0.45181027
81	0xbf0851c2	-0.5324975
82	0xbf6a927d	-0.91629773
83	0xbf526da4	-0.8219855
84	0xbee52630	-0.44755697
85	0xbe9c499e	-0.30524915
86	0xbe7d1648	-0.24715531
87	0xbf0a0a8e	-0.53922355
88	0xbf4278be	-0.7596549
89	0xbefe2a93	-0.49641857
90	0xbf4d7abc	-0.802654
91	0xbf0d28d4	-0.55140424
92	0xbf32f442	-0.6990396
93	0xbea75f7b	-0.32690033
94	0xbee955f8	-0.455734
95	0xbeeccbf8	-0.46249366
96	0xbe7a184d	-0.24423333
97	0xbeeab2df	-0.45839593
98	0xbf240d08	-0.64082384
99	0xbf400dd3	-0.75021094

class_classifier.1.running_var f4 [100]
0	0x402db5e9	2.714228
1	0x401c7953	2.444905
2	0x40153dc3	2.3318946
3	0x405d7311	3.460148
4	0x4044b6e9	3.073664
5	0x40011024	2.0166101
6	0x402f0948	2.7349415
7	0x401d1274	2.4542513
8	0x3ffc782e	1.9724176
9	0x401d35b0	2.4564018
10	0x400b598d	2.1773407
11	0x401b7278	2.4288616
12	0x4038203a	2.876967
13	0x400d8109	2.2110007
14	0x4022a5cb	2.5413692
15	0x3ff85726	1.9401596
16	0x40498430	3.148693
17	0x401ecd2e	2.4812732
18	0x401a8a57	2.4146936
19	0x40161b3c	2.3454123
20	0x40162eee	2.3466144
21	0x3feaf552	1.8356116
22	0x401bba6e	2.4332538
23	0x401d536e	2.4582171
24	0x4002455d	2.0354836
25	0x402dbc5a	2.714621
26	0x40050436	2.078382
27	0x4027e31a	2.6232362
28	0x4023b348	2.5578175
29	0x40374ffa	2.8642564
30	0x400f7300	2.241394
31	0x400c7490	2.1946144
32	0x3ff78610	1.9337788
33	0x401e00c7	2.4687974
34	0x40196fb3	2.3974426
35	0x4021d984	2.528901
36	0x40288bfc	2.633544
37	0x400ab9b3	2.1675842
38	0x4024704f	2.5693548
39	0x402749bd	2.6138756
40	0x3ffbeac7	1.9681023
41	0x4005bdb6	2.089704
42	0x40299fb2	2.650372
43	0x4016f604	2.3587656
44	0x401eb997	2.4800775
45	0x40179258	2.368307
46	0x4017a7b8	2.3696117
47	0x4021c26b	2.5274913
48	0x402085ba	2.508162
49	0x401af0d8	2.42095
50	0x400ac4db	2.168265
51	0x4012a885	2.2915356
52	0x400ac62e	2.168346
53	0x402f7346	2.7414107
54	0x40110580	2.2659607
55	0x401e812e	2.4766345
56	0x4014a203	2.3223884
57	0x40141ab0	2.3141289
58	0x3feb8089	1.8398601
59	0x3fe44ff2	1.7836897
60	0x400bc1a8	2.1836948
61	0x402a0654	2.6566362
62	0x40176abc	2.3658895
63	0x4009cf31	2.153271
64	0x400e8c5e	2.2273173
65	0x40137200	2.303833
66	0x3ff5b49c	1.9195743
67	0x4021bdc4	2.5272074
68	0x401bf0ac	2.4365644
69	0x401d4f48	2.457964
70	0x40292251	2.6427195
71	0x40121d3a	2.2830338
72	0x3fed4ddb	1.8539385
73	0x403cdb3e	2.9508815
74	0x40235b61	2.5524523
75	0x4007b587	2.1204545
76	0x400f5ef5	2.2401707
77	0x400f7e9f	2.2421033
78	0x402f4c71	2.7390406
79	0x3fe6a7e3	1.8019985
80	0x3ffa1d6a	1.9540226
81	0x4015c3cd	2.3400757
82	0x4015afa7	2.338846
83	0x4012dbd9	2.2946684
84	0x3fffcfe3	1.9985317
85	0x400de44a	2.2170587
86	0x4027c865	2.621606
87	0x403be83e	2.93605
88	0x40196501	2.3967898
89	0x400a1339	2.1574233
90	0x402315f6	2.5482154
91	0x40143c82	2.316193
92	0x40182beb	2.3776805
93	0x40045eef	2.0682943
94	0x40167315	2.350774
95	0x40004276	2.0040565
96	0x40136388	2.30295
97	0x4002649e	2.0373912
98	0x40112b7a	2.2682786
99	0x4014aa8b	2.322909

class_classifier.4.weight f4 [100, 100]
0	0xbea3669e	-0.31914228
1	0x3c8c7bba	0.017148841
2	0x3d33f999	0.043939207
3	0x3c9a2357	0.01881568
4	0x3db462e3	0.08807924
5	0xbeacc046	-0.33740443
6	0x3d124380	0.035708904
7	0xbec368b3	-0.38165817
8	0xbe0cecd9	-0.13762225
9	0xbc22e2a0	-0.009941727
10	0xbda8f209	-0.082492895
11	0xbe9c93ea	-0.305816
12	0x3c844f3b	0.016151061
13	0x3d74d5a8	0.05977407
14	0x3e0c81a7	0.13721333
15	0xbd1a1be7	-0.037624266
16	0xbcd49223	-0.02594859
17	0x3d1610d5	0.036637146
18	0x3dfa5574	0.1222333
19	0xbdf7a1b1	-0.12091387
20	0xbe50a23d	-0.20374389
21	0xbe056b80	-0.13029289
22	0xbe0356a8	-0.12826025
23	0xbd0f564a	-0.0349944
24	0xbc5cbd4c	-0.013472866
25	0x3e073016	0.13201937
26	0x3c8b2d70	0.01698944
27	0x3dc71942	0.097216144
28	0x3de65afa	0.11247821
29	0xbd4d194c	-0.050072953
30	0x3ca9b8c4	0.020717986
31	0xbe10b9d2	-0.14133385
32	0xbd59c6c2	-0.053168066
33	0xbdc2539f	-0.09488606
34	0xbe02f749	-0.12789644
35	0xbf2a26f5	-0.66465694
36	0x3cd3f875	0.02587531
37	0xbc5bca85	-0.013414984
38	0xbd89b1b0	-0.06723344
39	0xbd8a7c64	-0.06762007
40	0xbdf78251	-0.12085403
41	0xbd90d5b9	-0.07072014
42	0x3e0a9106	0.13531885
43	0xbe81c48a	-0.2534526
44	0x3c79bc9b	0.015242721
45	0xbdc26722	-0.09492327
46	0x3d872cd2	0.06600346
47	0x3e07f863	0.13278346
48	0xbe359718	-0.17733419
49	0xbce63331	-0.028100582
50	0x3de0f728	0.10984641
51	0xbd95993a	-0.07304616
52	0x3bdd3794	0.00675101
53	0xbb6918e1	-0.0035567807
54	0xbde47c48	-0.11156517
55	0x3cc98377	0.02459882
56	0x3ded5eea	0.11590369
57	0xbe0120aa	-0.12610117
58	0xbcb34ea9	-0.021888094
59	0xbd0130b5	-0.03154059
60	0xbcd80089	-0.026367443
61	0x3e129f42	0.14318565
62	0x3bc559e5	0.006022679
63	0xbeb22253	-0.34791812
64	0xbd50f578	-0.051015347
65	0x3d16254f	0.036656674
66	0x3d71fca2	0.05907882
67	0xbe823c7f	-0.2543678
68	0x3dbeedf1	0.093227275
69	0x3cab06cd	0.020877266
70	0xbe7fbbee	-0.24974033
71	0xbdadeb54	-0.08492151
72	0x3d4d8322	0.050173886
73	0x3d21e2d2	0.039522953
74	0xbd89cbb8	-0.067283094
75	0x3e491a13	0.19638853
76	0x3db1aca1	0.086755045
77	0x3da0cc19	0.078514285
78	0xbd90a184	-0.07062057
79	0xbe3d4b40	-0.18485737
80	0x3de91a18	0.1138193
81	0xbe693eb8	-0.22777832
82	0x3a49e83f	0.0007702149
83	0x3da73b26	0.081655785
84	0xbd2b62a6	-0.041842125
85	0x3cc62938	0.024189577
86	0x3e0a6ae2	0.13517335
87	0xbe9071e3	-0.2821189
88	0x3e3ca7a5	0.18423326
89	0xbf15e028	-0.5854516
90	0xbded8fb7	-0.11599677
91	0xbd99bbe9	-0.07506544
92	0x3d5a91e4	0.05336179
93	0xbe00791c	-0.125462
94	0x3bb79b7e	0.005603253
95	0x3d443bb0	0.047908485
96	0xbd86addd	-0.065761305
97	0xbd9a9da1	-0.075495966
98	0xbf0ccd59	-0.55000836
99	0xbdbe5229	-0.092930146
100	0x3dba3119	0.09091396
101	0x3cf2a4b9	0.029619562
102	0x3d772b83	0.06034423
103	0x3d28c2b9	0.041201327
104	0x3da1a796	0.078932926
105	0x3d2d84dc	0.042363033
106	0xbde6761e	-0.11252998
107	0x3cb9f116	0.022697967
108	0x3b827b11	0.003981956
109	0x3c9ed9b4	0.019390918
110	0xbded002e	-0.115723
111	0x3d9244b1	0.07142008
112	0xbc92c161	-0.017914476
113	0xbdba829c	-0.09106943
114	0xbdcf5b7d	-0.10124872
115	0xbddbf342	-0.10739757
116	0x3d5c647c	0.053806767
117	0x3e19d664	0.1502319
118	0xbdae8e8f	-0.08523285
119	0xbcd76143	-0.026291495
120	0xbc29085b	-0.0103169335
121	0xbcbffd5d	-0.023436243
122	0xba25db0e	-0.0006326892
123	0x3e2ebc43	0.17064004
124	0x3d104fcc	0.03523235
125	0xbece2393	-0.40261516
126	0x3ca86244	0.02055467
127	0xbd4192c6	-0.047259115
128	0x3cc4e73b	0.02403604
129	0xbdd04e94	-0.101712376
130	0xbde40e5f	-0.111355536
131	0xbd25b7b3	-0.040458392
132	0x3e19cca3	0.15019469
133	0xbdb02230	-0.08600271
134	0x3dabf2da	0.0839593
135	0x3e7d00fb	0.24707405
136	0x3afbdb81	0.0019215198
137	0xbef3131d	-0.4747552
138	0xbdecd15e	-0.11563371
139	0x3d1b4c8c	0.037914798
140	0x3d323d5a	0.04351554
141	0xbec19cda	-0.3781498
142	0xbe2ae822	-0.16690114
143	0x3c884e42	0.016638879
144	0xbdd307ac	-0.10304198
145	0xbca6bfae	-0.020355072
146	0xbcf25f60	-0.029586494
147	0xbe12c5ee	-0.14333317
148	0xbe0dd201	-0.13849641
149	0x3e2df2cb	0.1698715
150	0xbf2d9c90	-0.6781702
151	0x3dad5c06	0.08464818
152	0xbea227df	-0.31671044
153	0x3d783933	0.060601424
154	0xbdaa68e0	-0.083207846
155	0xbe0b6724	-0.13613564
156	0xbe08f652	-0.13375214
157	0xbdcb2bd1	-0.09920467
158	0xbe0d87d7	-0.1382135
159	0xbe8086f8	-0.25102973
160	0xbd712e0b	-0.0588818
161	0xbd3ca28e	-0.04605346
162	0x3d8dc03d	0.06921432
163	0x3db2cb97	0.08730238
164	0xbe22aba5	-0.1588579
165	0x3d6bd160	0.057572722
166	0x3ceff5c7	0.029292
167	0x3d9e63be	0.07733868
168	0xbe03cfc5	-0.12872227
169	0xbd317764	-0.04332675
170	0x3dd79127	0.105257325
171	0xbce96216	-0.028489154
172	0x3e2787a7	0.16360341
173	0xbd4fcbec	-0.050731584
174	0x3da5ba54	0.0809218
175	0xbebffd34	-0.37497866
176	0xbe2e7e42	-0.17040351
177	0xbe064cfc	-0.13115305
178	0x3d310e69	0.043226633
179	0x3c9d6b69	0.019216256
180	0xbc26cd2d	-0.010180754
181	0xbcf62183	-0.030045277
182	0xbd4f2218	-0.050569624
183	0xbcaaa8f7	-0.020832522
184	0xbdd2058e	-0.10254966
185	0xbd7ac219	-0.061220262
186	0xbf2dfbd7	-0.679624
187	0x3d37c036	0.04486104
188	0xbec9abf8	-0.39389014
189	0x3deba0c8	0.11505276
190	0xbd3cf350	-0.04613048
191	0xbd3e52c9	-0.04646567
192	0xbcab443f	-0.020906566
193	0x3d96c94a	0.073626116
194	0xbe148348	-0.14503205
195	0x3da5d155	0.080965675
196	0x3c942e46	0.018088471
197	0xbe93d160	-0.28870678
198	0x3e868c8c	0.26279104
199	0xbdd84265	-0.10559539
200	0x3d75196b	0.059838694
201	0xbd9a9f53	-0.0754992
202	0x3c4d571b	0.012532975
203	0xbda81a16	-0.082081005
204	0xbe2e80c8	-0.17041314
205	0x3e2dafa4	0.16961533
206	0xbeb5780d	-0.35443154
207	0x3da98fbb	0.082793675
208	0xbdad426b	-0.08459934
209	0xbe0571b4	-0.13031656
210	0xbd32f2db	-0.043688636
211	0xbcda80bd	-0.026672715
212	0x3d0fd2cf	0.035113152
213	0x3d23df3e	0.040007822
214	0xbe6e9961	-0.23300697
215	0xbcaeab97	-0.021322055
216	0x3c5e303b	0.013561304
217	0xbd6f3a5a	-0.058405258
218	0x3e1633de	0.14668223
219	0xbea86353	-0.32888278
220	0xbde6ea73	-0.112751864
221	0xbc9db8df	-0.019253192
222	0x3c937bac	0.018003307
223	0xbe547921	-0.20749332
224	0xbd58b1a3	-0.052903783
225	0xbf05eb12	-0.52311814
226	0xbce28cbf	-0.027655004
227	0xbe836522	-0.25663096
228	0xbe47de44	-0.19518381
229	0xbd457a8b	-0.04821257
230	0xbd87d87a	-0.066330865
231	0xbbbe1c6d	-0.0058017285
232	0xbdea5a93	-0.11443057
233	0x3e46d735	0.19418032
234	0xbdb45660	-0.08805537
235	0x3e7d2ee4	0.24724919
236	0x3d2d2ae6	0.04227724
237	0x3df46f39	0.119352765
238	0x3d70c024	0.05877699
239	0xbc873b14	-0.016507663
240	0x3cb5f829	0.022213059
241	0x3da4d261	0.08047939
242	0xbf0846af	-0.53232855
243	0x3d11cdfa	0.035596825
244	0xbe21a244	-0.15784556
245	0x3dc389ca	0.095477656
246	0x3dc0db03	0.09416773
247	0xbe8dedd2	-0.27720505
248	0xbdcfb88d	-0.10142622
249	0xbef61980	-0.4806633
250	0x3dd97014	0.1061708
251	0x3c3969d2	0.011316733
252	0xbe895118	-0.26819682
253	0xbe1a62c2	-0.15076736
254	0x3d8f5c20	0.06999993
255	0xbd47a541	-0.048741583
