hw3/models/svhn.pth (torch_old, 836884 bytes, 34 tensors)

feature.0.weight f4 [32, 3, 5, 5]
000000 41 7f bc 3d d8 f3 03 3e 18 79 62 3d 02 0a 4e be
       0.09203959 0.12885988 0.055291265 -0.20121005
000010 c3 6d 20 be 31 b8 e3 bd b7 94 66 3e ef 07 39 3e
       -0.15666871 -0.11119116 0.22517668 0.18069433
000020 bd d0 f9 3c 63 51 38 be 9e c3 17 be 4b 18 bd 3d
       0.030495042 -0.17999797 -0.14820716 0.09233149
000030 08 18 63 3e 03 84 20 3a 03 4b cf bd aa 4c f4 bc
       0.22177136 0.0006123187 -0.10121729 -0.029821713
000040 d9 ea 03 be ac c6 5c 3e 4c 8e 98 3d 1d 0d aa bd
       -0.12882556 0.21560162 0.07449016 -0.083032824
000050 14 a1 32 be 33 31 78 be a5 dd 74 3c 52 bb 10 3e
       -0.17444259 -0.24237518 0.014945422 0.14133957
000060 2c cd 04 3d 48 90 f6 bc 96 41 69 3e 69 d5 0c 3c
       0.03242223 -0.030098096 0.22778925 0.008595803
000070 7b bc 4d be 42 85 94 be 0b 3d d6 bd f8 02 40 3e
       -0.20091431 -0.29007918 -0.10460862 0.18751132
000080 9d 66 ef 3d 85 9c f9 bc c7 da 48 be 77 b1 b6 bd
       0.11689494 -0.030470142 -0.19614707 -0.089205675
000090 f6 d8 c8 3d 67 4c 5c 3e 76 6b 23 3b 8d 29 49 bd
       0.09807007 0.2151352 0.0024935878 -0.04911189
0000a0 22 c9 6e 3c 4e 40 cf bd a1 42 43 3e b9 81 ef 3d
       0.014574321 -0.10119687 0.19068386 0.116946645
0000b0 64 d9 86 3d 82 d5 38 be 3d 41 4b be 04 c8 a7 3d
       0.06584433 -0.18050197 -0.19849105 0.08192447
0000c0 56 09 d9 3d 67 e0 e3 bb db 24 33 3e b0 36 10 3e
       0.10597484 -0.006954241 0.17494528 0.14083362
0000d0 dc bd 53 3d 96 cc 0b be 94 41 1d be f5 85 d8 bd
       0.051694736 -0.13652262 -0.15357047 -0.10572425
0000e0 20 fc 42 3e f2 95 8c bb cb 3b e3 bc 6b 58 57 bc
       0.1904149 -0.004290336 -0.027738472 -0.013143639
0000f0 8a c9 dd bd 5a cb b1 bd a8 a9 82 3d 3b 9f cb 3d
       -0.10829456 -0.08681364 0.063800156 0.0994248
000100 fc e0 1f be 71 a8 a1 bd bc da 2f bd 19 a4 39 3e
       -0.15613168 -0.07893456 -0.04293321 0.18129005
000110 8f d2 c8 3c 99 d5 93 3d 94 99 1b bc bf f5 80 be
       0.024514465 0.07218475 -0.009497065 -0.2518749
000120 7a 10 e4 ba 79 46 b0 3d 3b 2b 02 3e 55 d4 88 3d
       -0.001739993 0.086071916 0.12711804 0.06681124
000130 54 2d 08 3e c6 7d 86 3e 7c 2b 7e 3e 12 82 87 3e
       0.13298541 0.26267833 0.24821275 0.26466423
000140 85 32 ab 3d 0f 47 64 3c d5 a9 11 3e 46 b5 62 3e
       0.08359245 0.013932957 0.14224942 0.22139463
000150 ce d4 7a 3d b8 be 54 bd fa ce 91 3c ff 78 53 3b
       0.061238103 -0.051939696 0.01779889 0.0032268164
000160 22 e3 db bd af a8 9b 3c 2a 6c 1c be b0 c3 0e be
       -0.107366815 0.019001333 -0.15275636 -0.13941836
000170 32 8a 24 be 34 5a b6 bd 1a d5 0d be f2 a5 1d bc
       -0.16068342 -0.08903924 -0.13850823 -0.009622084
000180 d6 b0 ff bd 5a 43 6b be 2c 23 91 be 1a 30 13 be
       -0.12484901 -0.22974911 -0.28347147 -0.14373818
000190 fd de 4b bd 33 fa e2 3c 8a d3 3b 3e d3 56 e7 3e
       -0.049773205 0.027707195 0.18342414 0.4518343
0001a0 91 bd dc 3e b7 52 47 bd 8c 57 2c 3e 49 bd 52 3e
       0.43113378 -0.048662867 0.16830271 0.20580019
0001b0 00 12 25 3e 87 b0 86 3e 85 0b 77 bd 93 db 1f be
       0.16120148 0.26306555 -0.06031372 -0.15611105
0001c0 67 52 ac bd be 27 17 bd 74 cd 8c 3d 35 23 ab bd
       -0.084141545 -0.036903135 0.068751246 -0.083563246
0001d0 c0 e4 70 be 19 53 50 be 58 af aa bd ab 48 b6 3c
       -0.23524761 -0.20344199 -0.083342254 0.022251448
0001e0 6c a8 10 be fc 15 77 be 12 48 c2 be c5 13 9d be
       -0.14126748 -0.2412948 -0.3794561 -0.30679145
0001f0 44 78 b2 bc 9a 72 88 3c c0 2f bf 3d ea 81 3c 3e
       -0.021785863 0.016656209 0.093352795 0.18408933
000200 86 fc 60 3d 95 1b 0a bd 2d 32 0c be 99 1f 0c 3e
       0.054928325 -0.03371771 -0.13691016 0.13683929
000210 3b 20 84 3d cc e9 ed 3d 63 1d 3f 3d 0b c0 8e bd
       0.0645146 0.11616859 0.046658885 -0.06970223
000220 f2 db 10 3c 2e 8c 5c bd 65 3b 4d be 76 55 72 bd
       0.008841502 -0.053844623 -0.20042188 -0.059163533
000230 02 9f 87 3d 83 80 a7 bc 40 77 89 bc 6d 01 26 be
       0.06622125 -0.020447021 -0.016780496 -0.16211481
000240 02 e6 66 3d 58 c3 01 be fe d9 93 3c 95 22 b7 bd
       0.056371696 -0.12672174 0.018048283 -0.08942143
000250 0f 54 75 bc 3c 9c 0c 3d 24 59 6c bd b0 df 2e bc
       -0.014973654 0.034328684 -0.0577022 -0.010673448
000260 6d 23 05 3e a0 d2 21 3d 2a 16 39 be 41 6b dc bc
       0.13001795 0.03950751 -0.18074861 -0.026906611
000270 31 d7 89 bc ed 49 01 3e 69 02 b8 3d e5 d6 44 be
       -0.016826244 0.12625857 0.08984835 -0.19222601
000280 7c 35 d5 bc 57 95 00 be 65 ad 3a 3e 95 7a fb 3d
       -0.02602648 -0.12556969 0.18230207 0.1227924
000290 a7 4b 60 be 66 63 74 3d a9 29 19 be 4c 73 a6 3d
       -0.21903859 0.059665106 -0.14957298 0.0812746
0002a0 99 22 8a 3e 55 a2 88 bd a8 00 6b bd 71 a8 13 be
       0.2697952 -0.066715874 -0.057373673 -0.14419724
0002b0 d1 51 06 3e 87 f1 26 3e b2 52 0b be 67 63 75 bd
       0.13117148 0.16303073 -0.13605765 -0.05990925
0002c0 95 e6 57 bd 34 e7 53 3e 83 46 1f 3e 61 86 da bd
       -0.052710135 0.20693666 0.15554242 -0.10670162
0002d0 a1 93 05 be 62 13 52 bd 6b a3 e6 3d 0b c2 47 3e
       -0.13044597 -0.051288016 0.11261638 0.19507615
0002e0 9b 3a 1d be a7 37 0b be 85 49 35 be 47 87 44 3e
       -0.15354387 -0.13595448 -0.17703827 0.19192229
0002f0 2e 81 63 3e 9a 4e 1f be 3a a7 0c ba a4 28 99 bd
       0.22217247 -0.15557328 -0.0005365495 -0.07478455
000300 f3 8f bb 3d ff d1 0b 3e bd f3 32 be eb f4 2f 39
       0.091583155 0.13654326 -0.17475791 0.0001678054
000310 6c a7 33 be ac 7a 49 3d 76 25 3c 3e c3 c0 6e bc
       -0.17544335 0.049189255 0.18373665 -0.014572325
000320 2a d4 22 bd 76 af 45 3d e0 23 46 3e b0 cb a1 3d
       -0.039753117 0.048263036 0.19349623 0.079001784
000330 53 e1 5d be 59 96 98 bd 5e cc c3 bd d0 75 44 3e
       -0.21667986 -0.074505515 -0.09560464 0.19185567
000340 4e dc b7 3c 0d 9e 4a be 67 0f 6e bd 5f ba 14 be
       0.022443917 -0.19786854 -0.058120158 -0.1452422
000350 c4 25 b9 3d 62 c6 2e 3d 71 d2 be bd 83 e8 b2 bd
       0.09040406 0.04266966 -0.09317482 -0.08735754
000360 c4 e1 b4 bc 6b be 4c 3e 68 ad 89 3e b8 15 e6 bd
       -0.02208031 0.19994514 0.2689011 -0.11234611
000370 fa 39 23 3c c4 11 16 be 7d 4d cc 3c c9 bc 6b 3e
       0.009962553 -0.14655215 0.024939293 0.23021235
000380 95 14 36 be b0 81 15 be 81 ad 44 be 44 9a 04 bd
       -0.17781289 -0.14600253 -0.19206811 -0.03237368
000390 eb ff 19 3e c3 b5 15 3e 16 0d 49 bd 4f c1 a9 bd
       0.15039031 0.14620118 -0.049084745 -0.08288824
0003a0 6d 9d e7 3d a5 70 2f 3e 11 01 c3 bd bc 6b 93 bc
       0.113093235 0.17132814 -0.09521688 -0.017995708
0003b0 66 bc 07 3e cc 08 45 3e 29 14 08 3d bd bb 08 be
       0.13255462 0.19241637 0.03322235 -0.13352866
0003c0 af 29 23 3e ac 87 01 3e a9 df ca bd cc 58 0c be
       0.1593387 0.12649411 -0.09905941 -0.13705748
0003d0 0e 34 f2 3c 80 d3 a9 3d e2 38 42 3d ff 0e 4a be
       0.029565837 0.082922935 0.04741753 -0.19732283
0003e0 60 87 73 be c1 8a 01 3e 69 0d 9b be b1 58 4c be
       -0.2378211 0.12650587 -0.3028367 -0.19955708
0003f0 1a 52 10 bd 58 1a 63 3e 7a 4c e8 3d 1f b9 e6 bd
       -0.03523455 0.22178018 0.11342712 -0.11265778

feature.0.bias f4 [32]
000000 41 c0 02 3e 8e 87 cc 3c 44 06 e0 bd 1a 5f 19 3e
       0.12768652 0.024966981 -0.10938695 0.14977685
000010 d5 d1 ca bc ca 54 6b bd 62 3e 34 bc 57 ee 11 3e
       -0.024758259 -0.057453908 -0.011001201 0.14251076
000020 81 c6 77 3d f1 2f 9c bd 5d bd d7 3d d7 5f 95 3d
       0.060492042 -0.076263316 0.10534165 0.072936706
000030 10 14 6e 3c 99 d6 3c 3d 00 a3 77 be 7c 66 bd bc
       0.01453115 0.046103094 -0.24183273 -0.023120157
000040 47 14 ac 3c 22 89 fc 3c 7e 69 03 be 22 88 89 3d
       0.021005763 0.030827109 -0.12833211 0.067154184
000050 a2 26 d6 3c ee f5 b4 3b 70 63 a1 3c 0a 08 b1 3d
       0.026141468 0.005522481 0.019700736 0.086441115
000060 aa 70 26 be 55 4c 81 bd 0f 98 0a 3c 86 17 9e bd
       -0.16253915 -0.06313387 0.008459105 -0.077193305
000070 b6 73 9d 3d 1c ab d2 ba 02 3b 8f 3d 64 3f 57 bd
       0.07688086 -0.0016072723 0.06993677 -0.05255069

feature.1.weight f4 [32]
000000 c8 13 4a 3f 68 89 11 3f 91 43 1c 3f e2 ad 25 3f
       0.78936434 0.5685029 0.610406 0.6471845
000010 35 41 c5 3e 06 3c da 3e 1c a4 ce 3e 16 39 a7 3e
       0.38526312 0.4262392 0.4035958 0.3266074
000020 46 5a 28 3f 8c 49 ef 3e fc 4f ec 3e 14 8f 57 3f
       0.65762746 0.467358 0.46154773 0.84202695
000030 5a bc cf 3e a0 84 2e 3f 7c f5 0d 3f a1 a8 c6 3e
       0.40573388 0.6817112 0.55452704 0.3880053
000040 dc 81 3d bc 56 27 e6 3e 5a 8e 10 3f bc 41 17 3f
       -0.011566605 0.44951886 0.5646721 0.5908468
000050 91 a3 53 3f f0 d0 8a 3e 10 d0 00 3f b8 8a e0 3e
       0.8267146 0.27112532 0.5031748 0.43855834
000060 e9 d1 0d 3f 51 8e 42 3f 32 fc f4 3e be 8d 55 3f
       0.5539842 0.7599841 0.4784866 0.83419406
000070 f4 01 4d 3e 75 17 82 3c 20 4c 4e 3e 41 d3 25 3f
       0.20020276 0.015880326 0.20146227 0.6477547

feature.1.bias f4 [32]
000000 c8 f2 be bd fa 00 e6 be f2 76 17 bd 9d 14 03 be
       -0.093236506 -0.4492262 -0.03697867 -0.12800832
000010 dc 99 a5 bd 97 5b ca bd 7c 8a 70 be 04 f6 44 bb
       -0.08085987 -0.098807506 -0.23490328 -0.0030053863
000020 01 62 b2 be 56 6f e6 3b b9 f6 5a bd 63 df 22 3c
       -0.34840396 0.0070323152 -0.05345795 0.009940955
000030 3a f3 72 3d 3d 60 fb bc 23 bc 16 3d 8a 22 ae be
       0.05931399 -0.030685538 0.036800515 -0.34010726
000040 b8 84 6e bd 71 7e dd be cd 06 8a bc 96 f6 8b bd
       -0.05823204 -0.4326053 -0.016848946 -0.06834142
000050 3a 33 f1 bd 76 9e 40 be 32 c1 b7 bc 63 62 b5 be
       -0.11777349 -0.18810448 -0.02243099 -0.35426626
000060 8e 58 67 bd 9f ed 0c be f8 45 b0 bc 8f 90 d4 bc
       -0.056480937 -0.1376252 -0.021517739 -0.025947837
000070 fa 27 88 be a1 2d 4f bd c4 29 4e be f0 f6 5b bd
       -0.26593 -0.050580624 -0.2013312 -0.053702295

feature.1.running_mean f4 [32]
000000 cc a5 d0 3d 7f cc f1 bd 11 68 e0 bd 8e 42 ea 3d
       0.10187873 -0.11806583 -0.10957349 0.114384755
000010 4f c9 12 bd 73 2b 00 be 3b 89 58 be 67 42 af 3d
       -0.035836514 -0.12516575 -0.211461 0.08557587
000020 42 70 1c 3d 01 1a c1 bd 04 40 dc 3d a5 52 2c 3d
       0.038192995 -0.09428788 0.107543975 0.042071003
000030 aa 40 21 3e 96 dd 8c 3d d2 8e 4a be 5e cb 1d 3c
       0.15747324 0.06878202 -0.19781044 0.009631006
000040 67 9b 82 bf cd 46 52 3d 7d ab e7 bd 9d f6 a9 3d
       -1.0203675 0.051337052 -0.11312006 0.08298991
000050 7f 13 1e 3c 7b 05 af bf db 9f ae 3c 07 1c b6 bb
       0.009648203 -1.3673548 0.02131646 -0.0055575403
000060 f1 fa 16 be 5b 9f 84 bd 2f 41 93 bb 41 f5 9d bd
       -0.14744164 -0.06475707 -0.0044938545 -0.07712794
000070 a4 ca a1 bd 5f 5b f9 be 4e e5 48 3f 40 1c 86 bd
       -0.07899979 -0.48702523 0.7847489 -0.06548357

feature.1.running_var f4 [32]
000000 c4 f3 f2 3c be 27 e9 3d 99 6f 1f 3d 64 cd b1 3c
       0.029657252 0.11384533 0.038924787 0.021704383
000010 d5 55 0e 3e 7d 67 02 3e 0e 04 4b 3d 21 94 81 3d
       0.1389993 0.1273479 0.049564414 0.063270815
000020 aa 9c bd 3d 7a 49 35 3d 12 83 fb 3c be 2a 8d 3d
       0.09258397 0.044259526 0.030702148 0.06892918
000030 f8 51 3a 3e 8c fa 12 3d 8a 58 93 3d 42 d7 cd 3d
       0.18195331 0.03588347 0.07194622 0.10050823
000040 45 42 2c 3e 91 33 c8 3d e5 98 3d 3e f2 2f ca 3d
       0.16822155 0.097754605 0.18515356 0.09872426
000050 98 6e 6e 3c 58 ac d7 3e b9 0e 5c 3d 63 4a 87 3d
       0.014552735 0.42123675 0.053724978 0.06605985
000060 65 22 b6 3c b7 4e f9 3d 78 48 49 3d 51 3c 50 3d
       0.022233197 0.12173217 0.049141377 0.050838772
000070 c7 be 51 3d 84 09 24 3d 70 bb 15 3e 07 98 f4 3c
       0.05120733 0.040048137 0.14622283 0.029857649

feature.4.weight f4 [48, 32, 5, 5]
000000 69 77 f3 bd 43 92 d6 bc 15 d2 21 3b 2c c5 be 3d
       -0.1188801 -0.02619279 0.002469187 0.09314951
000010 7c 26 99 3d b1 0f 13 3c 64 06 e3 3d 0d 83 08 3e
       0.074780434 0.008975909 0.11085203 0.13331242
000020 a0 e3 1e bd 33 60 8a bd 5e eb b3 3c a7 47 48 3e
       -0.0387913 -0.0675663 0.021962818 0.19558583
000030 e4 5c b4 3c 7c 2b 5d be 98 d5 63 be 29 ca 97 3c
       0.02201695 -0.21598619 -0.22249448 0.018529015
000040 32 58 70 bd e7 1e 88 be 91 48 a5 be 8c f3 a5 bd
       -0.05867786 -0.26586077 -0.32281926 -0.081030935
000050 a7 1c 71 bc 9c 3b 8f be f1 9c 3f bd 2b dc 1d 3e
       -0.014716304 -0.27975166 -0.04678053 0.15416019
000060 1b 7e 6c 3e 4e 82 b7 ba 91 81 7d be f4 4d c7 be
       0.2309498 -0.0014000626 -0.24756457 -0.3892666
000070 0d 5e 37 bd e4 64 49 3e 20 3c 7c 3c 5a f1 13 be
       -0.04476743 0.19667393 0.015395194 -0.14447537
000080 fb 31 59 bc 21 ab 4d 3e 49 b5 37 3e 16 49 bf 3d
       -0.013256545 0.20084812 0.17940249 0.09340112
000090 3d 55 2d 3e fd 24 d6 3e 8a db 8d 3e b8 ba 1b be
       0.16927047 0.41825095 0.27706558 -0.15207946
0000a0 48 50 9d 3d 78 22 47 3e ef 61 b6 3d 50 28 03 be
       0.07681328 0.19446743 0.08905398 -0.12808347
0000b0 4b bc 47 3d 17 c3 f8 bd 72 6c d2 bd 9a 14 04 3e
       0.048763555 -0.121465854 -0.102745906 0.12898484
0000c0 c5 c0 25 3e 06 06 cc 3e 7d 88 2d bd 6b 9a 07 3e
       0.16186817 0.39848346 -0.042366493 0.132425
0000d0 2a 34 1a 3e cf 0e 91 3d 5f d9 5e 3c 2c 18 80 3d
       0.15058962 0.07082903 0.01360163 0.062546104
0000e0 74 e8 28 3e 12 aa 0a 3e e9 47 16 3d 15 da 06 3e
       0.16494924 0.13541439 0.036689673 0.13169129
0000f0 8c df 79 3d 60 05 61 3d 21 f7 0d be c4 22 0e be
       0.061004207 0.054936767 -0.13863803 -0.1388045
000100 95 be 06 3e 02 d2 9f bd 3d 9a ff bd 85 d9 9f be
       0.13158639 -0.07803728 -0.124805905 -0.31220642
000110 bf 3a 24 be f4 10 99 bd 28 00 9a be 8e 8a 85 be
       -0.16038035 -0.07473937 -0.30078244 -0.2608227
000120 88 95 da bd 00 48 d7 bb 54 2d d7 bd 08 da 87 3d
       -0.10673052 -0.0065698624 -0.105066925 0.06633383
000130 14 cd aa bc c0 dd 2c 3e bd 52 0e 3e 6e 40 8f bd
       -0.020849742 0.16881466 0.1389875 -0.06994711
000140 fd 48 01 3e 91 c5 eb 3d 84 86 99 3e e8 17 bf 3d
       0.12625499 0.11512292 0.2998544 0.09330732
000150 9f d7 b5 bd 10 ff 45 bd 8e 28 e4 3c 99 fc 33 3e
       -0.08879017 -0.04833895 0.02785137 0.17576827
000160 43 b1 f3 bb a5 a5 7d bd 7f 59 f0 bc dd e5 90 3c
       -0.0074369027 -0.06192555 -0.02933955 0.017687732
000170 6d 64 8e 3c ca 84 3e 3e a6 ca 11 3e 83 97 bc 3c
       0.017381871 0.18605343 0.1423746 0.023021465
000180 d7 36 7a bd 1f a5 a9 bd 19 fe e0 3c e4 30 b4 3d
       -0.061087456 -0.082834475 0.027464913 0.08798388
000190 90 d2 f9 3d e5 63 1d 3e 43 17 e2 3d 62 96 93 be
       0.12198365 0.15370138 0.11039593 -0.2882567
0001a0 09 c5 9f be 12 16 5e 3e f1 12 08 3e 2b 64 e1 3b
       -0.31205013 0.21688107 0.13288476 0.006878396
0001b0 b2 85 d8 be 61 28 86 be 83 43 17 3d f9 49 75 bc
       -0.422895 -0.26202682 0.03692962 -0.01497125
0001c0 00 9e bd bd 7d 2b 5b be b5 da 23 3d 92 e7 f1 bd
       -0.09258652 -0.21403308 0.040003497 -0.11811747
0001d0 4f 6b 9a bc c5 ad 13 3e ce 18 13 3e 02 ea df 3c
       -0.018849997 0.14421757 0.14364931 0.027333263
0001e0 9a ef b7 bd bd 4a 35 3d 32 ab 3a 3e c2 26 4b bd
       -0.08981247 0.04426073 0.18229368 -0.04959751
0001f0 b5 81 0d bf 43 18 de bd cb e2 33 3c 18 6a 91 bd
       -0.5527604 -0.10844471 0.010979365 -0.07100314
000200 ed 00 6b be 6e c8 e8 3c 56 53 09 bc dd 98 b6 3c
       -0.22949572 0.028415885 -0.008381685 0.022289688
000210 8e 42 93 bc ae 6b 28 bc e3 68 40 3e d0 b8 24 3e
       -0.017976072 -0.010279579 0.18790011 0.16086125
000220 5c 04 73 3d 2b 7b 16 bd ff 15 70 3d 5d 14 9a 3d
       0.05933033 -0.036738556 0.058614727 0.07523415
000230 f9 5c eb 3d 3b 72 07 bd 16 7e d7 3d 15 57 94 bd
       0.114923425 -0.033067923 0.10522096 -0.07243172
000240 a1 b2 39 be eb 55 01 be 7e 1c c9 bd 6a af 38 3d
       -0.18134548 -0.12630431 -0.098198876 0.045089163
000250 77 0e 17 3d e3 3f 0b be 0e 96 37 3e fb 54 61 3d
       0.03687903 -0.1359859 0.17928335 0.055012684
000260 22 07 cd bd d1 dc be bc 19 4d 6f bd b9 bc 05 be
       -0.10011126 -0.023298653 -0.058423135 -0.13060273
000270 21 ee 78 be 81 91 9e be 63 b7 fa bc 09 e7 f0 bc
       -0.24309589 -0.30970386 -0.030605024 -0.029407041
000280 c4 5b 12 3d 6f 32 3e bd 32 b1 d3 bd 42 69 74 3e
       0.035732046 -0.046434816 -0.10336532 0.23868278
000290 24 3c a8 3e d6 80 48 bd 81 3a ae bb 2d 1d 58 3b
       0.32858384 -0.048950993 -0.005317033 0.0032976374
0002a0 f0 e8 a1 bd 69 c5 08 bd 80 14 b6 bd 3e ab 37 be
       -0.079057574 -0.03339139 -0.08890629 -0.17936417
0002b0 3b 19 c8 bd c1 de 4c be fb dc 4c 3d ca 82 0e 3e
       -0.09770437 -0.20006849 0.05001543 0.1391708
0002c0 1a e6 20 3e 7c 7e 02 3d 28 79 0b 3e 9d 16 f2 3c
       0.15712777 0.031858906 0.13620436 0.029551798
0002d0 c7 9b 2e be 69 78 e4 bd 97 83 d6 3d b8 33 e3 3d
       -0.17051612 -0.11155779 0.104743175 0.11093849
0002e0 76 7c 3d bd f6 2f 3f be d9 e3 a7 3d f2 15 f9 3d
       -0.046261273 -0.1867064 0.08197755 0.12162389
0002f0 7f fa 21 be ce 85 8e be 7b 35 5b 3d 1e ef ef 3d
       -0.15818213 -0.2783646 0.0535178 0.1171553
000300 3c 2e 28 bc 17 90 43 be b3 ad d8 3d 82 8a c7 3d
       -0.010264929 -0.19097935 0.105800055 0.09743215
000310 76 c8 c9 3c e6 6b 74 be e8 92 57 be 47 e7 7e 3e
       0.02463172 -0.23869285 -0.21052134 0.24892913
000320 e4 be 42 bc 21 c9 66 bc 38 3c 06 3e ac 77 25 bd
       -0.011886332 -0.014086039 0.13108909 -0.04039733
000330 0b 78 68 be 66 c9 3a 3d d2 a7 8e bc f6 16 be 3d
       -0.22702043 0.045602225 -0.017414007 0.09281723
000340 da 05 02 3e a9 99 73 be b2 82 e5 bd c1 35 0e bd
       0.12697545 -0.23789085 -0.11206569 -0.034719232
000350 c1 93 e7 3c f2 97 01 be 7a 0b 87 3c e5 e0 28 be
       0.028268697 -0.12655619 0.016484965 -0.1649204
000360 9b f3 d9 3d dc c9 33 3e b2 43 06 3e 18 6e ab 3d
       0.10642167 0.17557472 0.13111761 0.08370608
000370 35 96 a6 bb 95 c6 f0 3d 9b 8a 82 bd 3e 25 f9 bd
       -0.005083824 0.117566265 -0.06374093 -0.121653065
000380 7b 4f 6d be bf bc 94 bd 37 3b 17 bd c2 78 dc bc
       -0.2317485 -0.07262563 -0.036921706 -0.02691305
000390 62 7f 12 3d 20 bd cb 3e 09 08 26 be 74 0a 41 3e
       0.035766013 0.39792728 -0.16214003 0.18851644
0003a0 1c 88 c7 3e d3 77 82 3e dc 98 d5 3d b8 6a 79 3d
       0.3897103 0.25482044 0.10429546 0.06089279
0003b0 f5 40 15 3e f6 3f 5a 3e f2 a1 33 be 2c 5d 9d be
       0.1457556 0.21313462 -0.17542246 -0.30735147
0003c0 3b 37 09 3e 89 4f 9e 3d fe 63 99 be 11 2c 14 bf
       0.13399975 0.07730014 -0.299591 -0.5787974
0003d0 12 6b 75 be 1f 07 13 3d f6 ca 16 bd 30 2f 6a be
       -0.23966625 0.035895463 -0.036814652 -0.22869563
0003e0 cf cf 54 be 6c 95 86 3d 3c e0 37 bc b3 a1 79 be
       -0.20782398 0.06571469 -0.011222895 -0.2437809
0003f0 4a 32 f4 bd 7c d8 3e 3d 63 8f ab 3d e6 5a 5d bd
       -0.119236544 0.046593174 0.08376958 -0.054041766

feature.4.bias f4 [48]
000000 0e d5 f2 bc 41 c2 6e 3c a7 2a 91 bd 64 a5 98 bc
       -0.029642608 0.014572681 -0.070882134 -0.018633552
000010 f2 71 9a bc 1e ea 6d bc 8a 4d 7e 3d ac 7c 05 bd
       -0.018853161 -0.01452115 0.062085666 -0.0325896
000020 ad 71 1a 3d 1b 13 c8 bc e5 81 c0 3c 36 0c f0 3c
       0.037706066 -0.024423173 0.023499439 0.029302698
000030 1f e0 a6 bc 7f 37 9c 3c 0a 61 7d 3b 8c a3 b6 bc
       -0.020370541 0.019069431 0.0038662576 -0.022294782
000040 88 b3 04 bc 86 31 ee 3c 54 40 9f 3c 00 79 ea ba
       -0.008099444 0.029076349 0.019439854 -0.0017888844
000050 0d c0 30 bd ab 24 39 bd 01 94 1b 3c e7 a3 46 3d
       -0.043151904 -0.045200985 0.009495736 0.048496153
000060 14 21 6e 3b b2 2a af bc 24 5c 36 bd b6 df 17 3d
       0.0036335634 -0.021382663 -0.044521466 0.03707858
000070 f0 eb 2a bc 19 e1 45 bc 41 f8 f5 bc 55 b8 74 bd
       -0.010432228 -0.012077593 -0.030025603 -0.059746105
000080 2b 60 1e 3b cc 22 88 3b 47 76 a9 bc 39 88 04 bc
       0.0024166207 0.0041545387 -0.020686282 -0.008089119
000090 79 fd 2e 3c 82 e5 43 3d 32 10 02 bd d0 53 a1 bb
       0.01068055 0.047826298 -0.031753726 -0.0049233213
0000a0 29 a1 05 bc 87 b4 03 3d aa dc 1d bd 21 26 29 3d
       -0.008156099 0.032154586 -0.03854052 0.04129613
0000b0 f6 5e 16 3c cf 5a 75 3c a8 f5 55 3c 1c e2 16 3d
       0.009177914 0.014975264 0.013059057 0.03683673

feature.5.weight f4 [48]
000000 57 aa c1 3e 74 9d 09 3f 41 c6 ec 3e 64 90 0e 3f
       0.3782527 0.5375588 0.46245006 0.5568907
000010 79 e7 e2 3e 6b 04 bb 3e 68 ed 9e 3e 44 b0 f8 3e
       0.44317225 0.36526808 0.31040502 0.4857198
000020 d0 93 97 3e 54 cd e2 3e a3 f5 c5 3e 96 42 61 3e
       0.2960496 0.44297278 0.38663968 0.21998057
000030 5a 71 de 3e bd 4b fa 3e 15 b4 de 3e 27 42 99 3e
       0.43445855 0.4888591 0.43496767 0.29933283
000040 14 d5 d1 3e 9d 4e 9e 3e 19 64 00 3f 23 db c9 3e
       0.40982878 0.30919352 0.50152737 0.39425
000050 d4 97 be 3e d2 de f5 3e 37 fa 07 3f 09 ae f4 3e
       0.3722521 0.4802156 0.5311617 0.47789028
000060 74 10 f2 3e 89 5a 5f 3e 32 25 d2 3e 04 f0 e5 3e
       0.47278178 0.2181188 0.41044003 0.4490968
000070 80 36 d6 3e 2f 14 cf 3e 14 6d 08 3f 22 85 9d 3e
       0.41838455 0.40445086 0.5329144 0.30765635
000080 75 11 9d 3e 32 e4 d8 3e be 65 dd 3e 24 a0 98 3e
       0.3067738 0.423616 0.43241686 0.29809678
000090 19 a4 d1 3e 5e 36 d0 3e 53 fd 04 3f 02 8e 5a 3e
       0.4094551 0.4066648 0.5194904 0.21343234
0000a0 67 60 c8 3e 41 fb ce 3e 14 ad 86 3e 47 e8 e5 3e
       0.3913605 0.40426067 0.26303923 0.44903776
0000b0 91 c9 18 3f 5b 23 d6 3e 24 f8 7b 3e d0 24 88 3e
       0.59682566 0.4182385 0.24606377 0.26590586

feature.5.bias f4 [48]
000000 d7 e5 bd be 04 45 e9 be db e6 e1 be c8 08 07 bf
       -0.37089416 -0.45560467 -0.4412144 -0.52747774
000010 ac a4 66 be 8a 05 84 be b3 89 0f be 61 d5 c9 be
       -0.22523755 -0.25785476 -0.14017372 -0.39420608
000020 bb 7b 52 be 58 41 7d be d2 2d 84 be c4 79 ba bd
       -0.20555012 -0.24731958 -0.25816208 -0.09105256
000030 33 fd c6 be f0 20 b6 be dd 13 9f be 93 e0 52 be
       -0.3886505 -0.35572004 -0.31069842 -0.20593481
000040 62 57 b2 be c1 79 32 be 8d 2e c7 be c7 2b b9 be
       -0.34832293 -0.17429258 -0.38902703 -0.36166212
000050 70 8c a6 be 43 1d b3 be 7c 7e c8 be 5f 3b ec be
       -0.3252902 -0.34983262 -0.39159 -0.46139047
000060 28 5b c8 be 9e 7f d0 bd f3 e9 99 be c5 83 dd be
       -0.39132047 -0.10180591 -0.30061302 -0.43264595
000070 44 19 c0 be 6e 20 b8 be 9d ea e6 be e1 18 54 be
       -0.37519276 -0.35962242 -0.4510087 -0.20712616
000080 a1 ac 29 be 8c 99 93 be 72 1d ad be b5 df 80 be
       -0.16569759 -0.28828084 -0.33811527 -0.25170675
000090 ac 02 77 be fa 4a 83 be a9 98 fb be 49 1c 40 be
       -0.24122113 -0.2564314 -0.49139908 -0.1876079
0000a0 21 c5 80 be 55 58 ba be 60 58 15 be f0 a4 ce be
       -0.25150397 -0.36395517 -0.14584494 -0.40360212
0000b0 ca 6e 2f bf f9 f7 c6 be 48 78 25 be a3 68 05 be
       -0.68528426 -0.38861063 -0.16159165 -0.13028197

feature.5.running_mean f4 [48]
000000 16 71 cd bf ff 2d 27 c0 27 29 39 c0 36 51 43 c0
       -1.6050136 -2.6121824 -2.8931367 -3.0518317
000010 4c bb 22 c0 82 80 b2 bf 43 62 e3 bf 71 67 07 c0
       -2.5426817 -1.3945467 -1.7764362 -2.1156886
000020 cc 82 d0 bf cf 10 0f c0 55 36 93 bf fe 3e a0 be
       -1.6289916 -2.235401 -1.1500956 -0.3129806
000030 26 ca f8 bf 4b 73 d9 bf 38 14 b0 bf 13 73 25 c0
       -1.9436691 -1.698831 -1.375617 -2.5851486
000040 0e 6b 09 c0 67 0d 89 bf f3 dc 13 c0 02 a8 bb bf
       -2.147159 -1.0707215 -2.3103607 -1.4660647
000050 2a c2 eb bf 0a 63 1e c0 a6 fa d6 bf 44 db b3 bf
       -1.8418629 -2.4747949 -1.6795242 -1.405129
000060 1d 92 b5 bf bf 47 b7 be 3e 89 c3 bf 7a b2 45 c0
       -1.4185215 -0.35796925 -1.5276258 -3.0890183
000070 a7 dc 60 c0 44 69 09 c0 a3 15 17 c0 49 d2 a7 bf
       -3.5134676 -2.14705 -2.3606956 -1.3111049
000080 e0 0d ce bf e3 70 96 bf 77 f1 e0 bf f1 19 d0 bf
       -1.6097984 -1.17532 -1.7573689 -1.6257917
000090 3b d9 1c c0 fe 94 fc bf 65 a3 be bf d7 f0 d5 bf
       -2.4507587 -1.9732969 -1.4893614 -1.6714123
0000a0 e5 e3 ee bf b9 77 ca bf 74 7c 5a bf 3a b1 d0 bf
       -1.8663298 -1.5817786 -0.8534615 -1.6304085
0000b0 32 04 34 c0 d9 40 49 c0 40 29 ad bf 97 2a 98 bf
       -2.812756 -3.144583 -1.3528214 -1.1887997

feature.5.running_var f4 [48]
000000 97 a1 22 40 69 04 d5 40 1c 0e 02 41 36 23 02 41
       2.5411127 6.6567883 8.128445 8.133596
000010 6e 96 10 41 6d b8 7f 40 61 e0 e1 40 32 d1 c6 40
       9.036726 3.9956315 7.05864 6.2130365
000020 4f 7f 70 40 82 82 27 41 4e 52 63 40 0f e3 3a 40
       3.7577703 10.469362 3.5518985 2.9201086
000030 97 15 a6 40 37 1d 8d 40 98 df 6e 40 75 c5 f0 40
       5.1901355 4.4098163 3.732397 7.5241036
000040 fc 7f d7 40 c7 8d 7d 40 07 bc cf 40 6e 99 41 40
       6.734373 3.9617784 6.4917026 3.0249896
000050 09 32 ae 40 f3 9b c7 40 f5 da ad 40 d7 dc 62 40
       5.443608 6.237787 5.432978 3.544729
000060 00 59 59 40 96 48 4c 40 35 fd 89 40 32 6c 23 41
       3.3960571 3.1919303 4.312159 10.213915
000070 dd 16 2b 41 d5 53 d1 40 c6 47 c0 40 b6 0f 6a 40
       10.693082 6.5414834 6.0087614 3.657209
000080 02 1e b7 40 c6 7b 5b 40 f7 eb a8 40 82 a2 a3 40
       5.722413 3.4294295 5.2788043 5.1135874
000090 15 07 3f 41 79 da d4 40 e8 3e 45 40 48 28 2d 41
       11.939229 6.651669 3.0819645 10.822334
0000a0 f0 2f ab 40 5e ff 5f 40 9f 3a 34 40 76 50 70 40
       5.3496017 3.4999614 2.816078 3.754911
0000b0 2f cc e8 40 e4 45 16 41 de 66 86 40 e7 78 8f 40
       7.2749248 9.392063 4.200057 4.4835086

class_classifier.0.weight f4 [100, 768]
000000 e5 1a 3c 3e 7c a0 2d bd 27 a4 02 3c 9e b1 dd bd
       0.18369634 -0.042389378 0.007973707 -0.108248934
000010 9e 6c 5d 3e f4 f6 23 3d cd 74 a3 bd 9c d5 1b bd
       0.21623465 0.040030435 -0.07981262 -0.03804551
000020 4f 44 09 3e 25 65 b0 3d f0 9e 37 bd 43 77 29 be
       0.13404964 0.08613042 -0.04482931 -0.16549401
000030 0e 9c 8e 3c 4a 9b e9 bd 89 a6 65 bd ac 0c 95 bd
       0.017408397 -0.11406572 -0.056067023 -0.072778076
000040 6c ea c5 3d 52 e7 2f bb 8c 28 30 bd 56 0c 80 3c
       0.09663853 -0.0026840759 -0.04300742 0.015630882
000050 d6 90 dc 3d 97 48 ce 3d 1a 5c 9b 3d f6 8b 13 be
       0.10769813 0.10072439 0.07585926 -0.1440886
000060 48 4b 19 3e a9 5c 56 3e c4 64 01 3d 05 74 85 3c
       0.14970124 0.20933785 0.03159024 0.016290674
000070 fc 8b 5d be 26 9a de bd 3e 65 90 be 62 10 2d bc
       -0.21635431 -0.10869245 -0.28202242 -0.010562988
000080 0b fc bb bb e0 25 f4 3d 8b d3 82 bd 4b d3 93 bc
       -0.005736833 0.119212866 -0.06388005 -0.018045088
000090 9a d0 30 bd ff c6 06 bd 8c 36 dc 3b d6 f9 f7 bd
       -0.043167688 -0.03290462 0.0067203697 -0.12108199
0000a0 a7 67 21 3c 21 1d 70 3d 43 a3 1c be ec 2d 63 be
       0.009851373 0.05862153 -0.15296654 -0.22185487
0000b0 98 70 98 bc aa 60 02 3e 2a 93 9b b9 b6 6e 30 bd
       -0.018608376 0.12732187 -0.0002967355 -0.043074332
0000c0 fa 45 2e be 24 73 32 bd 8f ca 50 3d d8 cc 80 3e
       -0.17018881 -0.043566838 0.050974425 0.25156283
0000d0 a4 be 7f bd 00 59 2d bd 21 bd 44 3d 46 fe 53 3d
       -0.06243767 -0.042321205 0.04803193 0.051756166
0000e0 1f 8b 95 3c 5c 26 75 bd 95 1e 67 be cb af 94 bc
       0.018254815 -0.059851035 -0.2257026 -0.01815023
0000f0 b3 e5 1f 3e 61 96 2c be 72 93 5d be 3e 02 c4 bd
       0.15614967 -0.1685424 -0.21638277 -0.0957074
000100 53 ba f8 3d 30 57 08 bd fe d2 fe bb 99 57 00 be
       0.121449135 -0.033286273 -0.007776617 -0.12533416
000110 1c ca a7 3a 28 c9 ac 3d d6 84 a9 bd c9 a9 6d bd
       0.0012801322 0.08436805 -0.082772896 -0.058023248
000120 13 51 0b bd f4 8e 37 be d7 3f 0a be cf 04 36 3d
       -0.034012865 -0.17925626 -0.13500915 0.04443818
000130 82 12 69 3e d6 28 9f 3d 6c 6b 0b 3d 5a 14 a8 3d
       0.22760966 0.07771461 0.034037992 0.08207007
000140 9c 7a 39 3c 57 5b bf 3c 9b 60 d4 3e f0 5c 61 3e
       0.011320736 0.023358984 0.41479954 0.22008109
000150 70 f0 aa 3b 1a 94 86 bd e4 20 c6 3c 95 c9 c8 3d
       0.0052166507 -0.06571217 0.024185605 0.09804074
000160 0f 0d 33 be 06 00 ac be ba 45 c8 3c 2f 3f cb 3c
       -0.1748545 -0.33593768 0.02444731 0.024810402
000170 38 e6 c0 be 91 a0 f3 be f2 18 0d be 8b f7 5a be
       -0.37675643 -0.4758344 -0.13779047 -0.21383493
000180 2e 72 64 bd cf 95 16 3e 19 ae 2b 3d fa 7f 54 3d
       -0.055772953 0.14705585 0.04191408 0.05187986
000190 16 4a 6b be 80 ae 34 be 32 85 7b 3d c7 28 4e bc
       -0.2297748 -0.17644691 0.06140632 -0.012582964
0001a0 ad ee 0b be 27 6e c4 be b5 03 12 bd c9 ea 01 bd
       -0.13665266 -0.3836529 -0.035648067 -0.03171805
0001b0 7c fa ec 3d e7 a6 d3 bd 55 1f 05 3e 38 c4 2e 3e
       0.115712136 -0.103345685 0.13000233 0.17067039
0001c0 bf 8e c6 3d f4 4f 93 3e df d1 5e 3e 29 a5 82 3e
       0.096951954 0.28771937 0.21759747 0.25516632
0001d0 92 c4 d6 bd f5 87 b6 bc f0 09 68 3d d0 74 50 3d
       -0.104867116 -0.022281626 0.056650102 0.05089265
0001e0 17 58 f9 3b e4 9c 37 bc c6 4a ea 3c c8 ca fd 3c
       0.007609378 -0.011206839 0.028600108 0.030980483
0001f0 43 7f 14 be 8b 92 9d be 46 e4 9a bb 97 b5 b2 3c
       -0.14501671 -0.30775866 -0.0047269193 0.021815104
000200 09 22 45 3e 66 27 3c 3e de 29 7e be 8f df b9 bd
       0.19251265 0.18374404 -0.24820659 -0.090758435
000210 22 df 70 3e b7 c2 17 3e b8 05 34 bd a0 82 d6 3d
       0.23522618 0.14820372 -0.043950766 0.104741335
000220 f9 09 0d be 36 20 2f bd a5 da cc bd 9e 5c 9f bd
       -0.13773336 -0.042755328 -0.10002641 -0.07781337
000230 a2 36 01 bd c5 1b 2c 3d 36 eb 50 bd 0a c1 b2 bd
       -0.031546243 0.04201867 -0.051005565 -0.087282255
000240 40 d4 c9 bc 8f f5 c0 3d d2 3a bd 3b 0a 34 41 3e
       -0.024637341 0.094218366 0.005774834 0.18867508
000250 b8 58 47 3d 0c 62 2a bd 39 cc a9 3d ca f0 15 3e
       0.048668593 -0.04159741 0.082909055 0.14642635
000260 1d 13 66 be d4 18 b0 be 8c af ab 3d dc c9 fb 3d
       -0.22468229 -0.34393942 0.08383092 0.12294361
000270 e7 b3 4f 3e 7a c0 5d be 87 26 07 bd 51 62 0c 3e
       0.20283471 -0.21655455 -0.032995727 0.1370938
000280 6f 8d ce 3d 1b 49 5a bd 0a 89 25 3e 01 7b 0a bd
       0.1008557 -0.053292375 0.16165558 -0.033808712
000290 bb f6 1e 3e 52 3c 6e 3e 79 4f 8f 3d c9 10 c8 bd
       0.15523808 0.23265198 0.0699758 -0.097688265
0002a0 bf 29 2f be f2 35 0d be f3 33 33 be a9 a1 09 3d
       -0.17105769 -0.1379011 -0.17500286 0.033601437
0002b0 0b 2b 38 be 0c 92 1e be cb 08 e7 bb ff 4e da 3d
       -0.1798517 -0.154854 -0.0070506088 0.106595986
0002c0 2a 98 c2 bd 97 d0 d7 3d 2f 5f a0 bc 39 55 04 3d
       -0.09501679 0.10537832 -0.019576637 0.032307837
0002d0 61 fb d1 bd 00 8e 26 bd f5 3f 13 be 14 af fd bb
       -0.10253025 -0.040662766 -0.14379866 -0.007741818
0002e0 ba 55 77 3d 55 dd f9 3d 1d 54 26 bd 1c b3 8c 3d
       0.06038449 0.12200419 -0.04060756 0.068701
0002f0 ab ef a4 bd 64 8a 3f 3e ec be 80 be b0 c0 db bd
       -0.080535255 0.18705136 -0.25145662 -0.107301116
000300 cf d9 0f 3e 0c 4a 42 bd cc b8 cb 3d dd 8c 99 bb
       0.14047931 -0.047433898 0.099473566 -0.0046859817
000310 b0 36 b4 bd 43 68 f3 bc de 93 b2 3c 0e 14 8e 3d
       -0.08799493 -0.029712802 0.021799024 0.06937419
000320 a6 af 42 bc a6 12 bd bc 72 99 53 bd c2 a8 0b be
       -0.011882698 -0.023080181 -0.05166001 -0.13638595
000330 fe 18 01 3d 88 a2 a9 bc 1c 33 8f bd 58 66 4b bb
       0.031517975 -0.020707384 -0.0699217 -0.0031036343
000340 92 5f 87 3d 55 62 56 bd 72 70 62 be 62 e6 be bd
       0.066100255 -0.05233987 -0.22113207 -0.09321286
000350 c1 13 b5 bd 21 94 29 3d 2f b4 c8 3c 87 fb 8a bd
       -0.088416584 0.041401032 0.02449998 -0.06786256
000360 e0 40 ad bc 73 dc 45 3e 9a 5c 92 bd a4 f0 47 bd
       -0.021149099 0.19322376 -0.071465686 -0.048813477
000370 f3 2d 65 3d 4c 48 8e 3e 29 12 ee 3d d0 48 20 be
       0.055952024 0.27789533 0.116245575 -0.15652776
000380 9f 82 bd bd 44 96 98 bd f0 c3 39 3e 90 d6 cb 3d
       -0.092534296 -0.07450536 0.1814115 0.09953034
000390 af a6 c8 bd d0 a5 ef bd 8a 0c 17 bd 7b e6 a7 3d
       -0.09797417 -0.11701548 -0.036877193 0.081982575
0003a0 07 45 a7 be de 8b 8a be d6 ba 36 3c 52 e9 21 bd
       -0.3266985 -0.27059835 0.011152944 -0.039529152
0003b0 5b 9d 39 bd f6 24 0c bf a6 8a 11 bf 34 ea 38 be
       -0.04531608 -0.547439 -0.56852186 -0.18058091
0003c0 c7 d8 97 3d 28 aa 69 3d 4d 84 10 3e ab 03 11 3e
       0.07414394 0.05704704 0.14112969 0.14161555
0003d0 b2 4e 9a bd e6 f8 2d 3d d8 ed 74 be 88 39 8f 3d
       -0.07534541 0.042473696 -0.23918855 0.06993395
0003e0 b4 cf 31 bd 2b bf 19 3d 27 2b ef bd f0 08 0b bd
       -0.04341097 0.037535828 -0.116781525 -0.03394407
0003f0 1c 89 83 bc a7 ae b4 bd 4e e9 c7 bc 4d 59 cd 3c
       -0.01605659 -0.08822375 -0.02440324 0.025066996

class_classifier.0.bias f4 [100]
000000 42 88 aa bc b6 a9 39 bd 9a 85 0d bd 41 a2 13 bd
       -0.020816926 -0.045327865 -0.03455124 -0.03604341
000010 a1 1f 95 3c 10 cb 95 3c 4b b4 1e 3c 5f 0b 35 3c
       0.018203558 0.018285304 0.00968654 0.011050074
000020 8d 5d 93 bc 1c 39 96 3c ba 15 a3 3c b9 f0 b0 3c
       -0.017988944 0.018337779 0.019907821 0.02159916
000030 ff a5 ff 3c aa bb a1 3c 94 d6 0a bd ba 25 c3 bc
       0.031207083 0.019742806 -0.033896044 -0.0238217
000040 21 f2 80 3c 4c 40 40 3d 5e 04 77 bd 13 f3 82 bb
       0.015740456 0.04693632 -0.0603069 -0.003996262
000050 51 46 97 3b 48 fa d6 3c aa fa b3 bc 40 25 17 bd
       0.0046165367 0.02624239 -0.021970112 -0.03690076
000060 38 73 cc 3c d6 f2 bf 3c fe 9e 47 bc 18 da 5b bb
       0.024957284 0.023431223 -0.012183903 -0.0033546742
000070 fe 17 d3 ba f0 ac ff bb 74 2e 0f 3d 4d da 57 bc
       -0.0016105173 -0.007802598 0.03495641 -0.013174606
000080 09 28 04 bd a1 0b d3 3c f6 c0 37 bd 27 48 af 3c
       -0.032264743 0.025762381 -0.044861756 0.02139671
000090 a8 ae 60 3b 45 af f5 3c f2 33 c7 bb 5b fa 4b 3c
       0.003428379 0.029990802 -0.0060791904 0.012449826
0000a0 bb 17 37 bb 76 f2 89 3c 52 94 0c 3c 69 ad 1e bb
       -0.0027937728 0.016839247 0.008580284 -0.0024212247
0000b0 e7 e0 e9 3c 36 64 b9 bc 1a ef 0e bd 03 c1 d4 3c
       0.028549625 -0.022630792 -0.034895994 0.025970941
0000c0 a5 8b 21 bd d2 9c e7 3b 4e 97 d4 bc 6a 8a c7 bc
       -0.039439816 0.007068255 -0.025951054 -0.024357993
0000d0 aa bc c1 3b 5d 3e 3a 3d 93 75 1a bd ed de 0d bc
       0.005912383 0.04546963 -0.037709784 -0.008659107
0000e0 a3 e9 83 3c d1 fa 17 bd 11 b0 ef bc 27 7e 34 bd
       0.016102618 -0.03710443 -0.02925876 -0.04406562
0000f0 9a 83 b6 3c bc 3b 38 3d 76 c1 1b 3d a8 27 12 3c
       0.02227955 0.044978842 0.038026296 0.008920588
000100 94 d5 24 bc 1f a8 e3 3b 95 07 24 bc db 14 10 3c
       -0.010060687 0.006947532 -0.010011573 0.008794035
000110 df a6 b2 3c 89 0d 6a 3d 8d 19 81 3d 20 10 9f bc
       0.021808086 0.057141814 0.063037015 -0.019416869
000120 cf e9 0c bd 29 c0 24 bd 86 82 fb 3c 7c 91 45 3d
       -0.034402665 -0.04022232 0.030701887 0.048234448
000130 0e 87 ae 3b 5d b7 d1 3a 57 ba 1b 3c ff c7 1c bd
       0.0053261584 0.0016000081 0.009504876 -0.03827667
000140 d6 e7 24 3d e0 70 80 bc 2c 00 03 bd cb 87 08 3c
       0.04026016 -0.015678823 -0.031982586 0.008333157
000150 f8 ac b5 bb b4 10 d7 bc 35 c6 20 bc 7a ab c6 3b
       -0.005544301 -0.026253082 -0.009812881 0.006062922
000160 0a ea 2b bc ce 5e 05 3d 6d 66 e3 bb a1 19 aa bc
       -0.010492811 0.032561116 -0.0069397003 -0.020764174
000170 07 9d 43 3c 65 bc 14 3d 5f cd 2c 3c b1 0b 50 3d
       0.011939294 0.03631248 0.010547011 0.0507924
000180 36 3e b1 3c d9 08 c2 bc ba a0 65 bc a6 91 2b 3d
       0.02163611 -0.02368586 -0.014015371 0.041886948

class_classifier.1.weight f4 [100]
000000 4e 2d b7 3e 84 0f 12 3f 4e f8 c1 3e e3 de 29 3f
       0.35776752 0.57054925 0.37884754 0.66355723
000010 60 98 36 3f 22 17 ed 3e 56 01 1f 3f c7 8e e6 3e
       0.71326256 0.4630671 0.62111413 0.45030805
000020 01 0a bb 3e 18 d4 17 3f eb df 43 3f 89 43 ed 3e
       0.3653107 0.59308004 0.76513547 0.46340588
000030 c7 f7 e8 3e 34 2b 0a 3f 89 11 d3 3e 48 04 33 3f
       0.4550154 0.5397217 0.41224316 0.6992841
000040 c3 9f 0e 3f a2 c1 37 3f 48 15 1c 3f ff 3f b7 3e
       0.5571253 0.71779835 0.6096997 0.35791013
000050 48 68 ff 3e e6 1a fe 3e 82 c4 0d 3f c0 96 02 3f
       0.49884248 0.49629897 0.5537797 0.51011276
000060 6a 84 47 3f 62 3f 2f 3f 84 71 0e 3f a3 7a 48 3f
       0.7793642 0.6845609 0.5564196 0.7831213
000070 25 e6 04 3f 3c 22 d8 3e df 10 d4 3e a6 6c c5 3e
       0.5191367 0.4221362 0.41419122 0.38559455
000080 8a 8e f6 3e 8c 2d ed 3e 3d 0a d0 3e cb ee 03 3f
       0.48155624 0.46323812 0.4063281 0.51536244
000090 3c 0e 15 3f 29 44 25 3f bd 45 0b 3f 12 9a 13 3f
       0.58224845 0.6455713 0.5440329 0.5765697
0000a0 81 19 33 3f 21 2f 23 3f b5 d0 0b 3f 99 31 06 3f
       0.6996079 0.6374379 0.54615337 0.5241943
0000b0 79 e3 30 3f ed 28 36 3f 58 b6 c6 3e db 19 f8 3e
       0.69097096 0.711562 0.38810992 0.48457226
0000c0 f0 5a fc 3e 1c 10 ce 3e f8 d2 3f 3f 46 61 41 3f
       0.4928813 0.40246665 0.7493129 0.7553905
0000d0 3b 41 b3 3e 72 cf 36 3f 8c 77 c7 3e 51 e6 b6 3e
       0.35010704 0.71410286 0.38958395 0.35722592
0000e0 d3 42 02 3f 65 8c 33 3f aa 5c df 3e 81 b8 3c 3f
       0.50883216 0.701361 0.43625385 0.7371903
0000f0 21 d9 dc 3e 4f 3e 0e 3f b2 41 b2 3e e1 a8 25 3f
       0.43134406 0.55563825 0.34815747 0.64710814
000100 dc d0 ac 3e 64 61 fc 3e 21 5e b8 3e 34 b4 cf 3e
       0.33753097 0.49293053 0.36009315 0.40567172
000110 fd c0 d6 3e 9e 45 3b 3f 39 13 38 3f 2c b7 08 3f
       0.41944113 0.731531 0.7190433 0.534045
000120 d5 f3 0d 3f d5 29 e1 3e f7 9e 08 3f 54 b4 2b 3f
       0.55450183 0.43977228 0.5336756 0.67072034
000130 04 4b ed 3e 60 1f 2c 3f 68 47 17 3f 95 69 3c 3f
       0.46346295 0.67235374 0.5909333 0.73598605
000140 6b 3e 3b 3f 45 ec 13 3f da 94 3f 3f 00 a0 40 3f
       0.7314212 0.57782394 0.74836504 0.7524414
000150 45 90 2c 3f 00 77 23 3f db 87 15 3f 1e 71 21 3f
       0.6740764 0.63853455 0.58410424 0.6306323
000160 71 e3 bd 3e ae ca eb 3e a2 79 20 3f d9 32 2c 3f
       0.37087587 0.4605307 0.62685597 0.6726509
000170 2b 17 2a 3f 2e 53 34 3f d3 9b 0c 3f 5f 6e 1d 3f
       0.664416 0.7043942 0.5492527 0.6149654
000180 82 6e 2c 3f 1f 7b c1 be 83 01 37 3f 7d c0 3c 3f
       0.6735612 -0.37789246 0.7148668 0.73731214

class_classifier.1.bias f4 [100]
000000 53 ff 5d bd 4b 58 6f be f3 f3 0b be 52 19 a3 be
       -0.054198574 -0.23373525 -0.13667278 -0.31855255
000010 55 ec 98 be d9 a3 4e be ac 8d 4d be 61 f9 44 be
       -0.29867807 -0.2017969 -0.20073575 -0.19235756
000020 77 8c 74 bd b2 f0 ab be 36 8e 92 be 77 b3 35 be
       -0.05970427 -0.33582073 -0.28624123 -0.17744242
000030 55 22 81 be 6d f9 7a be 25 0c 21 be 4f 84 81 be
       -0.25221506 -0.24509211 -0.15727289 -0.25296256
000040 60 ef 7d be 77 38 68 be 35 d0 9a be 06 d6 6c bd
       -0.24798346 -0.2267779 -0.30236974 -0.057821296
000050 32 29 42 be 62 a8 42 be b4 48 0e be 7b d3 f3 bd
       -0.18961027 -0.19009545 -0.13894922 -0.11905571
000060 9e 16 8f be 25 85 b0 be be 06 7f be 15 09 a1 be
       -0.27946943 -0.3447658 -0.24904916 -0.31452242
000070 1c 63 1e be 96 9a db bd 1a 6c ed bd 85 f7 3f be
       -0.15467495 -0.10722844 -0.11592884 -0.18746765
000080 3b 94 2d be 0a 1d 8a be 3f b9 b5 bd bc 3b 65 be
       -0.16951077 -0.2697528 -0.088732235 -0.22386068
000090 ec d6 96 be 55 a7 87 be e6 7f 39 be f9 44 6c be
       -0.29460847 -0.26494852 -0.18115196 -0.23073186
0000a0 ea c1 0a be 5e 8d 9c be 4e 50 02 be 22 b2 87 be
       -0.13550535 -0.30576605 -0.12725946 -0.26503092
0000b0 44 53 39 be 5d 8d aa be 6b f1 ed bd 57 fe 3d be
       -0.1809817 -0.33310977 -0.116183124 -0.18554054
0000c0 09 d5 6c bd ee 2b 22 be 02 e5 52 be 88 8b 48 be
       -0.057820354 -0.1583707 -0.20595172 -0.19584477
0000d0 e3 6f ac bd a3 61 93 be ba 8a 38 be 3f 7a 1f be
       -0.08419778 -0.28785428 -0.1802167 -0.15573977
0000e0 48 cb 52 be a1 3d a6 be 9e 1f 02 be 3f af 94 be
       -0.20585358 -0.32468894 -0.12707373 -0.29039952
0000f0 e5 cc 5f be 3b 41 06 be d4 ef 6d bd b3 8a 2d be
       -0.21855505 -0.13110821 -0.058090046 -0.16947441
000100 3f f5 e7 bd 36 5e 5a be 3d 3f e8 bd 38 be 41 be
       -0.11326074 -0.21325001 -0.11340187 -0.18920219
000110 3b f8 2c be 5e 9b 90 be 14 1f 9d be b3 97 23 be
       -0.16891567 -0.28243536 -0.30687773 -0.15975837
000120 45 eb 7f be 62 16 c7 bd fd bf 77 be 2d b3 b6 be
       -0.24992092 -0.09721066 -0.24194331 -0.35683575
000130 e4 ba 46 be 7f 8f 0f be ea 74 b7 bd 5b c4 8f be
       -0.1940723 -0.14019583 -0.089578465 -0.28079495
000140 30 c9 6b be 33 09 2c be eb 86 b3 be b6 a8 c1 be
       -0.23025966 -0.16800384 -0.35063872 -0.3782403
000150 ae 4a cb be 67 22 94 be b0 ed ac be 47 9a 57 be
       -0.39705414 -0.28932497 -0.3377509 -0.21054946
000160 3e 14 06 be 7c 4c 3c be 1e 7f b6 be b7 97 1e be
       -0.1309366 -0.18388551 -0.35643858 -0.15487562
000170 ed 5b b4 be 85 f1 77 be cc 38 e3 bd d9 2c af be
       -0.35226384 -0.24213226 -0.110948175 -0.34213904
000180 8e 4e 83 be b8 98 20 bd 4f 4b 9b be 63 a8 93 be
       -0.2564587 -0.039208144 -0.30330893 -0.28839406

class_classifier.1.running_mean f4 [100]
000000 38 73 11 bf fe be 3c bf f8 35 30 bf f2 7d 4e bf
       -0.56816435 -0.7372893 -0.6883235 -0.8066093
000010 0e d2 6f bf c8 cb ee be c8 ba 07 bf 06 ab 6c bf
       -0.93679893 -0.46639848 -0.5301938 -0.9244846
000020 73 88 13 bf c8 a8 8a bf c9 20 90 bf eb 5d 30 bf
       -0.5763008 -1.0832758 -1.1260005 -0.6889331
000030 b5 9f 94 bf 30 77 34 bf a7 e0 38 bf 6d fa 1d bf
       -1.1611239 -0.70494366 -0.7221779 -0.61710244
000040 e3 21 3d bf 87 ef 3f bf 5f 2b 5b bf b3 b0 e9 be
       -0.7387983 -0.74974865 -0.85613054 -0.45642623
000050 9c 46 6f bf 57 0e 81 bf 13 43 3a bf 17 0a 50 bf
       -0.93467116 -1.0082501 -0.727586 -0.81265396
000060 0e 4c 80 bf 61 bf 87 bf 28 2e 4e bf 05 c4 5c bf
       -1.002321 -1.0605279 -0.8053918 -0.862366
000070 54 7e 30 bf b9 e9 48 bf bb 3b be be 43 d0 41 bf
       -0.6894276 -0.7848163 -0.37154946 -0.7570841
000080 f1 3d 25 bf cc cb 92 bf 5e 08 12 bf 87 3d 59 bf
       -0.6454764 -1.1468444 -0.5704402 -0.8485951
000090 2b 5f 8d bf 9f c3 99 bf 45 c4 05 bf a8 35 39 bf
       -1.1044668 -1.2012824 -0.5225261 -0.723475
0000a0 16 82 3b bf fc 07 16 bf c8 48 1e bf a1 0c 5c bf
       -0.7324537 -0.58605933 -0.61829805 -0.8595677
0000b0 06 40 0b bf 07 90 82 bf 77 bf ff be 70 31 5c bf
       -0.54394567 -1.0200204 -0.49950764 -0.86012936
0000c0 c0 6c e6 be 19 b5 2c bf ce 6c 32 bf 3b cd 72 bf
       -0.45004845 -0.67463833 -0.6969727 -0.94844407
0000d0 74 2d 27 bf d4 ed 20 bf 82 9f 2f bf 60 51 81 bf
       -0.6530373 -0.62862897 -0.68602765 -1.0102959
0000e0 a8 3d 41 bf ed 99 53 bf d1 5c 4e bf a1 23 6f bf
       -0.75484705 -0.8265675 -0.80610377 -0.9341374
0000f0 8a a4 40 bf 1c ca e6 be a0 54 93 be b2 4e 60 bf
       -0.75251067 -0.45076072 -0.287755 -0.8762008
000100 db 51 06 bf 5b 70 25 bf f9 9f cb be 3a b3 64 bf
       -0.5246865 -0.64624566 -0.39770487 -0.8933598
000110 fb 5c 62 bf 78 14 13 bf 15 4b 60 bf 9f bd 32 bf
       -0.88423127 -0.5745311 -0.87614566 -0.6982059
000120 df 9c 61 bf 97 ec c2 be 7e c5 7b bf 49 a2 86 bf
       -0.8812999 -0.3807113 -0.98348224 -1.0518275
000130 ce d0 63 bf 74 a7 c6 be f4 70 d9 be 78 6e 32 bf
       -0.88990486 -0.38799632 -0.4246899 -0.6969981
000140 94 7c 4f bf 9d 0f 7d bf 7c c3 6d bf ab c9 7b bf
       -0.81049466 -0.9885195 -0.9287641 -0.98354596
000150 89 cb 57 bf fb c0 48 bf c6 2e 9a bf 15 db 22 bf
       -0.84294945 -0.78419465 -1.2045524 -0.6361554
000160 09 95 45 bf 95 5b 50 bf 6b 90 78 bf ea 2b 19 bf
       -0.77180535 -0.81389743 -0.97095364 -0.5983263
000170 6f 06 7d bf 32 ab 25 bf a6 b3 fb be d1 92 b6 bf
       -0.9883794 -0.6471435 -0.49160498 -1.4263555
000180 39 78 7a bf 4b 59 ed 3e ea ce 6c bf da f1 43 bf
       -0.97839695 0.46357188 -0.92503226 -0.7654091

class_classifier.1.running_var f4 [100]
000000 3d cd eb 3f 5f a8 8f 3f b8 1e e4 3f 0c a1 a5 3f
       1.8422009 1.1223258 1.7821875 1.2939773
000010 86 fc 09 40 56 97 9c 3f 73 b1 86 3f 96 00 fb 3f
       2.1560378 1.2233684 1.0522903 1.9609554
000020 fa bf bb 3f 60 dc d8 3f f0 da 24 40 0b 95 c6 3f
       1.4667962 1.6942253 2.575863 1.5514234
000030 1f 37 17 40 f5 42 94 3f 9d 19 a7 3f 01 92 06 40
       2.3627393 1.1582934 1.3054692 2.1026614
000040 59 9d da 3f aa df b1 3f fc 27 b1 3f 6b 6d ef 3f
       1.7079269 1.3896382 1.3840327 1.8705267
000050 3a 09 f4 3f 19 f3 ec 3f f1 95 e4 3f 01 2b 1b 40
       1.9065316 1.8511688 1.7858258 2.4244998
000060 a8 d9 1f 40 55 30 07 40 45 ca c1 3f d9 b8 08 40
       2.4976597 2.112325 1.5139853 2.1362822
000070 6f aa a7 3f ac 1d 11 40 7d d7 a3 3f ff 25 90 3f
       1.3098887 2.267436 1.2800137 1.1261595
000080 75 d3 b5 3f 64 15 13 40 21 39 9d 3f a4 39 cc 3f
       1.4205157 2.2981806 1.2283059 1.595509
000090 27 59 f6 3f 17 7c 28 40 37 1c 7e 3f 7c b3 b6 3f
       1.9245957 2.6325738 0.992618 1.4273524
0000a0 61 e3 08 40 31 00 83 3f 52 ef b5 3f f5 ab a9 3f
       2.138878 1.0234433 1.421366 1.3255602
0000b0 64 9e bf 3f 1b 87 f5 3f 43 b0 8f 3f 98 f0 b6 3f
       1.4970212 1.9181856 1.1225666 1.4292173
0000c0 44 f9 a3 3f e1 21 62 3f 96 db eb 3f 8d 74 13 40
       1.2810445 0.88332945 1.8426387 2.3039887
0000d0 06 00 9a 3f b1 b6 9a 3f 5d 12 92 3f a0 51 02 40
       1.2031257 1.2087003 1.1411854 2.036232
0000e0 e0 f8 9e 3f 10 13 8e 3f 4a 48 0a 40 42 fd e7 3f
       1.2419701 1.1099567 2.1606622 1.8124163
0000f0 0c 68 b1 3f 23 e2 b9 3f 72 53 ac 3f 98 fd 12 40
       1.3859878 1.4522136 1.3462965 2.2967281
000100 76 c2 03 40 5d 08 a6 3f cd 9d 9b 3f 27 9e e6 3f
       2.058744 1.2971302 1.2157532 1.8017014
000110 c1 2d e9 3f 79 ad d4 3f 0f be c6 3f ef 35 c8 3f
       1.8217088 1.661544 1.5526751 1.5641459
000120 e7 51 b2 3f 5d 05 e7 3f d5 ed 03 40 4d b7 dc 3f
       1.3931245 1.8048512 2.061391 1.7243439
000130 eb 75 c9 3f b5 08 a5 3f 2a b1 cb 3f 71 e7 bc 3f
       1.5739111 1.2893282 1.5913441 1.475813
000140 90 d1 05 40 2c 96 0f 40 75 8a d7 3f 51 c1 e8 3f
       2.0909157 2.2435408 1.6839129 1.8183995
000150 e3 fd dd 3f 24 6f da 3f 7e 80 09 40 57 2d b5 3f
       1.7343105 1.7065167 2.1484675 1.4154462
000160 c8 84 f6 3f e9 9b d1 3f 80 10 b8 3f 52 69 12 40
       1.9259272 1.6375705 1.4380035 2.2876782
000170 1c cc ad 3f a5 d2 86 3f 0a 80 d7 3f ee 13 0f 40
       1.3577914 1.0533034 1.683595 2.2355914
000180 98 66 09 40 1f ce 32 40 61 50 b4 3f 70 8c df 3f
       2.1468868 2.7938306 1.408703 1.7464733
