hw3/models/svhn_usps.pth (torch_old, 836884 bytes, 34 tensors)

feature.0.weight f4 [32, 3, 5, 5]
00000000: 0cd8 88bd 9a7b a7bd c08c 063e a3d7 333d
00000010: db22 1abe 1b89 06be 39f3 023d e56a be3c
00000020: e287 893d 44bf e2bd e599 563d 6d41 5a3d
00000030: 8cd0 d3bc a93f d43d 1067 8cbd ea6d 71bd
00000040: 4159 adbc a17c 36bd d2ec 093e 4cb0 85bd
00000050: 3af0 0bbe 6929 0abe 93c2 bfbc 3ec0 e8bb
00000060: 0f6b c73c a2d1 d63d 1c82 793d bc14 d93d
00000070: dbd2 813d 4fbb 15be 883b c9bd 3a7a e4bd
00000080: 1071 2c3d 46b9 edbd 4414 d8bd 4234 3a3d
00000090: 0d37 7abd e5e2 a33d a385 913d 9a83 babd
000000a0: 5e43 d3bd d1c3 a7bd 3736 9f3d cb79 b0bc
000000b0: 3688 713c c057 ff3c 5755 3bbc 847c 94bd
000000c0: 31cb 033e f23a 843d 6c5e cd3c d7ce 8f3c
000000d0: 9ef1 37bd 985c 86bc 3d2a f5bd f22b bcbd
000000e0: 0897 15bd 7839 66bd 2e64 03bd d369 56bd
000000f0: 8417 b53d 2d1b f8bd 2f7d 413d faa1 ad3d
00000100: 90cc 55bd 7f22 513d c74f 3cbd c664 f6bd
00000110: 9508 983d 304c 94bd 691e afbd a8b8 f7bd
00000120: 5e4b 13bd 9eee d53d 41ff 853d 0026 10be
00000130: c1f4 8bbd 76e5 5fbd 8636 a4bd 7487 34bd
00000140: a626 c6bd 7e87 2abe 1385 82bd 1c43 b5bd
00000150: 97e7 05be 5387 fdbd afd0 1dbe 5f23 cfbd
00000160: edf3 bf3c 6ad3 eabd bffb 3dbd 94ca d33c
00000170: e44f ca3c f004 f4bd f8a0 65bd 8681 d4bc
00000180: 0aa4 1bbe fdb9 d2bd 61dc 12bd 27ee 21bd
00000190: 587e 2abd 504f 21bd 6b80 373c 303c 9abc
000001a0: bc74 7f3d fc6a 3fbd 7053 19bd a924 d1bd
000001b0: 04c2 9c3c dfb5 29bd 38a5 64bd 59f6 0fbe
000001c0: 446f 923d 6bf7 943d 4b8f 323b 16ff 13bd
000001d0: a305 e8bd 7101 a63d f3db 033d 94e7 2d3d
000001e0: 9097 cebc 0a83 9cbc 2612 353d 9d44 0fbe
000001f0: d237 15bc 0c27 833e d6fe bd3d 774d d53d
00000200: 8101 b43d 4300 783b a6a0 1e3e d434 363e
00000210: 7dfd 173e e913 403d b0e4 d63c f825 303e
00000220: 6157 393e 3dc3 bb3d abb1 203d 1143 51bc
00000230: 73c3 1b3c 4861 d63d acb2 043d 521e 7b3d
00000240: 6c63 583e 6f03 ad3d 2470 fd3d bfa4 e23d
00000250: 605a 8dbc 168b 383e 11da 61bd fb2e 7a3d
00000260: 0a6c 4c3d 4a52 cb3d e916 dcbd c561 fe3c
00000270: e915 0d3d 5a39 dabd aa2f 89bd 8141 04bd
00000280: ceb2 bc3d 7910 6abd fcaf 47bd 0a1e 98bc
00000290: f809 76bd 024d 9dbd 7b89 a2bd d136 313d
000002a0: c7b4 89bd d5d0 9a3d 4392 97bd 4f36 9b3b
000002b0: c4fa 843d c29d 813d 590c c7bd b85e 3bba
000002c0: a834 23bd c048 8abd 84b3 dfbd f111 20bc
000002d0: 0aea 6abd 1053 64bd e2f5 013d ed5f a7bd
000002e0: faf8 7c3d 4366 003d 4d92 a5bd f9a4 bf3d
000002f0: acd1 8b3a 8c80 643d 88da 83bb 4107 ca3d
00000300: 3ee1 083b e0ea c5bb 822e 2ebd 6b3f c83a
00000310: 721d df3d 6d68 c7bd d15f c73d e1d1 ddbc
00000320: 9106 a4bd d8e1 e1bb f809 8f3c 24fc 92bd
00000330: 0344 893d 575c a2bc 1ca4 febc 9253 bebc
00000340: eb7e 8bbc e089 ce3b 0621 89bd 7c25 113d
00000350: 547a 803d 046b e7bd 2535 c1bc 4abb 4ebd
00000360: 68f2 023c 0333 2f3d 2a8b 9e3d 29b0 a83d
00000370: 1d28 1ebd c0b6 463d 0787 80bd c94f bbbd
00000380: dcba 8c3c 4994 8d3c a57b 7ebc 3abf d6bd
00000390: a990 923d f7dc f63c d968 19be 0871 c8bc
000003a0: 083f 16be d8ae 6cbd 6f9b 24be 12af 7cbd
000003b0: a83d 65be 2f34 a8bc 0d56 e53c 1788 46be
000003c0: a888 c3bd 5d85 18be 951c 1ebe 967f ebbd
000003d0: 17ce a0bd 01a9 f0bd 07ba a93c 64cd 14be
000003e0: 1535 813b 0616 8f3b d025 a23d 2b48 24be
000003f0: b86d fabc 0da5 313c a61f 283d 66ec b8bd
-0.06681833 -0.08177872 0.1313963 0.04390682 -0.15052359 -0.13138239 0.031970236 0.02324433
0.06715371 -0.11071637 0.05239286 0.05328505 -0.025856279 0.10363705 -0.06855595 -0.058942713
-0.021160724 -0.04455245 0.13469246 -0.065277666 -0.13665858 -0.13492359 -0.02340821 -0.007102995
0.024343042 0.10489203 0.060915098 0.10599658 0.063390456 -0.14622234 -0.09825808 -0.11156125
0.042100012 -0.11607604 -0.1055074 0.045459993 -0.061087657 0.08002261 0.07105567 -0.09107132
-0.10315584 -0.08191646 0.077740125 -0.02154245 0.014741948 0.031169772 -0.011433921 -0.07250312
0.1287048 0.064565554 0.025069438 0.017554684 -0.04490816 -0.016401574 -0.11970947 -0.091880694
-0.036520988 -0.05620715 -0.03207796 -0.052347016 0.08842376 -0.12114558 0.047238525 0.0847816
-0.05219704 0.05105829 -0.04597452 -0.1203094 0.07423512 -0.07241094 -0.08550722 -0.12095767
-0.035960548 0.10445903 0.065428264 -0.14076996 -0.068337925 -0.05466219 -0.08018212 -0.04407449
-0.0967534 -0.16653249 -0.06373038 -0.08850691 -0.13076626 -0.12379327 -0.15411638 -0.101141684
0.023431743 -0.11466105 -0.046382662 0.025853433 0.024696298 -0.11915004 -0.056061715 -0.025940668
-0.15199295 -0.10289381 -0.0358547 -0.03953376 -0.041624397 -0.03938228 0.011200051 -0.018827528
0.062367186 -0.046732888 -0.037433088 -0.102120705 0.019135483 -0.04143321 -0.055821627 -0.14058818
0.071501285 0.07273754 0.0027246054 -0.03613194 -0.113292 0.08105744 0.03219218 0.04245718
-0.025218755 -0.019105453 0.04420676 -0.13991018 -0.009107547 0.25615728 0.09277122 0.10415166
0.08789349 0.0037841953 0.1549097 0.1779359 0.14842792 0.046893988 0.026232094 0.17201984
0.18099739 0.09168098 0.039231937 -0.0127723375 0.009507048 0.10467774 0.032396957 0.061308213
0.21131676 0.084479205 0.12374905 0.11066579 -0.017255008 0.18021807 -0.055139605 0.06107996
0.04990772 0.09927805 -0.10746557 0.03105248 0.034444723 -0.1065547 -0.06698544 -0.032289032
0.09213792 -0.057144616 -0.048751816 -0.018569011 -0.0600681 -0.07680704 -0.079363786 0.043265168
-0.06723934 0.07559363 -0.07400944 0.0047366987 0.06493142 0.06328918 -0.09719152 -0.0007147598
-0.03984514 -0.06752157 -0.10922912 -0.009769903 -0.057352103 -0.055743277 0.031728633 -0.08172593
0.06176088 0.031347524 -0.08084545 0.09357638 0.0010667345 0.055786654 -0.0040238537 0.09864665
0.0020886208 -0.006039962 -0.042524822 0.0015277689 0.10894288 -0.097367145 0.097350724 -0.027077617
-0.08009065 -0.0068933778 0.017460808 -0.07176998 0.06702425 -0.019819422 -0.031084113 -0.023233209
-0.017028293 0.006303057 -0.06695752 0.03543614 0.06273332 -0.112997085 -0.023584912 -0.05047158
0.0079923645 0.042773258 0.07741387 0.08236725 -0.038612474 0.048514128 -0.062757544 -0.09146077
0.017178945 0.017282622 -0.015532409 -0.10485692 0.07156498 0.030134661 -0.14981402 -0.02446796
-0.14672482 -0.05778393 -0.16074918 -0.061690398 -0.22386801 -0.020532696 0.027995134 -0.19387852
-0.095475495 -0.14894624 -0.1544059 -0.114989445 -0.078518085 -0.11750985 0.020718588 -0.14531475
0.0039430954 0.004366639 0.079173684 -0.16043155 -0.030569896 0.010842574 0.041045807 -0.090294644

feature.0.bias f4 [32]
00000000: a6c8 103e 2358 003e 3d8a 8fbd 4cb4 13ba
00000010: e691 d8bc ae04 103d 4c19 9fbd 7877 d9bd
00000020: 7599 14bd d8f1 7fbd c34f cfbd 262d e53d
00000030: 6e93 d8bd 5a3e a73d 2dc8 c7bc 2a6d 583d
00000040: 7e85 48bd ebba a83d ee1e d13b 6f15 7d3d
00000050: a540 523d 076d 97bd 2b8b 413e 4a6b 79bd
00000060: 0a23 9c3c 449c 05be 088a 233e b4f7 2cbd
00000070: a76c a93d b29d 7a3d 0c5b 6d3d 4995 cf3d
0.14139041 0.12533621 -0.07008789 -0.00056344713 -0.026436757 0.035160713 -0.07768497 -0.1061849
-0.03627916 -0.0624865 -0.10122635 0.11190252 -0.10574995 0.081661895 -0.024387443 0.052838482
-0.048955433 0.08238777 0.006381861 0.06178802 0.05133118 -0.07393842 0.18900745 -0.060893334
0.019059677 -0.13047892 0.15970623 -0.042228416 0.08272677 0.061185546 0.057948157 0.10135896

feature.1.weight f4 [32]
00000000: cb92 633e cb81 5c3f e2df 153c 6170 553f
00000010: 8e01 373f 5577 093f 5124 1c3f 4fcc 103c
00000020: e2af 843e 4a8b 773e f30e 253f 1cfd 913e
00000030: 89f6 c4ba 8582 0b3f 9d01 323f af15 3f3f
00000040: afb5 3a3f ff93 aa3e cff2 323f db42 d23e
00000050: a4b7 613f eddf 1c3e b05f 223f c97d 333f
00000060: 1f65 8a3b 95d7 453e 74a8 db3e 6d52 be3e
00000070: 1022 4d3e 84cb 5d3e 9768 293f eaa0 7a3d
0.22223966 0.8613555 0.009147616 0.833746 0.7148675 0.5369771 0.60992914 0.008837773
0.25915438 0.24174228 0.64475936 0.2851342 -0.0015027086 0.5449603 0.6953371 0.7464246
0.7293348 0.33316037 0.69901747 0.41066632 0.8817084 0.15319796 0.6342726 0.7011381
0.0042234804 0.1932052 0.42901957 0.3717226 0.20032525 0.21659666 0.66175216 0.061188616

feature.1.bias f4 [32]
00000000: 4fb3 c0bd eb2d b6be a5db debc 5903 a5be
00000010: 7c84 8cbd 3493 f4bd 187d 9ebe d3b6 20bd
00000020: d9c4 6dbd 7f20 3ebe 8be4 2dbe c68b 5ebe
00000030: 41a6 f0bb 5735 f3bd 422f 5abd 9833 b8be
00000040: ae1c 14be 5c85 09bd 472e e5bd 136d a1be
00000050: 3dc0 11be db11 1ebe 715b b5bc 08b3 93be
00000060: 5421 d2bc 7d57 583c f456 12bd 927b 18be
00000070: 6b3e 06bd 6f6e c6bd 0cb3 f3bc b28e 02be
-0.094092004 -0.35581908 -0.027204344 -0.32229117 -0.06861207 -0.11942139 -0.30954814 -0.039236855
-0.058049057 -0.18567084 -0.16981713 -0.21733007 -0.0073440378 -0.11875408 -0.053267725 -0.35976863
-0.14464065 -0.033574447 -0.11190467 -0.3152853 -0.1423349 -0.15436499 -0.02213833 -0.28847528
-0.025650658 0.013204453 -0.035727456 -0.14890888 -0.03277437 -0.09689032 -0.029748462 -0.12749746

feature.1.running_mean f4 [32]
00000000: 44da 8ebe 68df 553e fd7a 9fbe 3bbe 1f3d
00000010: cf47 f6bc b753 2b3d 46de bd3e babb 143e
00000020: 7014 1ebf 9deb 083e cc50 c5bd a81d b93e
00000030: 67eb d2be e301 893d 4a92 c8bc 1e01 543d
00000040: cc33 e6bd cf04 d53d e0b2 133c 54a0 813c
00000050: 24c1 5d3d c5fb acbe 18de 4c3e 5c99 b3bd
00000060: 3ade b33e 8536 763e 2c24 1a3e 0dda a93e
00000070: 0040 213f 8611 54bd 8d49 973d b7f1 aebe
-0.27900898 0.20886004 -0.3114852 0.038999777 -0.030063538 0.041827884 0.37083644 0.14524737
-0.61749935 0.1337113 -0.096345514 0.36155438 -0.41195223 0.06689813 -0.024483819 0.051758878
-0.11240348 0.10401308 0.009014815 0.01582352 0.05413927 -0.33785835 0.20006597 -0.08769485
0.35130483 0.24044235 0.15052861 0.33174172 0.6298828 -0.051774524 0.073870756 -0.3416879

feature.1.running_var f4 [32]
00000000: 1ea4 a23d 10fd ac3c c71d d73c f71a bf3c
00000010: 457b 003d 2840 8a3d 511d c53d aa88 bc3c
00000020: 8373 593e d8a0 703d 04f0 e83d 9f87 203e
00000030: 46ad 3d3d c8a6 1d3d 37c5 6a3d cc5e fe3c
00000040: e180 033e 28fd b03d 1128 303d c6b4 ca3d
00000050: 38fe da3c be06 ad3d 133c 9f3d d80b 533d
00000060: acb5 953d 529a 883d 0397 9b3c 8ec4 8c3d
00000070: fd60 333e 63d0 8d3d b227 7b3d e48c 0a3e
0.07941459 0.021116763 0.026259316 0.023328288 0.03136756 0.06750518 0.09624732 0.023014385
0.2123547 0.058747143 0.11373904 0.15676735 0.046307825 0.038489133 0.057316985 0.031051062
0.12842132 0.08642036 0.04300696 0.09897761 0.02673255 0.084485516 0.0777513 0.051524967
0.07310042 0.06670059 0.018992906 0.06873427 0.17517467 0.06924512 0.061317153 0.13530308

feature.4.weight f4 [48, 32, 5, 5]
00000000: 8ec3 c53c db28 1b3d 8360 c5bd 9b7a 1fbe
00000010: 12ce c9bd 2a6e 813b 1f2b 043d fce2 693c
00000020: 4f38 6dbd 4e53 f2bd 8399 8cbd cf6b ca3c
00000030: 1b08 193e a43a b33d 5fe8 9abc ce69 2ebd
00000040: 34e5 1e3d 2abd 1a3e 112b da3d cd4d 49bc
00000050: 2df9 02be 6b17 713c bffc f43d e3ac 143e
00000060: 4a7d adbb aabc 79bd 3660 253d f003 433d
00000070: c3f5 1d3d 9d1b 6bbc 7c42 fabb f06a dfbb
00000080: 45fe 173e 9f74 043e e6b2 ab3d abd4 3bbc
00000090: e3df 3fbd 0d74 813d 5cba f33d 4d18 7c3e
000000a0: 9083 0d3d 879d d23c 059a a6bc 17de 1fbd
000000b0: c9f1 613d 4eae 7d3c 0259 91bc 3df9 96bd
000000c0: faff 53bd 0661 8abb 5365 e9bc 1318 3fbd
000000d0: dd93 39bc d962 6a3c af98 e43c daf8 b43c
000000e0: 822b 2dbd d5f2 02bd 9765 a1bc b2de c93c
000000f0: a5c5 bd3c f3a2 17bb 657d c73c ed3c abbc
00000100: a606 9d3a 5ebf a6bc 16b1 78bc 4f2a d8bb
00000110: 3fed 83bb 10c0 c13c fd74 1a3d f3a0 973c
00000120: cbe5 8f3b e93f 033c b52c 03bd 070d 573c
00000130: b41a 75bd 2833 bcbd 4c03 d0bd 0feb 06be
00000140: c879 a7bc 5f52 69bd 498f 48bd 1b43 e5bd
00000150: e4ec 9ebd 2da0 0d3d 9fb2 eabc aba8 e5bc
00000160: 5f03 3cbd 4872 8bbc 3972 1b3d b21f 013d
00000170: 4f21 63ba 72d8 32ba 7764 49bd 316d 063b
00000180: a985 9b3c 5a7f 833c b422 a23c b7f4 a4bd
00000190: c13e 5d3c d451 5dbd 0b56 3abe aaec 29be
000001a0: 2e0a b9bd 4c99 5dbd 9366 3d3c 573d 81bc
000001b0: 01b1 00be c87e 55bd 8bed 9b3c eed5 903c
000001c0: 5ea3 033d 9f10 fd3d f4c5 bf3c de91 08bd
000001d0: 5e61 5f3c 5fc3 6b3d 3641 413e 3a97 d73d
000001e0: 033f a0bd ed4e 01bd 6086 803d 68b3 153e
000001f0: 00d0 d43b 7b2e ccbd 74eb a0bb 92c5 3d3d
00000200: 0e13 0e3c 36c8 223d 8fe4 a93b dab1 8d3d
00000210: f649 363d f650 e83c a9e3 593d af23 4fbb
00000220: 7ede e43c c222 2b3d 3799 103c 398f 4e3d
00000230: ffc7 b1bd f2c9 9ebd 292b 91bc f62e 203d
00000240: c87b 0c39 facf 6dbd cc47 95bd e79d ef3c
00000250: c758 013c 1e6c 60bd 7ea0 8ebd 9044 a8bd
00000260: e77f ddbd ee5d 8abd dcd6 4d3c 4e47 12bd
00000270: 3018 6fbd 1913 dcbd a3cb 9cbd 35ea 33bc
00000280: abfa 4fbc b288 b83c 17bd c2bc 0fc7 0fbd
00000290: 8f60 3c3c ae4c 103d 598a cb3d f32a 283d
000002a0: 889b 52bc 3d3d 85bd 9ec4 593b 0b48 3f3b
000002b0: f0b2 9d3c 575a a0bd 00a4 59bd eef3 d3bc
000002c0: b9b0 f73c 96e4 3b3c 0eba 883c 6f72 d83c
000002d0: 2224 c73c 0b76 ccbc 8115 9e3b aecc 03bd
000002e0: 8b79 a83b 6d1f 18bd b94e 093d b6d4 2fbb
000002f0: af1f ca3b 895d 4fbc 1505 1dba 07ac f0bc
00000300: a3d6 0cbd 5818 ee3c 15a4 cf3c 1416 6abc
00000310: 61f2 b9bc 5bb4 2ebc d620 8b3c fc2f f2bc
00000320: 794f 6e3c c137 e13d f0f5 ed3d a0ba 183e
00000330: 2c1e f03c 045f ca3d f1d4 a33d 553e 4e3a
00000340: 006c 633d ecac f8bc ce71 023c 3ba9 e539
00000350: c9ce 8cbd 9a41 43bc 33e7 31bd a1f3 823b
00000360: 8ef0 4cbd 486d d4bd 86f0 8fbd ae20 c1bd
00000370: 6a93 863d 8e80 95ba 21f6 b6bd 56ef 11be
00000380: 22b9 16be ca99 03bc c719 bebb ce58 a03a
00000390: d610 d7bc 927c 383d 501b 2abd 75ca 13bd
000003a0: 3d82 1dbd c6a3 b7bd 39a4 9dbc 87f9 46bc
000003b0: a1a6 8e3c b618 a63b 9242 99bd acc6 25bd
000003c0: 6fb8 2dbd 579f 21bd 8020 15bd a816 00be
000003d0: df60 70bd b064 b0bb 197a 61bc 775c 9d3b
000003e0: 5ebc 8bbc 3791 21bb 8b0f 12bd 1cbb 30bd
000003f0: e192 fd3c c4d5 733c a15a af3d 3ced 953c
0.0241411 0.03788076 -0.09637549 -0.15574114 -0.09853758 0.0039499 0.032267686 0.014275309
-0.05791503 -0.11832295 -0.068652175 0.02470961 0.14944498 0.08751419 -0.018909631 -0.042581372
0.038792804 0.15111223 0.106527455 -0.012286616 -0.12790366 0.014715056 0.1196227 0.14519076
-0.0052944766 -0.06097094 0.040374957 0.047611177 0.038564455 -0.014349845 -0.00763732 -0.006818168
0.1484309 0.12935112 0.083837315 -0.011464278 -0.046844374 0.06320963 0.119007796 0.24618645
0.034549296 0.02570988 -0.020337114 -0.03903016 0.055162225 0.015483452 -0.017742638 -0.07371757
-0.05175779 -0.004222992 -0.028490698 -0.04665382 -0.011326757 0.014305794 0.027904836 0.022091318
-0.04227782 -0.031969864 -0.019701762 0.024642322 0.023165533 -0.0023137897 0.024351785 -0.020903075
0.0011980131 -0.020354923 -0.015178939 -0.0065968405 -0.0040260847 0.023651153 0.037709225 0.018509364
0.004391407 0.008010843 -0.032025058 0.013125665 -0.05983992 -0.09189445 -0.10156879 -0.13175605
-0.020443812 -0.05696332 -0.048964772 -0.1119444 -0.07760027 0.034576584 -0.028649626 -0.028034529
-0.045901652 -0.017022267 0.037950728 0.031524368 -0.0008664326 -0.0006822414 -0.049168076 0.002051186
0.018984633 0.016051937 0.019791938 -0.08054488 0.013503731 -0.054033116 -0.18196885 -0.16594186
-0.09035145 -0.054101273 0.0115601 -0.01577632 -0.12567522 -0.05212286 0.019034168 0.017680135
0.03213822 0.12356686 0.023409821 -0.033342235 0.013634054 0.057559367 0.18872532 0.10526891
-0.078245185 -0.03156941 0.0627563 0.1461922 0.006494522 -0.09969803 -0.0049108807 0.046330996
0.008671535 0.039741717 0.005184717 0.06918688 0.04450413 0.028358918 0.05319563 -0.0031606962
0.027938124 0.041781195 0.008825592 0.050429557 -0.08680724 -0.07753362 -0.017720776 0.039107285
0.00013397553 -0.05805967 -0.07289085 0.029250098 0.007894701 -0.05479061 -0.06964205 -0.08216202
-0.10815411 -0.06756197 0.0125634335 -0.035712533 -0.058372676 -0.1074583 -0.07656028 -0.010981132
-0.012694041 0.022526119 -0.023771806 -0.035101946 0.011497631 0.035229377 0.09938497 0.041056585
-0.012854464 -0.06505821 0.0033228765 0.0029187228 0.019250363 -0.07829731 -0.05313492 -0.02587315
0.030235635 0.011468073 0.01669028 0.026421754 0.024309222 -0.024958631 0.004824341 -0.03217762
0.005141442 -0.037139345 0.03352234 -0.0026829666 0.0061683278 -0.012656578 -0.0005989832 -0.029378904
-0.03438438 0.029064342 0.025346795 -0.01428749 -0.022698583 -0.010663117 0.01698343 -0.029563896
0.014545315 0.10996962 0.116191745 0.14914942 0.029311262 0.09881404 0.079996 0.00078675646
0.05552292 -0.030355893 0.007961703 0.0004380437 -0.06875379 -0.011917496 -0.04343338 0.003996328
-0.0500341 -0.10372406 -0.07028298 -0.09430061 0.06571086 -0.001140611 -0.08933664 -0.14251456
-0.1471906 -0.008032272 -0.0058014127 0.0012233497 -0.026253145 0.045040675 -0.041529953 -0.03608175
-0.038454283 -0.08966784 -0.019243347 -0.012144453 0.01741344 0.0050688637 -0.074834004 -0.04047267
-0.042412218 -0.0394586 -0.036407948 -0.12508643 -0.058686133 -0.0053830966 -0.0137620205 0.0048022824
-0.017057594 -0.0024653205 -0.035659354 -0.04314719 0.030953826 0.014882509 0.08562208 0.018301599

feature.4.bias f4 [48]
00000000: facc 983c b304 eebc b2a5 cd3b 3e7c 1bba
00000010: 3289 533b f319 593c 06c7 963c 85ed 1bbd
00000020: c25b 3ebc 5ec1 c63c eeef 4bbc 9e8b 21bc
00000030: 268d 9f3c 4571 a5bc 5589 413d 4a04 90bc
00000040: 7298 4abc 82ef a33c a3f3 ba3c 3f6e 34bd
00000050: 187a 273c 676e d4bc 1633 e1bc a2bd fd39
00000060: 0933 a93c 0ad9 96bb 49b7 fc3c 724d 043b
00000070: 93d4 83bb 2f44 e3bc 6ba3 2cbd 891e 75bc
00000080: a684 1fbd 2d87 073d 340a 62bc 45a6 9ebb
00000090: 2448 193d 7bb4 a7bc 963c 8ebb c30e 003c
000000a0: a445 81bc 298f e53c 8d5a b23c 0e46 0abd
000000b0: c505 0f3b 12de 9fbc dabb 1ebd 2f36 02bc
0.018652428 -0.029054975 0.006275856 -0.0005931294 0.003227782 0.013250816 0.018405449 -0.038068313
-0.011618556 0.024262127 -0.01244734 -0.0098599475 0.019476485 -0.020195613 0.04725011 -0.01758017
-0.012365447 0.020011667 0.022821253 -0.04405045 0.0102219805 -0.02593155 -0.02749018 0.00048397208
0.020654218 -0.00460351 0.030849116 0.0020187763 -0.0040231436 -0.027742473 -0.042148035 -0.014960893
-0.038944863 0.033087898 -0.013796378 -0.004841598 0.037422314 -0.020471802 -0.0043407185 0.0078160195
-0.015780278 0.028022366 0.021771694 -0.033758216 0.0021823507 -0.019515071 -0.038753368 -0.007947489

feature.5.weight f4 [48]
00000000: bd1c c43e 9187 083f 5157 183f 4b3f 1b3f
00000010: 4899 9b3e dbe4 983e 757b 8d3e f31a 083f
00000020: 06dd df3e 22e4 c23e cafd 0e3f b464 bb3e
00000030: f4b0 363f c8b2 163f cb3a fd3e 8d27 943e
00000040: 6f89 ad3e 2bf6 b63e 2869 f53e 0bf8 d53e
00000050: dd9f fe3e 7f03 a93e 8a12 b03e 4fc3 ee3e
00000060: acb7 113f f825 0b3f 2a47 e33e a982 5a3f
00000070: f0f7 d53e 74e7 473f deec 5a3f fa8a fe3e
00000080: 771d 9b3e 39a7 ff3e 3156 0a3f 3ea9 d53e
00000090: f72c 153f 5399 523f 3129 cd3e f609 e13e
000000a0: 839d 5f3f 1b77 123f 489f 603f f344 d33e
000000b0: 9df4 cc3e 2c17 1a3f 8ab2 2f3f 84f6 363f
0.38303176 0.5333186 0.59508234 0.6064345 0.30390382 0.29862103 0.27633253 0.5316612
0.43723315 0.38064677 0.55856 0.36600268 0.7136376 0.5886655 0.49458918 0.28936425
0.33893916 0.35734686 0.4793179 0.41790804 0.4973134 0.3301048 0.34389144 0.46633384
0.56920886 0.5435481 0.4439023 0.8535562 0.41790724 0.78087544 0.8551768 0.49715406
0.30295917 0.49932268 0.5403777 0.41730684 0.58271736 0.82265204 0.4007049 0.43952912
0.8734972 0.5721299 0.87743044 0.41263542 0.40030375 0.6019161 0.68631804 0.71469903

feature.5.bias f4 [48]
00000000: bcf5 35bd 0727 40bc dca8 96bd 8088 b3be
00000010: 5df7 943e 4364 0a3d 38ea 183c 7559 eb3d
00000020: 6712 25bd 1c2c 8abd b1d5 c4be 4cc2 cabd
00000030: bce7 21be b2e7 18be 8b78 bebd e61f 4fbd
00000040: 8582 87bc 3aa8 263d 382e aaba 6fad 503c
00000050: e262 72bc 5e86 0b3e e375 94b9 c2fa 13bd
00000060: 9e57 03be f621 c0be c178 16be 821d 063e
00000070: 6f9c 1bbd 22b8 53be bd32 ef3d b9bd 00bd
00000080: b253 3bbd 3e85 e3bd c3e4 8abd 38c2 8a3d
00000090: 1b60 96bc d80d 033d 3873 edbd f388 0fbe
000000a0: e24d 8cbd 4188 a9be 9aea d9bd 8d08 2a3d
000000b0: 6d16 91bd c2d5 14bd 8e30 9fbe 15b3 03bd
-0.044423804 -0.011728055 -0.07356426 -0.3506508 0.29094973 0.033787023 0.009333186 0.11491672
-0.040300753 -0.067466944 -0.38444284 -0.099003404 -0.15811056 -0.14932135 -0.093003355 -0.05056753
-0.016541729 0.040687777 -0.0012983745 0.012736662 -0.014794083 0.13625476 -0.00028316592 -0.036127813
-0.12826392 -0.3752591 -0.14694501 0.13097194 -0.037990984 -0.2067571 0.116795994 -0.031430934
-0.045734115 -0.11109398 -0.06781914 0.067753255 -0.018356374 0.031995624 -0.11594242 -0.14017086
-0.068507925 -0.33111766 -0.1064045 0.04151206 -0.070843555 -0.036336668 -0.31091732 -0.032153208

feature.5.running_mean f4 [48]
00000000: d4c3 20bf 797a 6abf 7761 70bf 5561 69bf
00000010: 798a 28bf b428 a3bc 4cc3 66bf 25b7 0cbf
00000020: 6e8b 1abf c8a3 9bbe 9e03 b1bf d29f 62bf
00000030: 81e9 8ebf 5d6b 4fbf c23b 47bf 9279 0bbf
00000040: 1480 55bf 3532 44be c419 0dbf b4a3 49bf
00000050: 15ed 74bf a6b8 b7bf aa47 2dbf 481e 02bf
00000060: 9fee 3dbf 1edf a5bf a470 2abf 15e2 27bf
00000070: 52b4 debe 57cf bebe f708 04bf 42fe d2be
00000080: a9f1 3fbf ab14 2abf 6606 0abf 3940 32bf
00000090: 91b2 12bf d024 e0be ae7e 46bf f4bd c7be
000000a0: 3154 82bf f1ea 38bf f491 babe 0285 14bf
000000b0: 3cc2 d6be f608 9fbe 1d37 90bf 99fd c8be
-0.6279881 -0.9159313 -0.9389872 -0.9116414 -0.6583629 -0.01991687 -0.9014175 -0.54966956
-0.60369 -0.30398393 -1.3829229 -0.88525116 -1.116501 -0.810232 -0.7782556 -0.54482377
-0.83398557 -0.19159777 -0.5511744 -0.78765416 -0.9567426 -1.4353225 -0.67687476 -0.50827456
-0.7419223 -1.2958715 -0.66578126 -0.6557935 -0.43496948 -0.37267563 -0.5157618 -0.41209608
-0.7497812 -0.66437787 -0.53916013 -0.69629246 -0.5730372 -0.43778086 -0.7753705 -0.3901211
-1.0181943 -0.7223349 -0.36439478 -0.58015454 -0.41945064 -0.31061524 -1.1266819 -0.3925598

feature.5.running_var f4 [48]
00000000: ccd8 273f 6f74 843f 3010 f63f 887a 873f
00000010: ff74 3a40 a0a3 833f d92a 5e3f 8582 4c3f
00000020: 8e8c 0b3f dc98 ef3e 3456 c53f 9c24 883f
00000030: a055 423f e57a 873f ed32 6c3f 47be 013f
00000040: 90ae 7d3f b46e 4e3f 557d 4c3f 73ec a53f
00000050: ec24 853f c30f e13f b583 873f 2235 973f
00000060: 75ba 653f 105c ff3f 807e 5a3f 9cb3 da3f
00000070: 2f98 1d3f 192d 103f 60a8 c03f 127d 603f
00000080: 94fc 9f3f 2bf5 a73f 68ea 773f c085 cb3f
00000090: 2ad5 333f cfbc 8a3f 5357 7d3f e369 633f
000000a0: 4641 673f b8d4 843f 4747 003f b377 7c3f
000000b0: 5133 5f3f 1359 0a3f 0be0 a03f 7e46 4c3f
0.6556518 1.0348033 1.922369 1.0584269 2.9133909 1.0284309 0.8678413 0.79886657
0.54511344 0.4679631 1.5416932 1.0636172 0.75911903 1.058438 0.92265207 0.50680965
0.99094486 0.8063767 0.7987874 1.2962784 1.0401893 1.7582935 1.0587069 1.181309
0.89737636 1.994997 0.85349274 1.7086062 0.6156034 0.56318814 1.5051384 0.8769084
1.2498956 1.3121694 0.9684205 1.5900192 0.7024714 1.083887 0.9896137 0.88833445
0.90333974 1.0377417 0.5010876 0.98620147 0.8718768 0.54042166 1.2568372 0.7979506

class_classifier.0.weight f4 [100, 768]
00000000: 87a3 943b 967a d93d 52ac dc3d c128 0b3d
00000010: 361a 0dbd 4e2c 953d 831f 86bd 1113 59bd
00000020: 8d43 b4bb 2141 41bd f586 0a3c 94ff b83c
00000030: ac08 f3bd c37c d7bd d805 3abc 5dbf 973d
00000040: 6b16 f23c cf69 683d 9758 d43b 083f 31bd
00000050: 95e2 7e3c 841c bd3c 5a06 a1bd 24b7 d2bb
00000060: ee0a 503d 8738 f93c 6d14 1ebc 99c3 e83a
00000070: b163 64bc 812e 393d 54f9 993d b4ac ba3b
00000080: cb53 773d db9a 4fbc 39d8 203b 6436 91bd
00000090: 911a d23c 1d58 923d 514f 823d d7ee 0cbd
000000a0: c2fb bfbc 5c7a 303c 2efd f6bc 5d6d febb
000000b0: 925f 033d bdd7 65bd db9e 10bd 9bdc 1cbc
000000c0: 3030 86bc 4e69 a83d 1b03 86bb 6e37 0fbb
000000d0: 69d1 4a3d 6f7b 033d 814f 9abd 486f 75bb
000000e0: 3b61 90bb 5ba4 b8bc 9fc5 51bd 03a2 86bc
000000f0: a85f 803d d9a4 7c3d 0382 16bd e94b e8bb
00000100: a190 793b cf7b 8dbd 5574 80bd 1286 ddbc
00000110: 79c5 7e3c 662d 693c 12f3 a0bc 8c61 b3bc
00000120: 5c2c 98bc 6429 3e3c b640 653d b448 373c
00000130: e38d b8bc b8d0 123c cc89 9a3d 4de7 ec3b
00000140: fe19 873d ee74 9fbc f20e f7bd 8c7f b0bd
00000150: 959c 053d 6413 093c 72a6 5bbd 3cd9 cdbc
00000160: 50b5 323d 3dd5 3e3d 834b ba3a 4ce8 933d
00000170: ad1f 9dbb be8f 213d 5d64 36bd 405c dbbc
00000180: 6b9f e0bc 2bfd 8a3b 055e 65bd ace7 733d
00000190: e010 8b3b 332a a83c b935 1dbd 24fc 0d3d
000001a0: 08ae c4bc 9ec4 913c d64a 55bd 3a2b ca3c
000001b0: 30a9 4cbd 8234 3cbd 8728 f93c 542f 223e
000001c0: edf9 473c a2ef 98bd 321c ebbc c992 2d3d
000001d0: dacb 063d debf 5aba 4fac 64bd 69ef 1d3d
000001e0: 3e19 64bd d3b9 89bd 05af 903c c382 6b3d
000001f0: 60bd 19bc 4335 483d b68a bb3c e2e0 453d
00000200: 0266 3bbd 7908 7a3b d67f f7bc ae44 a13c
00000210: eef4 803c d4bf 543d 76d2 f6bc 3693 a6bd
00000220: ca6a 183c 292a e8bc 90bc ad3c f110 d33c
00000230: f668 10bd 3265 62bc 72a0 833d a266 ad3d
00000240: e93e 63bc 09cc 9f3d 5a5d 153d e095 01bd
00000250: 9384 6dbd f991 823c 4819 823d c7a8 4b3d
00000260: 130e a1bc 3a21 6b3d c6bb 0d3d ee50 13bd
00000270: e4f3 9dbc 1766 90bc b02c 98bd 6ea1 e5bd
00000280: 066e 1a3d 43c9 fa3c 388a ae3d af9c e13c
00000290: 0d7e 44bd 4d37 343c 1b31 6fbc f8df 88bb
000002a0: b23c b03c 2c88 6b3c 5068 7cbb 743d 9dbc
000002b0: a081 0c3d d79c a23c 3ecf eabc b5d6 4a3d
000002c0: e76f 693d 8bed 913d 0213 023e df49 c63d
000002d0: fdf6 8d3b 8bfc 9ebc 89a7 a83d 4371 e53c
000002e0: a71f 3d3d 17e3 cebb 2e9c 49bd ccc8 53bd
000002f0: 31c1 da3b 72f4 fd3a dbb7 87bd 7d50 07be
00000300: 5279 22bd 2466 f2bc f012 08bb dbe0 15bd
00000310: 105e a1bb 218e 8c3b 8e8a 0fbd ff56 4a3a
00000320: 029f 163d 3008 40bc b3bc 40bd 8af0 a13c
00000330: 0389 6c3d 3763 82bd 0e8e 3e3d aab3 a23d
00000340: 5d66 983c bd0e 3dbd 52b0 af3b 9bef d73c
00000350: 05ee 693b f4c2 96bc 3b0c a63c ab5e c4bc
00000360: 6929 87bc 6de5 fd3c 7047 123c 7c96 48bc
00000370: c3e4 1c3c 3510 b23d 1ce2 1d3c 4771 73bd
00000380: 65cc 593d 74c5 103e 6981 673d da8c 943b
00000390: 3c4e 3d3c acfb af3c df11 19bb 3955 06bd
000003a0: 7c69 3e3d 6366 6abc cd88 f83c 4f5e a3bc
000003b0: 3397 843d fdbc ab3d dbc2 dbbd 2383 0dbe
000003c0: 71b8 58bd 6a9b c7bd 8593 aabd 5da1 073d
000003d0: ec23 cdbb 67ef 09bd 58b5 7ebd a6c2 d43d
000003e0: b3dd 433b 1f69 87bd dbfe 2a3c 3111 8d3d
000003f0: 649f 233d 6628 9bbb ab3a 113e 2a1d 1b3e
0.0045360955 0.106190845 0.10775055 0.033974413 -0.034448825 0.07283841 -0.06548979 -0.0529967
-0.0055012167 -0.047181252 0.008455028 0.022582807 -0.118668884 -0.10521843 -0.011353932 0.074095465
0.029551705 0.056741532 0.0064802873 -0.043273002 0.015556951 0.023084886 -0.078625396 -0.0064305235
0.050791673 0.030422462 -0.009648425 0.0017758488 -0.013939784 0.045210365 0.07518259 0.0056968573
0.060382646 -0.012671198 0.0024542941 -0.07090452 0.025647433 0.071457125 0.06362785 -0.034407463
-0.023435477 0.01077136 -0.030150022 -0.007764502 0.032073565 -0.056113947 -0.035307746 -0.009574081
-0.0163804 0.0822321 -0.0040897257 -0.0021853107 0.049516115 0.032100137 -0.075346954 -0.0037450362
-0.004406122 -0.022539308 -0.051213857 -0.016434675 0.06268245 0.06168065 -0.036745083 -0.0070891273
0.003808059 -0.0690838 -0.062721886 -0.027041469 0.015550011 0.014232015 -0.019647155 -0.0218971
-0.01857584 0.011606548 0.055969916 0.011186767 -0.022528594 0.008960895 0.07545814 0.0072297216
0.065967545 -0.019464936 -0.120633975 -0.08618078 0.03262003 0.0083664395 -0.05362553 -0.025128
0.043629944 0.04659008 0.0014213178 0.072220415 -0.004795036 0.039443724 -0.044529308 -0.026777387
-0.027419766 0.0042416058 -0.055997867 0.05954711 0.004243955 0.020527935 -0.038381312 0.03466429
-0.024008766 0.01779395 -0.052073322 0.024678815 -0.049966037 -0.045948513 0.030414833 0.15838367
0.012205583 -0.07467581 -0.028699968 0.042376313 0.03290925 -0.00083446305 -0.05582839 0.038558397
-0.055688135 -0.06724896 0.01766158 0.05749775 -0.009383529 0.04887892 0.022893291 0.048310168
-0.04575158 0.0038152023 -0.030212324 0.01968607 0.015741792 0.051940754 -0.030129652 -0.08133547
0.009302804 -0.028340416 0.021208078 0.025764914 -0.03525635 -0.013818072 0.06427087 0.08466841
-0.013869979 0.078025885 0.03646598 -0.031637073 -0.05798776 0.015938746 0.06352478 0.049721505
-0.019660031 0.057404734 0.034602903 -0.035965852 -0.019281335 -0.017626805 -0.074303985 -0.11212431
0.037702583 0.030613547 0.08522457 0.027540533 -0.047971774 0.010999513 -0.01459911 -0.00417709
0.021513317 0.014375728 -0.0038514324 -0.019194342 0.034303308 0.019850178 -0.028663274 0.049521167
0.056991484 0.07125386 0.12702563 0.096820585 0.004332422 -0.019407531 0.0823508 0.028008109
0.046172764 -0.0063136923 -0.04922121 -0.051705167 0.0066758622 0.0019375219 -0.066268645 -0.13214298
-0.03966648 -0.02958972 -0.002076324 -0.036591392 -0.004924543 0.004289404 -0.035044245 0.0007718652
0.036772735 -0.011720702 -0.047054958 0.019768018 0.057747852 -0.0636658 0.046522193 0.079444245
0.018603498 -0.046156634 0.005361595 0.02635937 0.003569485 -0.018403508 0.020269504 -0.023970922
-0.016499238 0.030993188 0.008928165 -0.0122429095 0.009576025 0.086944975 0.009636428 -0.0594342
0.05317344 0.14137822 0.0565199 0.0045333924 0.011554297 0.021482311 -0.00233566 -0.03279612
0.046487316 -0.014306637 0.03033867 -0.01994243 0.064741515 0.08385656 -0.10730525 -0.13819556
-0.052910272 -0.0974644 -0.08328918 0.033112872 -0.0062603857 -0.033675577 -0.06218466 0.10388689
0.0029886782 -0.06611847 0.010436739 0.068880446 0.03994693 -0.0047350405 0.14182536 0.15147844

class_classifier.0.bias f4 [100]
00000000: 6f70 cebc a430 59bb ff07 1b3d 10e5 bb3b
00000010: bb6c ed3b f895 693a d28d b8bb 4e1e a93c
00000020: 87c0 fbbb ddfb bbbb 5131 0ebd ab53 6e3c
00000030: 64e4 c1bc 4f67 0ebc f6d0 0bbd e79a 0d3c
00000040: 810e 87bb e8f1 fc3c 54fe ffbc 94d2 a63c
00000050: 85a2 edbc 3555 583c 4faa 1ebc d04a 9f3c
00000060: 9024 f33c ea3c 11bd 2ba3 823a b5fe df3b
00000070: 9a76 dc3c 5c09 9e3c 4021 95bb 0de8 1e3d
00000080: 8ab6 ab3c 875d 8a3c 690c 76bc 555f 8d3c
00000090: 3545 86bc 2fe8 00bd f005 d23b 78af dc3c
000000a0: bb7a 3bbc 977b 573b 8192 e53c 84ee 163c
000000b0: 1f18 343c c22c 983c beb5 e3bc 7d99 65bb
000000c0: 0561 943c 545d a9bb e6a6 c43c d59c 0bbc
000000d0: 1378 923c ddb9 e93c ec10 c7bc 5263 b03c
000000e0: b706 e3bc fa1f 98ba 1d87 92bc c463 a03c
000000f0: ca21 b8bc 43d3 b2bc 6847 5dbb 7142 71bb
00000100: fd11 5cbb cd53 99bb f28f 933c daf4 e23c
00000110: 4ca9 bfbc fd09 92bb 84bc a9bb 54b1 303c
00000120: 2377 1c3c 9b80 0abb 5aa9 b33c 352b c83c
00000130: 3886 b1bc 6ae3 11bd bdaf cabc 812b e1bc
00000140: 7001 32bc 63d1 07bd 2a02 0cbd 54cc a1bc
00000150: 5ac5 353c 6d3d e83c a647 e9bb 1fdd b4bc
00000160: 389b 0e3b d021 e6bc e15c b73c c3ad 833c
00000170: 0474 fb3c c4d2 533b d5d8 ee3b ae3f c2bc
00000180: 3562 89bc edfb 2fbc 488d 293c 0906 bbbc
-0.025200097 -0.0033140564 0.037849423 0.0057340935 0.0072456277 0.0008910592 -0.0056321407 0.020644333
-0.007682863 -0.0057368116 -0.034715 0.014546315 -0.023668475 -0.008691623 -0.034134828 0.008642889
-0.004121602 0.030877069 -0.031249203 0.020364083 -0.02900816 0.013203909 -0.009684159 0.019444853
0.02968052 -0.035458483 0.0009966841 0.0068357834 0.026912022 0.019291572 -0.004551083 0.03879552
0.020961065 0.0168903 -0.015017607 0.017257372 -0.016390422 -0.031471428 0.006409399 0.026939139
-0.011442835 0.0032880062 0.02802396 0.00921214 0.010992079 0.01857603 -0.027796622 -0.0035034113
0.018112669 -0.0051685963 0.024005365 -0.008521278 0.017879521 0.02853101 -0.024300061 0.021531735
-0.027713163 -0.001160621 -0.017886693 0.019578822 -0.02247705 -0.021829253 -0.0033764485 -0.0036813284
-0.0033580058 -0.0046791793 0.018012974 0.027704645 -0.023396157 -0.004456757 -0.0051799435 0.010784466
0.009549889 -0.0021133784 0.021931339 0.024434665 -0.021670446 -0.03561727 -0.024742002 -0.027486565
-0.010864601 -0.03315867 -0.03418175 -0.019750752 0.011094416 0.028349603 -0.007119137 -0.022078095
0.0021759998 -0.028092295 0.022383155 0.016074067 0.030694969 0.003232167 0.007289032 -0.023712005
-0.016770462 -0.010741216 0.0103486255 -0.022830026

class_classifier.1.weight f4 [100]
00000000: fab4 093f 6338 233f 87be 403f a238 123f
00000010: 674b 683f 3b76 5e3f 0c13 3f3f f10e 4b3f
00000020: bc13 513f a6f0 023f c18b b23e 3169 e73e
00000030: b255 f23e 7bc8 543f a0ec 4c3f 8604 cf3e
00000040: d9f4 d13e a0be 393f e3d1 c43e 82fc fa3e
00000050: 8a12 873e 3145 a63e 8c39 bd3e 1780 003f
00000060: 8f67 923e cdee 4f3f 18ec 573f 11f9 c93e
00000070: 3eb4 3a3f 857b 2d3f fda5 d63e 4de1 463f
00000080: 4825 d43e 9532 233f 9d2d 433f 569b 203f
00000090: dfc3 963e df02 983e a077 2c3f f579 313f
000000a0: 84a8 bc3e 4625 593f 016d 823e b355 333c
000000b0: a5fe 4f3f 8ddf 963e cf73 f73e 5217 a23e
000000c0: 419a d93e 9583 8d3e fb1b ed3e 0490 313f
000000d0: 4b94 aa3e cc20 a83e 8f5b ec3e df74 ed3e
000000e0: 8560 593f 7e8a 5c3f 6a9d b13e 3624 1d3f
000000f0: f4c0 1f3f fa93 2d3f ea42 0e3f a559 c33e
00000100: 3598 a93e 7246 e23e 3bf1 223f 9823 fb3e
00000110: 5b33 0e3f f453 123f d664 a33e 1a9b 903e
00000120: 75d0 803e 11b2 613f 371d 893e 11ce bb3e
00000130: 80ba 103f 5857 393f 4c1c 093f f025 c43e
00000140: f85e 033f 8901 683e 72b1 ae3e 63e0 f63e
00000150: 3423 503f 19bf 2f3f 4e4a 183f 4e02 f03e
00000160: d967 d53e 457a 4e3f 4e93 943e 28dc 833e
00000170: fca1 1e3f 476d 053f dd5c 643f 3c48 553f
00000180: 1706 1b3f a589 433f bea2 393f 25d1 933e
0.53791773 0.63757914 0.7529072 0.57117665 0.90740055 0.86899155 0.7463844 0.79319674
0.8167074 0.5114845 0.3487225 0.45197442 0.47331005 0.8311841 0.8004856 0.4043314
0.41007116 0.72556496 0.3844138 0.49020773 0.26381332 0.32474664 0.36957967 0.5019545
0.28594634 0.81223756 0.84344625 0.39447835 0.7293128 0.677666 0.41923514 0.7768753
0.41434693 0.6374906 0.76241475 0.62737024 0.29446313 0.2968969 0.67370033 0.69326717
0.36847317 0.848225 0.25473788 0.010945725 0.8124793 0.2946743 0.48330542 0.31658417
0.425005 0.27639452 0.4631041 0.69360375 0.33316264 0.32837522 0.46163604 0.46378228
0.849129 0.8614882 0.3469041 0.6138338 0.624038 0.6780392 0.5557085 0.3815433
0.33123937 0.4419437 0.6364934 0.49050593 0.5554711 0.5715935 0.3191287 0.28243333
0.2515904 0.8816233 0.26780102 0.36680654 0.56534576 0.723989 0.535588 0.38310194
0.51316786 0.22656836 0.34119755 0.48218068 0.81303716 0.68650967 0.5948838 0.46876758
0.41680792 0.8065532 0.29018635 0.25753903 0.6196592 0.5211987 0.892042 0.83313346
0.6055617 0.76381904 0.7251395 0.28870502

class_classifier.1.bias f4 [100]
00000000: b80a b9bc 3f8f f2bd ee07 e0bd 7919 2abe
00000010: 2266 b9bd e3f9 05be 3e4e bc3c d568 fbbd
00000020: 137c cdbd da02 8abd c60e d83b 20bb dabd
00000030: f18f 02bd 5353 08be 95f0 ebbd 731f 96bd
00000040: cbd1 fa3c 64a5 01be df8a dd3c de14 74bd
00000050: eefd 9bbd b09a febb f127 71bd 33c8 d1bd
00000060: 918d 8d3c a48f 27be b06d 81bd da39 0abe
00000070: 0637 09be b648 24be 2666 78bc 94ba 0bbe
00000080: 23cc 9ebc e2ef cdbd 51ab 12be 7c3a d7bd
00000090: 09f6 643d e4fb a93a ce80 14be 75e9 84bd
000000a0: 6f22 a2bd 2a92 e5bd 3c30 04bd 448e 37bd
000000b0: 9097 50be d7d2 e8bc 43e0 0dbd 4d06 9dbd
000000c0: 0008 88bd 314b 9fbd ee60 cdbd eced 15be
000000d0: 3cbc afbd f971 08bd 2237 e93c 1c69 3ebd
000000e0: 0e5e f6bd 83fc fcbd 36aa 34bc c187 69bd
000000f0: f29e c9bd b4b3 36bd c550 8fbc 240f 88bc
00000100: 7603 39bd e5a7 053c 24b5 17be f013 e0bd
00000110: 540b 91bd 90dd b5bd c6ca 7fbd 2118 5bbc
00000120: a91f 083c b27e 30bd 6883 e3bc bd8a 153c
00000130: a73c 4cbd bfe0 72be 0616 ebba b0ed d8bd
00000140: 33d0 11bd a65d b3bc c1be 10bd d342 61ba
00000150: c627 a1bd d379 f7bd 2deb bbbd 17b7 54bd
00000160: d838 0fbd cc7f 88bd 048e 59bd 7576 753c
00000170: fb94 b8bd b714 8ebd 2673 0fbe 21ed 1ebe
00000180: b5fc 11be 2625 46be 283b 02be 8228 4e3d
-0.022588119 -0.11843728 -0.109390125 -0.1661128 -0.090526834 -0.13083605 0.022986528 -0.122758545
-0.10033431 -0.06738825 0.006593558 -0.106802225 -0.031875554 -0.13313036 -0.11520497 -0.07330217
0.030617615 -0.12660748 0.027043758 -0.059590213 -0.076167926 -0.007769905 -0.05887598 -0.10243263
0.017279418 -0.16363388 -0.06319749 -0.13498631 -0.13399896 -0.16043362 -0.015161073 -0.13645393
-0.01938445 -0.1005552 -0.14323165 -0.10509202 0.0558987 0.0012968746 -0.1450226 -0.06489841
-0.07916724 -0.11209519 -0.032272562 -0.04481341 -0.20370317 -0.028420849 -0.0346377 -0.076672174
-0.06642151 -0.077780135 -0.100282535 -0.14641541 -0.08580825 -0.033311818 0.028468672 -0.04648696
-0.12029658 -0.1235285 -0.01102691 -0.05701423 -0.098447695 -0.044604972 -0.017494569 -0.016608782
-0.045169316 0.008157705 -0.14815193 -0.10941303 -0.07082239 -0.0888015 -0.06244924 -0.013372452
0.00830833 -0.043089576 -0.02777262 0.009127316 -0.04986253 -0.23718546 -0.0017935641 -0.1059221
-0.035598945 -0.021895241 -0.035338167 -0.00085930264 -0.07868914 -0.12083783 -0.091757156 -0.05193242
-0.03496632 -0.06665 -0.053113952 0.014981856 -0.09012791 -0.06937545 -0.1400877 -0.15520145
-0.14256556 -0.19350109 -0.12717879 0.0503316

class_classifier.1.running_mean f4 [100]
00000000: 5437 c9be f55f 22bf f83e 06bf bf2f bbbe
00000010: a02a 25be ecbb 8dbd 7311 4bbe 7087 35bf
00000020: 2b55 29bf b478 afbe 5c3f b5be 4d6b 40bf
00000030: 8215 ecbe 09d6 723d 3e31 5ebe 2c2d bbbe
00000040: 5848 22bf 4f28 f3be 57c2 de3d 0746 a0bd
00000050: 5f89 4abf 0ed6 00bf 1f29 41bf dc6d e3be
00000060: 32c1 293d 2bc0 36bf 1a6d 4a3e 4423 0cbf
00000070: ab3a c1be ec7c c3be 86cf 09bf 845e 10bf
00000080: 9052 bbbe 7107 49be 13d0 0c3c 5239 48be
00000090: d192 a73c cf6a 8d3e 5a98 ecbe dece 11bf
000000a0: 61cc 14bf 5e71 3b3e 7f7b 0abf bee7 babf
000000b0: 4ba0 27bf 58f4 e839 f74c c8be 2bb3 ccbe
000000c0: 6a26 4dbe bcdb 21bf de6d 8cbe 55c4 eebe
000000d0: 8d96 2dbf 06f8 93be 5889 ca3e 968f 2ebf
000000e0: 915c 3bbe 2f8c 66be 05a3 c4be 6cf9 00bf
000000f0: b5ca 52be 4714 cb3d 3428 3c3d 6ee3 54bd
00000100: 17f5 1dbf 4ebd cbbe 9c2c 8abe 0e79 b0be
00000110: 7c88 57bf 1151 073e ba18 1fbf 337f 1b3d
00000120: 67a3 f7be dbb7 66bc 900b b6be 9f8f c43d
00000130: 91df bfbe c927 85be 5325 9cbe 225b 2fbf
00000140: 66f3 86be a291 68be 5d1f 803b 0c15 20be
00000150: a6f2 f6be d522 f2be 9837 9ebe 53ef 35be
00000160: 28e3 d1be c113 2dbe b46c 11bf c7a2 6c3e
00000170: 3e76 18bf cc82 06bf 2c98 e4be 2a9c 14bf
00000180: 3960 d23d 1073 1dbf f9c0 febe 65a2 dabe
-0.39300025 -0.6342767 -0.5243983 -0.36559865 -0.16129541 -0.06920609 -0.19830875 -0.70909786
-0.6614558 -0.34271777 -0.35399902 -0.7516373 -0.4611016 0.05928615 -0.21698472 -0.365579
-0.6339164 -0.4749169 0.10876911 -0.07825857 -0.7911586 -0.5032662 -0.7545337 -0.44419754
0.04144401 -0.71386975 0.19768181 -0.5474131 -0.37740073 -0.38181245 -0.5383228 -0.5639422
-0.36586428 -0.19631745 0.008594531 -0.19553116 0.02045575 0.2762055 -0.46209985 -0.5695628
-0.5812436 0.18304965 -0.5409469 -1.4601972 -0.6547896 0.0004443254 -0.3912122 -0.39980444
-0.20034185 -0.63225913 -0.27427572 -0.46634164 -0.6780785 -0.28900164 0.3955791 -0.68187845
-0.1829703 -0.22514413 -0.38405624 -0.5038059 -0.20585139 0.09915977 0.04593678 -0.051974706
-0.617021 -0.39792866 -0.2698716 -0.34467357 -0.84192634 0.13214518 -0.62147105 0.037963104
-0.48366854 -0.0140819205 -0.35555696 0.09597706 -0.37475255 -0.26006916 -0.30497226 -0.6849843
-0.26357573 -0.22711805 0.003909989 -0.15633029 -0.48232 -0.472922 -0.3090179 -0.17767076
-0.4099362 -0.16902067 -0.5680649 0.2310897 -0.59555423 -0.5254333 -0.44647348 -0.5805079
0.10272259 -0.61503696 -0.497566 -0.42702022

class_classifier.1.running_var f4 [100]
00000000: a4a3 ad3f 204a a73f a0fd a13f a5c2 c53f
00000010: 6bd8 643f e6aa 833f 627a 9f3f be4f 763f
00000020: 7df1 b83f 23e2 983f ce5e cf3f ab27 f93f
00000030: 2f4f 9e3f a8f1 aa3f e94e 6e3f ac01 953f
00000040: 487c d23f 15d1 b73f 0b36 983f d228 b03f
00000050: 457e f63f 94a1 db3f 506d 863f 505f 923f
00000060: d04f af3f eec8 a13f f514 bf3f a780 8c3f
00000070: e968 783f dbdc 803f 965c 993f 8bdc 9b3f
00000080: a969 aa3f f96c c43f 9d18 9f3f 09cf ca3f
00000090: c241 0f40 4608 d83f db8c 9d3f 2a03 5e3f
000000a0: 5a49 8d3f 0c48 b13f bb64 1040 7085 4f3f
000000b0: 0026 993f f813 a83f 2b0b b13f bec4 fb3f
000000c0: efc8 c03f 8219 0040 3a6c 983f c0bb b33f
000000d0: 1f58 d53f 9252 a83f 847f eb3f fa0a d63f
000000e0: ef4e 6f3f 2841 843f 05bc e13f 0bf8 993f
000000f0: d96d a43f 14bd ae3f cb25 923f 9420 953f
00000100: 4701 9e3f 0fd4 993f 8492 ac3f e50e 873f
00000110: 851a 823f f4b6 9d3f c207 e43f f193 f23f
00000120: bf59 0140 21c5 b03f 9c70 c33f 26b1 0e40
00000130: b409 833f ae00 963f a0fe 943f 4557 a83f
00000140: 8756 a83f b4cd 0840 0899 d43f 730d 703f
00000150: 71fa b73f 3c78 993f cb69 c43f 66d2 c53f
00000160: f764 cc3f bbec ae3f 8905 f93f 2656 c83f
00000170: c160 9d3f c92d 893f 6e7c af3f 2de6 b13f
00000180: 990c a33f d462 7e3f 35c5 8b3f 362c ce3f
1.3565564 1.3069496 1.2655525 1.5450026 0.8939273 1.0286529 1.2459223 0.96215427
1.4448696 1.1944011 1.6200807 1.9465231 1.2367915 1.3354998 0.9308916 1.1641135
1.6444178 1.4360682 1.1891493 1.3762457 1.9257284 1.7158685 1.050211 1.1435337
1.3696232 1.2639444 1.492827 1.0976762 0.9703508 1.00674 1.198138 1.2176679
1.3313495 1.5345756 1.2429386 1.5844432 2.2383885 1.6877525 1.2308611 0.8672358
1.103801 1.3850112 2.256148 0.81062984 1.1964722 1.3131094 1.3831533 1.9669416
1.506132 2.0015569 1.1908028 1.4041672 1.6667517 1.3150198 1.839829 1.67221
0.9347982 1.0332384 1.7635504 1.2028822 1.2846023 1.3651452 1.1417783 1.1650567
1.234414 1.201784 1.3482213 1.055142 1.0164343 1.2321458 1.7814867 1.8951398
2.0211027 1.3810159 1.5268741 2.2295623 1.0237336 1.1718957 1.1640205 1.3151633
1.3151406 2.1375551 1.6609201 0.9377052 1.4373304 1.1989818 1.5344785 1.5454834
1.5968312 1.3665994 1.9454814 1.565129 1.2295152 1.0717098 1.3709848 1.3898369
1.273822 0.9936955 1.0919558 1.6107242

class_classifier.4.weight f4 [100, 100]
00000000: fe63 b83c be26 cdbc 9f23 4abd 113f 5fbc
00000010: 143e c03b 1cae d53d e3a5 cdbd 25a8 2c3c
00000020: 4fcb ee3d 1ee9 863d 3a90 b73d 9d0e 02be
00000030: 6289 413d 0965 dfbd 0059 2bbd d0cd 313e
00000040: f158 86bd e231 18bd 3257 0dbd 1337 683d
00000050: 0369 17be 014b 25bd 36a5 29be 85b8 143d
00000060: 29c4 4dbd 5e62 683d 0115 0bbe 7892 d8bd
00000070: 06fc f33c 0df9 4c3d 0789 93bc 002f 88bd
00000080: 6455 43be 0f75 1bbd a4b5 b4bd 95df b7bc
00000090: 8939 50be 1f25 00be 6128 adbb 3441 e2bd
000000a0: ff22 dcbb c4e8 8cbd 218b 483b d428 72bd
000000b0: 83f8 04bd 702d be3c 2bf9 1fbe d9d2 2fbe
000000c0: 7c9b dcbd 04b6 85bc 85af 87bd 6fca c43d
000000d0: c134 443c 99d5 cf3b f412 0bbe d13d 213a
000000e0: 602c 883d a8fe 333c 0799 263c ee1e 2f3d
000000f0: 74b2 463d d94e f13c c18d d33c 74ae b3bd
00000100: 5d7f 2ebe 3067 a33d 8f2c 7b3d 8dd5 e3bd
00000110: 3e49 5f3c 4dc5 193d 8c31 debc 60bd b2bd
00000120: 70c9 163e 8744 aebd 9ff7 a13d 5e34 0ebe
00000130: 699c 64bd e79d cb3d 0aaf 16be 2a39 d43d
00000140: 0164 ebbc b5a4 71be 8000 15be 82d2 4b3d
00000150: 8dec 97bc 25c0 693d 8c62 10be 3547 1dbe
00000160: 722f c33c 5a08 92bd b73e 183e 5842 34bd
00000170: bf83 b8bd d71b 0cbd de9f 39bc 35ba d7bc
00000180: 3c3c ebbc 2158 ff3b cf73 0dbd 3b67 f13c
00000190: 7664 673c 6fd5 38bd 0f73 723d 3af6 453e
000001a0: 2910 76bd 0b99 fbbb 8a51 fbbd eae3 d73c
000001b0: be90 223d a21c a3bd 4fd9 02bd 9adb 9b3d
000001c0: 3ade c83c a196 29bd 02f3 90bd 91a8 993d
000001d0: 59f8 cfbb 9f6b 853d 762a df3d 4a77 303d
000001e0: 533d 613d dea2 97bd 1e43 01be 8e70 8c3d
000001f0: 3163 ed3d 2947 843d 5bfb 08be bb72 e0bd
00000200: 4755 b33b 921d 43bc 508e 32be 4022 493c
00000210: b911 873d 61db 413d 5137 94bd cc20 163c
00000220: 9f2f a7be a5bc a83c f641 7b3d 7aa1 b2bd
00000230: 3650 22bb b964 8abd 4efe fa3c 79b3 b5bd
00000240: 241f 903d 7811 10bc ae9d 83bd fabc 893d
00000250: d465 0cbe f4f7 87bd 81fa a73c e34b 5f3c
00000260: f3a9 1abd 12a9 02bd 0c65 53bd 5ec2 10bd
00000270: 15c9 dd3c fc58 8f3d eecd d13d 57ab c1bc
00000280: e6f4 ff3b 2f34 e33d 58a0 913c 8451 8fbd
00000290: 7a98 19be bb88 8b3c 0f2e 87bc ba54 43be
000002a0: 379c 6fbd 8699 263c 9b0f 44bd eab8 7bbd
000002b0: d688 bb3d bcdd 633d 931f 0e3e a6dc f2bd
000002c0: 1aca d2bd d305 cd3c 3fb5 d2bd d94a b93c
000002d0: f009 31bd 7a1f 09be 6a22 91bd 13b5 a8bc
000002e0: 7efa c1bc ccf3 ddbc 6a26 c4bd 5c7a bfbd
000002f0: b143 fbbd d340 2dbd d0e2 323e fd26 fa3b
00000300: c52d 83bc 2668 563d 4095 9abc e6de bb3c
00000310: f79f 47bd 56c5 16bc 4346 6cbd d570 333e
00000320: b5b1 b93d 3ba8 dcbc 948e e5bd 1ae2 acbc
00000330: fb56 093c b8f2 bc3d 9e14 84bc c17e 15be
00000340: 69c4 1bbc f68c fcbc aa7c 13be 1e8a f1bb
00000350: a2ee f03d 1842 37bb 5dc0 a53d b606 5abd
00000360: 2e68 9d3c b799 d23d e901 9b3d add5 d43b
00000370: 6c5c b6bd b796 31be 51f3 edbd d358 8ebd
00000380: e558 41be 16a1 873c 7ed4 dabc 70c1 a1bc
00000390: b2f0 7bbd ce26 a7bd 2cd5 0b3d 763a f3bc
000003a0: 18de 0cbe a6d5 6cbd 9adf dfbb 05a6 343c
000003b0: ae2b fd3a 9181 1abd cfcc f73b 74bd 14be
000003c0: f086 e43c 68c2 143d ec95 10be 3bca 10be
000003d0: 517f 6b3d 1b31 30be 8452 a03d 72e9 40bd
000003e0: 687a 9fbc a896 673d a77c bbbd 776c d83c
000003f0: ff7e ab3d c833 833c ed5d d53b 333b 9dbc
0.022508617 -0.025042888 -0.049350377 -0.013625876 0.0058667753 0.10433599 -0.10041406 0.010538136
0.11659872 0.06587432 0.08963056 -0.12700887 0.04725016 -0.10907943 -0.041832924 0.17363667
-0.06559933 -0.037156947 -0.034506984 0.056693148 -0.14786153 -0.040354732 -0.16566929 0.036308784
-0.0502359 0.056734435 -0.13582231 -0.10574812 0.02978326 0.0500422 -0.018009676 -0.066495895
-0.19075543 -0.037953433 -0.08823708 -0.02244548 -0.20334448 -0.1251416 -0.0052843546 -0.11047593
-0.006718039 -0.06880334 0.0030600505 -0.059120968 -0.03246356 0.023215026 -0.15622394 -0.17170276
-0.10771844 -0.016322143 -0.066252746 0.09608924 0.011975468 0.0063426015 -0.13581449 0.0006150874
0.06649089 0.010986008 0.0101683205 0.042754106 0.04851003 0.029456543 0.02582443 -0.08773509
-0.17040773 0.07978666 0.06132179 -0.11124716 0.013628302 0.037541676 -0.027123235 -0.08727527
0.1472528 -0.08509164 0.07908558 -0.13887164 -0.055813227 0.09942227 -0.1471521 0.10362466
-0.028734209 -0.23597987 -0.14550972 0.049761303 -0.018545413 0.05706801 -0.14100093 -0.15359195
0.023826335 -0.07130499 0.14867674 -0.044008583 -0.090095036 -0.034206238 -0.011329619 -0.026333908
-0.028715245 0.007792488 -0.03453427 0.02946817 0.014123073 -0.04512542 0.05919176 0.19332209
-0.060074005 -0.0076781563 -0.12271412 0.026353795 0.03968882 -0.07964446 -0.031945523 0.07610245
0.024520028 -0.041403417 -0.070776 0.075028546 -0.006346744 0.06514668 0.10896771 0.043082513
0.054990124 -0.07404111 -0.1262326 0.068574056 0.11591185 0.06458885 -0.13377135 -0.10959383
0.0054728123 -0.011908906 -0.174371 0.012276232 0.06595177 0.047328357 -0.07237113 0.009163093
-0.3265352 0.020597765 0.061342202 -0.087222055 -0.0024767048 -0.067574926 0.03063884 -0.08872122
0.070371896 -0.008793227 -0.064265594 0.067254975 -0.1371072 -0.0663909 0.020505192 0.013628933
-0.037759732 -0.03189952 -0.051610038 -0.035341613 0.027073422 0.06999394 0.10244356 -0.023641272
0.0078111766 0.110939376 0.017776653 -0.0699797 -0.14999571 0.017032972 -0.016501455 -0.1907529
-0.058498587 0.010168439 -0.047866445 -0.061455645 0.09156959 0.055631384 0.13879232 -0.118584916
-0.10292454 0.025027191 -0.10288476 0.022618698 -0.043222368 -0.13390914 -0.07086642 -0.020594155
-0.023679014 -0.02709379 -0.095776394 -0.0934951 -0.122687705 -0.04229815 0.17469335 0.0076340423
-0.016013036 0.052345417 -0.018869996 0.022933435 -0.04873654 -0.009202322 -0.057684194 0.17523511
0.09067098 -0.026935687 -0.11208835 -0.021103907 0.008382554 0.092259824 -0.016123112 -0.14599134
-0.009507277 -0.030828934 -0.14403024 -0.007371201 0.117642656 -0.002796298 0.08093331 -0.053229056
0.019214716 0.10283225 0.07568724 0.0064951987 -0.08904347 -0.1734265 -0.116186745 -0.069505356
-0.18881567 0.016556304 -0.026712652 -0.019745559 -0.06150884 -0.08161698 0.034138843 -0.029690962
-0.13756597 -0.05782094 -0.0068320753 0.01102591 0.0019315386 -0.03772122 0.007562257 -0.14525396
0.027896374 0.036318213 -0.1411969 -0.14139645 0.057494465 -0.17206232 0.078282386 -0.04709763
-0.019467548 0.05654016 -0.09154635 0.026418908 0.08373832 0.016015902 0.006511441 -0.019193267

class_classifier.4.bias f4 [100]
00000000: d7eb 0a3d b52f e03c e745 38bd d847 4cbd
00000010: e74f 493b 01f2 433c 3542 11bc 70a4 8fbd
00000020: cb27 8e3d c0b7 303d 27ba 86bc 33a7 4fbd
00000030: b82c b53d 4483 383d af8d a43d cf29 86bd
00000040: 9189 153c b2b0 c23d ff6f 823d 5814 f1bc
00000050: 24a3 56bc c1ff f6bc 4af4 433d c2dd 303d
00000060: 561b 9e3d 78a4 27bd 2b45 81bd 9cc7 73bc
00000070: 9ee7 33bb cee6 893d bd64 363d 8439 523c
00000080: 8aa1 c53d df8e 8b3d 5524 12bc 2f61 ea3b
00000090: b5dc ae3d be7f 53bd 9eae aa3d 840c 1e3d
000000a0: a28d c03d 5d7e c5bd 6112 b83d 06fc 913d
000000b0: 3e5d c7bd ce29 25bc df3a 6dbc 9654 c33d
000000c0: b3c3 a03d 846b 89bd 84d9 c3bc 52c3 ee3a
000000d0: ffd9 a0bc 7611 863d 0021 da3b e47a 5e3c
000000e0: 2c5a 043d 70ec 703d 90ed 6e3c 1494 3d3d
000000f0: 98a3 913d 1c47 b43d 3235 7bbc 971c a2bd
00000100: 25d9 853d bd11 e3bb 3fca 253d 2e41 4e3d
00000110: 61a1 bd3d c190 17bd 3bc0 fe3b 823d 88bd
00000120: 0f65 99bd 8c48 b33d 977d aabd 17f8 c23d
00000130: 4d27 2fbd 8ac8 06bc fc71 393d 65a6 08bd
00000140: 7f2d e83b e7d7 df3c 9bee 663c 99fa a4bc
00000150: cc66 c3bd b184 d53c df38 b4bd 1cc3 ad3c
00000160: c76f b2bd 56c7 ca3d bc00 483c 191c b1bd
00000170: a956 9a3d fc90 b43c 059c c4bd d2df 9d3d
00000180: ebab a13d 41a9 933c 13ee 87bd ee3a 9b3d
0.03391632 0.027366498 -0.04498854 -0.049873203 0.0030717792 0.011959554 -0.008865883 -0.07013786
0.06941184 0.043143988 -0.016446186 -0.050696563 0.0884642 0.04504706 0.080348365 -0.06550943
0.009127037 0.09506358 0.06369018 -0.029428646 -0.013100419 -0.03015125 0.047840394 0.043180235
0.07720058 -0.040928334 -0.06312021 -0.014879134 -0.0027451287 0.067334756 0.044529665 0.012831096
0.09649952 0.0681436 -0.008919795 0.0071526985 0.0853819 -0.051635496 0.08334087 0.038586155
0.09402014 -0.096432425 0.089878805 0.07128148 -0.097345814 -0.010080768 -0.014479368 0.09537618
0.07849827 -0.0670996 -0.02390743 0.0018216169 -0.019635199 0.06546299 0.006656766 0.013579104
0.032312557 0.058819234 0.0145830065 0.046283796 0.07111281 0.088026255 -0.015332507 -0.07915609
0.06535558 -0.006929605 0.04047608 0.05035513 0.09259296 -0.037003282 0.0077743805 -0.06652357
-0.074899785 0.087540716 -0.083247356 0.09519976 -0.04276209 -0.008226523 0.04527472 -0.03336181
0.0070855017 0.02732463 0.014094974 -0.020139026 -0.09541091 0.026064249 -0.0879991 0.0212112
-0.08712726 0.099013016 0.012207206 -0.08647937 0.0753606 0.02204179 -0.09600071 0.07708706
0.07894119 0.018025042 -0.06637206 0.07579599
