hw3/models/usps.pth (torch_old, 836884 bytes, 34 tensors)

feature.0.weight f4 [32, 3, 5, 5]
000000 b1 3a c9 bc 52 f4 c5 3d 4b 1d 17 3e ee 29 8b 3d
       -0.024564119 0.09665741 0.14757268 0.06795107
000010 c1 dd 04 3d e4 a7 03 be 05 3a bb bd f2 b2 2d bd
       0.032438044 -0.12857014 -0.09141926 -0.042406984
000020 dc 5a 86 bc 14 68 62 bd bc 2f de bd 4d f0 cb bd
       -0.016400747 -0.055275038 -0.10848948 -0.09957943
000030 b7 3c 06 be 06 82 b2 bd 5e 4d 9e 3c 4a 03 8d 3d
       -0.13109098 -0.08716206 0.019324 0.06885393
000040 4d ab 07 bd aa 8a 3c bd ed 79 44 bd 03 45 12 3e
       -0.03312235 -0.046030678 -0.04796784 0.14284138
000050 bc ef c9 3d ff 1c 84 3d 19 8c 1c bd fd 43 23 bd
       0.09860179 0.06450843 -0.038219545 -0.03985976
000060 96 b0 88 bd 67 11 84 3d a5 8c 98 3d e4 e7 ba 3d
       -0.06674306 0.06448632 0.07448701 0.09126261
000070 11 4f 11 3d 36 80 98 ba 8f 05 53 bd 3b 6e 52 bd
       0.035475794 -0.001163489 -0.051518973 -0.051374655
000080 3f b5 c1 3d 80 c7 86 3c c1 92 06 bd 99 e6 12 3d
       0.09458398 0.01645255 -0.0328548 0.035864446
000090 a4 04 0a be c3 df bb bd 7a 12 11 bd 37 52 b5 bd
       -0.13478333 -0.091735385 -0.03541801 -0.08853572
0000a0 50 8c 31 3d 1a 10 b9 bd 67 a8 bf bd 01 b8 ad 3d
       0.043346703 -0.09036274 -0.09358292 0.084823616
0000b0 be 9a a3 bd fe 7f d7 3d 0e 4d 11 3e c3 36 d3 bb
       -0.07988499 0.105224594 0.1418955 -0.006445737
0000c0 b7 e4 b5 3d fa 52 32 3d dd 67 cf 3c 9c 27 cb bc
       0.088815145 0.043536164 0.02531808 -0.02479916
0000d0 74 a8 b8 3d 2d ba fa 3d c9 24 0b bd 05 f2 80 3c
       0.09016505 0.122425415 -0.033970628 0.015740404
0000e0 4e ff 82 3d ba cc 22 bd 28 1f 2e bd 44 af 52 3d
       0.06396352 -0.039746024 -0.04251018 0.051436678
0000f0 f1 9d 7d bd 65 74 0c be c1 dc 11 3c 19 17 57 bd
       -0.061918203 -0.13716276 0.0089027295 -0.052512262
000100 2f f8 e1 bd 34 60 56 3d 76 51 b9 bd fe aa 6e 3d
       -0.110336654 0.05233784 -0.090487406 0.05826854
000110 dc b3 ef 3c 1f bf 6e bb df 84 1d 3c c7 a0 85 3d
       0.029260568 -0.0036429835 0.0096141985 0.065248065
000120 0c d5 ec 3d 2d 17 64 3d ba cd c4 3d d8 70 0c be
       0.11564073 0.055686165 0.09609552 -0.13714921
000130 57 1d 93 bc 47 70 bc 3c b9 dd ae 3b 07 3b 4d 3d
       -0.017958326 0.023002757 0.00533649 0.05010512
000140 d7 c0 a9 bc 22 1b 5c 3b 14 8a 30 be be b7 1d be
       -0.020721836 0.0033585508 -0.17240173 -0.15402123
000150 f5 31 8a bd b5 3c 11 3c c5 f1 9e bd e2 5f de bd
       -0.0674781 0.008864571 -0.07760958 -0.10858132
000160 5f 0c 02 bd b6 cc 09 3d 83 02 72 bd 15 54 0d 3e
       -0.03175008 0.033642493 -0.059084427 0.13801606
000170 b4 31 05 3c 8c 83 6f bc 8b 35 eb bd 21 42 60 3c
       0.008129526 -0.014618766 -0.11484822 0.013687641
000180 97 0b 13 3e bd 8e fb bc ce 56 87 ba 9e 71 b2 bd
       0.1435989 -0.030707711 -0.0010325552 -0.08713077
000190 13 37 58 be a4 8c 28 3d 03 9b cf 3d 29 34 20 3c
       -0.21114759 0.04114975 0.10136988 0.009778061
0001a0 37 1d b5 3d 73 11 9f bd a4 ad b8 bc 48 60 d4 bd
       0.08843463 -0.07767 -0.022543736 -0.10369927
0001b0 fd fa dc bd 85 3a 10 be b5 a7 9b 3d d3 57 09 3e
       -0.1079006 -0.14084823 0.07600347 0.13412409
0001c0 08 bd 6e 3d 3f 07 f3 3c 53 a5 2f be b7 72 28 bd
       0.058285743 0.029666541 -0.1715291 -0.041125026
0001d0 88 bd b0 3c 62 54 a7 3d b0 a7 f3 3c 14 68 8f bc
       0.02157475 0.081703916 0.029743046 -0.017505683
0001e0 b7 66 e7 3d 56 26 fa 3d 0d 91 dd bb 27 7e b2 3c
       0.11298888 0.12214343 -0.006761676 0.02178867
0001f0 12 56 19 be 3a 2a 58 be d6 92 22 bd 1f 6a 8d 3c
       -0.1497424 -0.21109858 -0.039690815 0.017262517
000200 49 91 b6 3b 79 6f 22 3d 7f 2f 88 bd a5 01 2a be
       0.0055715186 0.03965709 -0.06649684 -0.1660219
000210 e2 d6 ae bd e7 1f 08 be d8 9a 8c bd 62 d3 b3 3d
       -0.085370794 -0.1329342 -0.068654716 0.087805524
000220 5b b3 29 3d 64 16 e1 bd 7d 8d db 3c ec a3 09 3d
       0.041430812 -0.10990599 0.026800865 0.033603594
000230 2e b7 fa bc 01 af ad 3d df 96 1d 3d 03 41 d6 bc
       -0.030604925 0.08480645 0.03847396 -0.026154047
000240 a3 3e 9f bc ee ec a9 bc d1 75 92 bd 00 e9 b1 3d
       -0.019439047 -0.02074286 -0.07151378 0.08687019
000250 72 c9 97 bc 2b 2f 66 3d a4 ef 25 be 18 76 2b bd
       -0.018528674 0.056197327 -0.16204697 -0.04186067
000260 c7 01 fd bd 66 28 d5 bd ac a4 a9 bd 25 16 12 bd
       -0.123538546 -0.10408096 -0.08283362 -0.03566565
000270 a4 7d a0 bd 21 f1 09 3b 8c 4b c4 3d 37 97 cf 3d
       -0.07836464 0.0021048265 0.09584722 0.10136264
000280 b9 c3 eb 3d b7 14 89 bc b5 29 80 3b af 95 f8 bc
       0.115119405 -0.01673351 0.003911222 -0.030344812
000290 8a 11 b1 bd 5e 91 9c bd 8b 07 bd 3d 9f fd da 3d
       -0.086459234 -0.07644914 0.09229954 0.10692906
0002a0 79 00 c8 bb 1c 94 0d 3c fd f5 c9 bc a6 77 b5 bc
       -0.006103572 0.008641269 -0.02465343 -0.02215178
0002b0 c9 62 b8 3d 73 b3 8f 3d 2c d9 c9 3d c8 1f 14 be
       0.09003217 0.07016649 0.098558754 -0.14465249
0002c0 29 4f b6 bd 9c b1 22 3d 6f c5 eb bd 1f f4 0d be
       -0.08901817 0.039720163 -0.11512267 -0.13862656
0002d0 25 ea 3a bd f8 67 fb 3d 62 75 60 bd b2 6f 7e 3d
       -0.045633454 0.1227569 -0.054799445 0.06211824
0002e0 53 a0 2c 3d 96 29 81 3d d8 00 0a bd 79 24 8a bd
       0.042145085 0.0630676 -0.03369221 -0.06745238
0002f0 d6 38 84 3d ea 4e 43 bc f4 fe 06 3c db ba 4b bd
       0.06456153 -0.01192067 0.0082394965 -0.049738746
000300 64 19 5d 3d 28 b3 c8 3d 78 22 63 bc 68 95 e3 3d
       0.053979293 0.09799796 -0.013863198 0.11112481
000310 c8 9b 4c bc 84 62 9b 3d 04 d9 05 3e 0d 23 5b 3d
       -0.012488313 0.0758715 0.13071066 0.053500224
000320 72 65 2b be d1 fa 64 bd c6 0e 6e 3c ec f7 9f 3d
       -0.16737917 -0.05590326 0.014529889 0.07810959
000330 da d8 2a ba 89 d1 de bd 64 d4 bc 3d 5c a9 8a 3d
       -0.0006517299 -0.108798094 0.09220198 0.06770584
000340 72 56 0f 3e eb 66 e6 bd 05 e0 e5 bd 7b 7c e6 3d
       0.1399782 -0.11250099 -0.11224369 0.112542115
000350 56 fc da 3b b4 fb bf bd d2 ce 85 3d 94 54 96 3d
       0.006682913 -0.093741804 0.065335885 0.07340351
000360 8f 00 9a 3d b3 82 88 3d 77 03 cb bd c1 db 94 bd
       0.07519638 0.06665554 -0.0991277 -0.07268477
000370 9a f5 39 bc 81 db ea bb df a1 94 bd fc 33 68 3d
       -0.01135006 -0.00716728 -0.07257437 0.0566902
000380 14 fd 4c bd f3 b2 fd 3d 0f b2 e2 3d 95 16 e8 3d
       -0.05004604 0.123876475 0.11069118 0.11332432
000390 39 fe e1 3c e0 12 44 bd ed 0d 20 3d cc 16 03 3e
       0.027587043 -0.047869563 0.03907578 0.12801665
0003a0 ab e5 a6 bd ee 46 14 3d 0e 8a 09 3e 73 5f 51 bb
       -0.081492744 0.036200456 0.1343157 -0.0031947761
0003b0 96 75 a1 bd b6 a4 a1 3c e5 7f c5 bd 6a 51 1a 39
       -0.07883756 0.01973186 -0.096435346 0.00014716914
0003c0 b4 0a f1 bc bb c1 ab bd 99 b5 d4 3d 0c e9 f4 bd
       -0.029424049 -0.083865605 0.103861995 -0.11958513
0003d0 bb b7 38 3d 8d 2f d7 bd f2 24 89 bd 07 1c ba bd
       0.045097094 -0.105071165 -0.066965 -0.09087377
0003e0 e6 fe 11 be 30 6b 1c 3d 12 52 7c 3a c7 7b a8 bd
       -0.14257392 0.03818816 0.00096252665 -0.08226734
0003f0 65 77 07 3e b4 1d 31 3d 01 02 dc 3c 18 b3 8a 3d
       0.13229139 0.043241218 0.026856424 0.06772441

feature.0.bias f4 [32]
000000 d1 55 b8 3d 93 ba 1d 3e 36 02 12 3d 0e c6 87 bd
       0.09000743 0.15403204 0.03564664 -0.06629573
000010 df 06 9e 3d 22 ae ec 3c 44 3e 0d bd 6f 47 29 3d
       0.07716154 0.028891627 -0.03448321 0.04132789
000020 63 e4 ac 3c 85 d3 e1 bc 91 7d 19 bc c0 f2 f1 3b
       0.021104997 -0.02756668 -0.009368316 0.0073836744
000030 b2 e1 73 3c 2e a6 b8 bd 49 6f 13 be 27 1b 40 bd
       0.014885353 -0.09016071 -0.1439792 -0.046900894
000040 99 a4 fb 3d 94 c5 21 bc 58 38 bc 3d e9 c3 06 bd
       0.12287254 -0.009873766 0.09190434 -0.03290168
000050 4a 68 cc 3d 25 3b 95 3d 24 60 0e 3e 22 c7 98 bd
       0.09980829 0.072866715 0.13903862 -0.074598566
000060 c2 96 ea 3d 8f 01 92 bd 23 d9 38 3d b6 32 7d bd
       0.11454536 -0.071292035 0.045128953 -0.06181594
000070 52 63 ba bd 45 82 ef 3d 23 ed 22 3d 47 37 0b 3c
       -0.09100975 0.11694769 0.039776932 0.008497066

feature.1.weight f4 [32]
000000 45 e9 43 3f 3e 3c b0 3e 53 c4 74 3e 45 66 53 3f
       0.76527816 0.3442096 0.23903017 0.82577926
000010 57 ac 28 3f 9a b4 a2 3e 38 f6 46 3e 5d 6b 7c 3f
       0.6588797 0.31778413 0.19429862 0.98601323
000020 dd f1 2c 3e 80 f8 55 3f 48 d1 44 3e fa 44 52 3f
       0.16889139 0.83582306 0.1922046 0.821365
000030 c8 3e 3b 3f 71 fa 3d 3f 3c 29 e0 3e 7d 8b c9 3e
       0.7314267 0.7421027 0.4378146 0.39364234
000040 b5 43 90 3d 87 a5 2b 3f 1e 5b c6 3e 58 46 8a 3e
       0.07044164 0.6704945 0.38741392 0.27006793
000050 79 8c d4 3e 29 2a e6 3e 10 eb 2f 3f 00 4a 65 3f
       0.41513422 0.4495404 0.6871805 0.8956604
000060 12 7a 4a 3f 26 b5 2c 3e b3 81 a2 3e b9 82 6a 3f
       0.79092515 0.16865978 0.31739578 0.91605717
000070 b4 23 22 3f 57 80 c9 3e c8 34 78 3f 93 b6 c6 3e
       0.6333573 0.39355728 0.9695554 0.38811168

feature.1.bias f4 [32]
000000 4b 99 3a be bb 9c 42 be 5b 0c a4 bd 68 d1 c0 bd
       -0.18222539 -0.190051 -0.08010169 -0.09414941
000010 09 db 27 be 01 f5 94 bd ef 36 36 be ed ba 8a be
       -0.16392149 -0.07273293 -0.17794393 -0.27095738
000020 d1 9a e6 bd e8 b4 33 be ad 3b 0b be 3b 82 95 be
       -0.11259998 -0.17549479 -0.13596983 -0.2920092
000030 d4 bc 57 be 7f 45 43 be 6b 3b 4a be ad 3d 1d be
       -0.21068126 -0.1906948 -0.19749229 -0.15355559
000040 07 72 c2 bd 35 91 4b be 04 8c 1a be b0 38 29 be
       -0.09494405 -0.19879611 -0.15092474 -0.16525531
000050 0b 66 62 be d9 ed 57 be 22 dd 70 be 3f 14 82 be
       -0.22109239 -0.21086825 -0.23521855 -0.25406072
000060 be 90 7f be 1e 4d bd bd 38 94 10 be 6f 61 7d be
       -0.24957559 -0.092432246 -0.14119041 -0.24744199
000070 de 18 5c be 79 e6 09 bd 76 75 88 be da 14 b7 bd
       -0.21493861 -0.03366706 -0.26652116 -0.08939524

feature.1.running_mean f4 [32]
000000 48 e7 df 3d a2 44 76 be b1 51 b0 3c d0 f7 c7 3c
       0.10932785 -0.24049619 0.021523328 0.024410158
000010 0b e6 ac 3d f7 80 7e bd 08 91 8d 3c 9d ab 83 be
       0.08442315 -0.06213471 0.01728107 -0.25716868
000020 9a fd 1e be a8 e0 27 be ea 3b b1 3e 5d ec 88 be
       -0.15526429 -0.16394293 0.34616023 -0.2674283
000030 97 77 a5 bd 8f a0 2a be 14 2b a2 bd 51 1c 19 be
       -0.080794506 -0.1666281 -0.07918373 -0.14952208
000040 32 9a 5f 3e e8 86 18 be 29 1b 3d bc 7a 21 c9 bd
       0.21836165 -0.14895213 -0.01154212 -0.09820838
000050 0e 04 5c 3d 11 37 88 3d 82 75 ce 3d 95 4e b2 be
       0.053714804 0.06651128 0.100810066 -0.34825578
000060 f3 3f 45 3e 37 a4 6a bd 91 5a 61 be 65 e6 a7 be
       0.19262676 -0.057285514 -0.22007205 -0.32792965
000070 c4 a3 58 be 1c 6b 0e 3e 8e 59 68 be 1b 61 9f 3d
       -0.21156222 0.13908046 -0.22690412 0.07782193

feature.1.running_var f4 [32]
000000 eb 7f ea 3c 1d 1a 48 3e 8c bd ac 3d 61 e2 28 3e
       0.02862545 0.19541211 0.08434591 0.16492607
000010 62 5c 3d 3d b1 7d 5a 3d c4 e5 1c 3d 1b 9e 22 3e
       0.04623068 0.053342525 0.03830506 0.15880625
000020 f6 b4 75 3d 8a 9a 3a 3d 16 68 0e 3e 68 d2 d6 3d
       0.05998703 0.045557536 0.13906893 0.104893506
000030 34 42 29 3e e4 e2 d6 3c d3 8c 68 3c a0 96 44 3e
       0.1652916 0.026231237 0.014193731 0.19198084
000040 61 7b f4 3c 87 fb 1b 3d 45 0f 30 3e 09 cc 23 3d
       0.029843988 0.038081672 0.17193325 0.039989505
000050 c0 15 af 3b e8 bb a9 3c 09 31 41 3d a5 e6 12 3e
       0.005343169 0.020719483 0.047165904 0.14345796
000060 17 7f 10 3d ad f4 c3 3d d2 cd e9 3d aa 4e fd 3d
       0.035277452 0.095681526 0.1141621 0.123685196
000070 68 ba 15 3e 9a 34 2f 3d ba 48 e4 3d ea 6e 63 3c
       0.1462189 0.042774774 0.11146684 0.013881424

feature.4.weight f4 [48, 32, 5, 5]
000000 c6 8d e8 bb ce b1 5c 3d c5 65 53 3d e6 97 44 bc
       -0.007096979 0.053880505 0.051610727 -0.011999106
000010 35 76 b2 bc a7 3f 88 bd 8d b6 42 bd a6 ae 68 bd
       -0.021784881 -0.06652766 -0.047537375 -0.056807183
000020 fe 44 1c bd 2a 26 98 3d 7c 13 f5 bd 9f a5 77 3b
       -0.038151734 0.07429154 -0.11966607 0.0037787927
000030 cd 13 71 3d a1 73 13 3d 63 1e 43 3d f1 6f da bc
       0.058856774 0.035998944 0.0476364 -0.026664706
000040 4b e6 92 bc de ab 38 3d 64 04 72 3c 9f 7c f8 3c
       -0.017932078 0.04508578 0.014771555 0.030332861
000050 bc 11 49 bd da e0 a3 bd 45 14 b0 bd 98 cf 00 3c
       -0.04908918 -0.080018714 -0.08597616 0.007861994
000060 ef 7d cb 3d 9f 06 1a 3c 27 ea eb 3b c4 1e 95 bd
       0.09936129 0.009400993 0.007199544 -0.07281259
000070 6a 5e 40 bd 73 02 92 bd 33 d4 60 bb c9 76 07 bd
       -0.04696504 -0.071293734 -0.0034306168 -0.033072267
000080 fe 8e 8a bd b1 f6 89 bc 06 b3 d3 bc 33 fb 88 bd
       -0.06765555 -0.016841264 -0.025842201 -0.066885374
000090 34 90 00 bd eb a6 9a bd ec e2 95 bd c1 83 fc b9
       -0.031387523 -0.07551368 -0.073186725 -0.0004816335
0000a0 68 dd 00 bc d1 3b 63 bd e3 0c d7 bc 21 db ab bd
       -0.007865287 -0.055476967 -0.026251262 -0.08391405
0000b0 d1 21 b6 bd df cf 72 bc 41 dc 9a 3b a6 01 f9 bc
       -0.08893169 -0.014820068 0.0047259633 -0.030396294
0000c0 31 bd 56 bd 23 1a be bd 0f b6 a1 bc db 3b 2c bd
       -0.05242652 -0.09282329 -0.019740133 -0.04204927
0000d0 4e 9b 48 bc 90 8b 08 3c 29 66 0f bc 22 d2 1a 3c
       -0.012244059 0.008334056 -0.008752384 0.009449514
0000e0 85 a1 24 bd 1b c1 af bb a9 47 9d bc 74 06 74 bd
       -0.0401931 -0.005363596 -0.01919921 -0.059576467
0000f0 f7 46 75 bd 83 62 89 bd a2 31 68 bd 23 c5 81 bc
       -0.05988213 -0.06708243 -0.05668796 -0.015841072
000100 fe 62 35 bd c9 fe 0e bd 73 b3 bd bd 2c 73 6f bd
       -0.04428386 -0.03491095 -0.09262743 -0.058459446
000110 99 f6 68 bc eb ca c4 3b 01 f8 79 bd f3 19 8e bd
       -0.01421895 0.006005635 -0.06102753 -0.06938543
000120 ad 23 a8 3c 0f 19 a3 3d 84 41 2c 3d e0 d1 d2 bc
       0.020524824 0.07963764 0.042054668 -0.025734842
000130 a3 5d d4 3c 60 f6 2c bc 6a f0 95 bc 7d 6e 93 3b
       0.025923556 -0.010556787 -0.018303115 0.004499255
000140 e6 e6 6b bc 43 b6 a7 bc 52 db c2 bb 2c e5 9d bd
       -0.014398312 -0.020472651 -0.005946555 -0.07709727
000150 16 f8 98 bd ec 5e 95 bd e5 f5 19 bc 00 d8 4f 3c
       -0.07469194 -0.072934955 -0.009397005 0.012685776
000160 61 99 1e bd 01 d5 ca bd 48 31 7a bd a8 02 9b bd
       -0.038720492 -0.099039085 -0.061082155 -0.07568866
000170 a0 c2 ee bb 67 c2 d6 bb 7c 0a da 3a c3 a5 a0 bb
       -0.0072863847 -0.0065539363 0.0016635205 -0.004902573
000180 f7 04 11 bd ac 61 a4 bc d6 d5 22 3d 19 ab 41 3d
       -0.035405125 -0.020066105 0.03975471 0.047282312
000190 35 24 a8 3c 21 74 0c 3d 86 55 a9 3d d9 af 80 3c
       0.020525077 0.034290437 0.082682654 0.01570885
0001a0 a8 0b 4b bc 8a 76 e6 3c 09 85 fb 3b 98 2d ae 3d
       -0.012392916 0.028132696 0.007675771 0.0850479
0001b0 5a 77 b8 bb 86 f3 31 bd f5 e2 1a bd ba bf 11 bb
       -0.005629462 -0.043445133 -0.0378141 -0.0022239522
0001c0 bd 32 4a 3d 72 3f 25 3a 8e 54 27 bd 3c 90 e3 bc
       0.049364794 0.00063037046 -0.040852122 -0.027778737
0001d0 08 d0 48 bd 9a 2e 4e bb e0 8a 7c 3c c5 a4 bd 3c
       -0.04902652 -0.0031460882 0.01541397 0.023149857
0001e0 9d fb 6f bc da 33 80 bd 97 fe 14 3d 2a 7a b8 3d
       -0.014647392 -0.0625989 0.03637561 0.09007676
0001f0 45 d5 18 3d 4e 32 ff 3c 4c d4 76 3d 9b 32 52 bc
       0.037312765 0.031151917 0.060261056 -0.012829448
000200 57 14 01 3d 21 b7 90 3d 56 50 eb 3c 64 53 98 3d
       0.03151354 0.07066179 0.02872483 0.074377805
000210 21 0e 0c 3d 2f fc 41 bd cd 5b 23 bd 1d 11 2b bd
       0.034193162 -0.04735964 -0.03988247 -0.041764367
000220 a2 61 91 3d 95 ae 83 3d 95 61 bc 3c 8b ba 59 bc
       0.070987 0.06429783 0.02299575 -0.013289104
000230 bf cd 03 bd 74 e5 01 bc 58 3c 4b 3d b3 7e f5 3a
       -0.032178637 -0.007928241 0.049618095 0.0018729776
000240 1f 07 af 3d c1 36 97 3d 8d ad 02 3d 31 71 8a 3c
       0.0854628 0.0738349 0.031903792 0.016899677
000250 fc bb 2a bc 37 62 00 3e 23 f8 15 3d bf 99 ec 3c
       -0.0104207955 0.12537466 0.036613595 0.028881906
000260 12 12 4a 3c 0e 1b b0 bd 39 d0 e9 bd 97 06 c0 3d
       0.01233341 -0.0859891 -0.114166684 0.09376257
000270 77 2e b4 3d 60 bf 5a 3c 8d e2 8b 3d 80 4b e5 bc
       0.08797925 0.013351291 0.068303205 -0.027990103
000280 65 33 87 3d c0 f5 02 3e dd 35 78 3c 36 43 ba 3d
       0.066015996 0.12789059 0.015149561 0.09094851
000290 40 41 0e 3e f5 7a e8 3c 2d d7 cd 3d 7f 1c 4b 3d
       0.13892078 0.028378943 0.10050807 0.049587723
0002a0 ef c2 47 3d 36 fb b2 3d 63 80 bc 3d da c0 c8 3d
       0.048769888 0.08739321 0.09204175 0.098024085
0002b0 46 0f 03 3e 9e 30 5e bc ec 14 30 3c 7a 1a b8 3c
       0.12798795 -0.013561396 0.010747176 0.022473563
0002c0 5c b7 94 3c f6 b8 6b 3d ac 58 57 3c b2 92 13 3d
       0.018153839 0.05754944 0.0131437 0.03602857
0002d0 ca c1 ac bb ea b8 34 bd 61 7d d8 bc b1 31 43 bd
       -0.005272125 -0.04412166 -0.026426973 -0.04765481
0002e0 19 d8 00 3d 28 bd c6 3c 82 b3 e2 bc 4a 0b 12 bd
       0.031456087 0.024260119 -0.027673487 -0.035655297
0002f0 b3 96 f6 bc 95 36 94 bc 6e 2e 7d bc d6 99 1e bd
       -0.030101156 -0.018092433 -0.015452964 -0.038720928
000300 59 87 e2 bd 04 b3 c6 bd 43 5d 30 bc 15 70 40 bc
       -0.11060972 -0.09702113 -0.010764423 -0.011745472
000310 43 ae 63 bb ac 15 47 bc 2a 20 85 bd ca f6 86 bc
       -0.003474132 -0.012151163 -0.065002754 -0.0164751
000320 78 1b 60 3d c7 4f 15 3b ee 9e e9 3c a4 25 00 bc
       0.054713696 0.0022783147 0.028518166 -0.007821474
000330 8f 5f 0d 3b e4 67 d2 3c ef 07 0b bd c1 a4 5a bc
       0.002157185 0.025684305 -0.033943113 -0.013344944
000340 68 93 46 bd 87 8e 2d 3d 4e 15 fa bc 05 71 a9 bb
       -0.04848042 0.042372253 -0.030527737 -0.0051709437
000350 9b 7d 86 bd 76 66 2d bd 21 1b 40 3d e1 90 26 3b
       -0.06566926 -0.042334042 0.046900872 0.0025415944
000360 4f 2b 27 3d 5b 94 f5 bc 14 62 db bc 75 64 6a bd
       0.040812787 -0.029977968 -0.026780166 -0.05722471
000370 4c 3f 15 3c 84 f7 a9 bb 2f 13 0b 3c 6d b5 05 3d
       0.009109329 -0.005186977 0.00848846 0.032643724
000380 5b 9f b8 3c 92 45 04 bc ad 9f e9 3b 93 07 b3 bc
       0.022536924 -0.0080732275 0.0071296305 -0.021854198
000390 d8 d0 4d 3c cf 38 1c 3d d6 56 3a 3d 84 fd c7 bc
       0.012561999 0.038140114 0.04549297 -0.024412878
0003a0 59 94 08 3d 2a 94 75 bb 60 63 2b 3d 79 ba 26 bd
       0.0333446 -0.0037472346 0.04184282 -0.040705178
0003b0 99 40 6f bc 9b d2 a2 3a 7c 74 b3 3c 4b 91 5f 3d
       -0.014602804 0.0012422384 0.02190613 0.05458192
0003c0 75 bb 07 bc 73 2f 21 3d 2c 04 09 bd cf 01 6c 3d
       -0.008284439 0.03935189 -0.033451244 0.057618912
0003d0 98 09 c9 bc c3 ea 12 3d 94 a7 81 3c eb fe 62 bc
       -0.024540707 0.035868417 0.015826978 -0.0138547225
0003e0 02 86 bd 37 e0 b5 3d 3d bc 0d b4 3d 71 b6 bb bb
       2.2592958e-05 0.046316028 0.08791682 -0.005728536
0003f0 00 fe 38 ba 6a 0e bb bc a3 9f cf bb 75 70 24 3d
       -0.0007056892 -0.022834022 -0.006336169 0.04014631

feature.4.bias f4 [48]
000000 a7 77 7d bc f8 ca 0b 3b 5c 8d 14 3b 95 ae ce 3c
       -0.015470422 0.0021330696 0.0022667265 0.025229732
000010 47 00 a5 bc 97 1e ba 3c a0 6d f0 3b b1 74 d1 bc
       -0.020141734 0.022719664 0.007337287 -0.025568338
000020 8f f2 24 bc 19 7d bd bc 1f 98 dd 3c 52 e9 e0 bc
       -0.010067596 -0.02313094 0.027050076 -0.027455006
000030 25 82 44 bc da d6 96 bc f7 cc 9d 3c d9 a9 8c bc
       -0.0119939195 -0.018412996 0.019262774 -0.017170833
000040 1b 32 fb 3a 7d cc 3d 3b b8 c0 79 3c c8 c3 13 bc
       0.0019164713 0.0028960996 0.015243702 -0.009018846
000050 0b 46 1b bc 17 27 b3 3c b0 31 f4 3b 79 a6 c5 bb
       -0.009477149 0.021869225 0.0074522123 -0.006031808
000060 70 12 9e 3c 0f 9e 8f 3c ee 71 78 bb 57 47 ae 3c
       0.019295901 0.017531423 -0.0037909704 0.021274252
000070 f0 7a b2 bc 22 33 82 3c 6a 77 b0 bb d1 8d 25 3c
       -0.021787137 0.015893523 -0.005385329 0.010104612
000080 a0 35 fb bc ed 43 68 bc fc 4f a6 3c 28 62 3a 3c
       -0.030665219 -0.014176351 0.020301811 0.011375941
000090 ec 89 8d 3c 97 b6 ab bc 75 ac 02 bd 0a 0d 48 3c
       0.01727768 -0.020961089 -0.03190275 0.01221014
0000a0 a3 73 37 3c 43 05 c8 3c cb 19 f5 bc 83 c3 8f bc
       0.011197004 0.024416571 -0.029919526 -0.017549282
0000b0 4d 5f 02 ba 5b 26 99 3c 0d b7 b8 3b b8 b2 c5 bc
       -0.00049733074 0.018695047 0.0056370557 -0.024133071

feature.5.weight f4 [48]
000000 14 1f dc 3e 60 9f 0b 3f 54 80 d7 3e b5 93 24 3f
       0.4299246 0.5454006 0.42090094 0.64287883
000010 08 2c 33 3f f1 fe 0f 3f 9f b0 75 3e f9 ce ff 3e
       0.6998906 0.56248385 0.23993157 0.49962595
000020 9f 00 07 3f d7 01 08 3f 57 23 ff 3e 56 77 db 3e
       0.5273532 0.5312781 0.4983165 0.42864484
000030 3b 12 e0 3e b8 ae 0b 3f c0 ed 29 3f a8 14 2e 3f
       0.4376391 0.54563475 0.663784 0.6800027
000040 ee d0 1f 3f 1e 1f 1c 3f d2 a0 97 3e fc ea 96 3e
       0.62428176 0.6098498 0.29614884 0.29476154
000050 e3 22 e3 3e 9a eb 26 3f 67 f3 01 3f 8a 64 1d 3f
       0.44362554 0.6520325 0.5076203 0.61481535
000060 5f bd 05 3f c6 90 eb 3e e4 8b 94 3e 60 ea 0e 3f
       0.5224208 0.4600889 0.29012978 0.5582638
000070 3a d4 4c 3f d4 de 16 3f be 90 42 3f 56 22 8b 3e
       0.8001133 0.5893376 0.7600211 0.27174634
000080 4c f1 f8 3e 39 ad cd 3e cd 13 b2 3e b7 4a 06 3f
       0.48621595 0.4017122 0.34780732 0.52457756
000090 fe 8a 48 3f 9b 6c 2c 3f 55 2e 20 3f f7 43 48 3f
       0.78337085 0.6735322 0.625707 0.78228706
0000a0 83 30 9f 3e 6c e7 07 3f 71 11 c7 3e b5 c0 24 3f
       0.310917 0.53087497 0.38880494 0.6435655
0000b0 4e b5 01 3f a5 7d 3d 3f e1 f3 40 3f 4e bf 07 3f
       0.50667274 0.74019843 0.7537213 0.5302628

feature.5.bias f4 [48]
000000 0a 88 19 be dd 8d 98 be 09 81 9a bd 3f 8a 73 be
       -0.14993301 -0.29795733 -0.07544143 -0.23783205
000010 b7 fc 87 be 13 d3 f0 bd 0c 49 06 be 21 8c 50 be
       -0.26559994 -0.11759009 -0.13113803 -0.20365955
000020 8f 78 89 be 5d 68 31 be 45 bc 43 be 6d e3 63 be
       -0.2684979 -0.17324968 -0.19114788 -0.22254725
000030 d2 84 c1 bd 61 6f 1e be 9d ab 85 be f0 a5 81 be
       -0.094491616 -0.15472175 -0.26107493 -0.25321913
000040 06 33 85 be 5b 96 83 be 4f 6f 1a be 32 0b b5 bd
       -0.2601549 -0.2570065 -0.15081523 -0.08840026
000050 cd 26 3c be 6b e5 6b be 48 4b 3d be fa 25 88 be
       -0.18374176 -0.23036735 -0.18485749 -0.26591474
000060 1d 50 52 be 49 9b 7e be f9 a1 31 be fa 7e 82 be
       -0.20538373 -0.24863924 -0.17346944 -0.254875
000070 b4 22 99 be d6 28 81 be 18 a2 84 be 80 8f ad bb
       -0.2990929 -0.25226468 -0.25904918 -0.0052966475
000080 02 72 e6 bd 29 13 0f be 84 01 09 be 00 77 7f be
       -0.11252214 -0.13972153 -0.13379484 -0.24947739
000090 99 f2 83 be c7 51 7e be 5a cd 8a be 86 ab 53 be
       -0.25771025 -0.24835883 -0.27109796 -0.206709
0000a0 76 01 00 be d0 55 52 be 35 b0 56 be 7a be 7e be
       -0.12500557 -0.20540547 -0.20965655 -0.24877349
0000b0 53 8e 18 be b5 24 a8 be 1e a7 91 be 50 aa 70 be
       -0.14898042 -0.32840505 -0.28447813 -0.23502469

feature.5.running_mean f4 [48]
000000 8f 6d 06 bf 85 dc f6 3e d3 e6 84 be 9c 0c 2a 3e
       -0.52510923 0.48215118 -0.25957355 0.16606373
000010 3c 8b 56 bf a6 25 8b bf 97 d4 66 3f 65 e5 14 bf
       -0.83806205 -1.0870864 0.90168136 -0.5816253
000020 52 2d 27 bf f3 f2 ca bf 7a b3 9f 3e 9a 23 b9 3e
       -0.6530353 -1.5855392 0.31191617 0.36159974
000030 5a f8 58 bf b2 47 86 bf cf f9 b1 3c 2c b1 ab 3e
       -0.84753954 -1.049063 0.021725563 0.3353361
000040 1a 63 b0 bf 30 53 fc 3d 28 d8 8e 3f 48 e0 01 bf
       -1.3780243 0.12320554 1.1159716 -0.5073285
000050 34 33 79 bc f4 1d 83 bf c3 7b 3e 3f ff 88 c1 3e
       -0.015209962 -1.0243516 0.74407595 0.37799832
000060 d2 3c 3f 3e 88 cf a4 3e 77 3e 27 bf 0c 87 7b 3f
       0.18675545 0.32189584 -0.6532969 0.9825294
000070 44 cc 8b bf a9 57 09 bf 12 07 da 3d af a1 67 bf
       -1.0921712 -0.53649384 0.1064588 -0.90481085
000080 25 39 9a bf c0 03 9b bf 34 3c 5f bf cf 63 8c bf
       -1.2048689 -1.211052 -0.8720124 -1.0967959
000090 d5 a0 81 bf 21 3d 62 bf 37 07 5e be 00 8b a2 bf
       -1.0127207 -0.88374525 -0.2168244 -1.269867
0000a0 58 ec f5 bf 70 ed 9a bc ba 34 55 3f e4 f4 3a 3e
       -1.9212751 -0.018912047 0.8328358 0.18257481
0000b0 b7 b9 db be f9 0d b3 be 7d ff 36 bf 20 a7 83 3d
       -0.42915127 -0.34971598 -0.71483594 0.06428361

feature.5.running_var f4 [48]
000000 0e 6d 0e 3f 4f 01 0f 3f 59 ac 46 3f 5f 57 4f 3f
       0.55635154 0.5586137 0.7760673 0.8099269
000010 93 bf 2d 3f 82 77 30 3f 22 97 4f 3f d2 97 05 3f
       0.67870444 0.68932354 0.81089985 0.52184784
000020 8a 02 13 3f 2f 98 19 3f 08 8c 4d 3f a0 ba 01 3f
       0.5742575 0.5999784 0.80291796 0.5067539
000030 3e 45 99 3f 8f de 4b 3f 90 e9 0b 3f 61 59 18 3f
       1.1974256 0.7963647 0.54653263 0.5951138
000040 b0 dd a8 3f 31 63 46 3f f1 9c 40 3f e7 90 16 3f
       1.3192654 0.77495104 0.75239474 0.58814853
000050 25 ec 78 3f ff d1 49 3f 85 81 50 3f 70 7b 15 3f
       0.9723533 0.78836054 0.8144763 0.58391476
000060 2d fb 21 3f 7f 6f 39 3f e2 c7 d6 3e 74 85 35 3f
       0.6327389 0.72435755 0.41949373 0.7090676
000070 49 59 b0 3f 4c 27 2b 3f 95 1a 2c 3f 8c 74 96 3f
       1.3777248 0.6685684 0.6722806 1.1754317
000080 15 78 aa 3f d0 8c 6d 3f 62 d4 1a 3f a1 b0 1c 3f
       1.3317896 0.9279299 0.6048032 0.61207014
000090 10 3b 7b 3f 64 bd 69 3f f5 a1 88 3f 14 b8 26 3f
       0.98137 0.9130461 1.0674425 0.6512463
0000a0 f2 46 6d 3f 5d 22 66 3f 4f 70 f5 3e 30 e3 53 3f
       0.9268638 0.89896184 0.47937247 0.82768536
0000b0 51 06 84 3f 63 6f 65 3f 05 8f 26 3f 20 72 1c 3f
       1.0314428 0.8962309 0.6506198 0.6111164

class_classifier.0.weight f4 [100, 768]
000000 e0 15 54 3d eb 9b 1c bd d9 46 13 bd f7 5b 89 bd
       0.051778674 -0.038234632 -0.035956237 -0.06706994
000010 87 fe 5e bc d8 07 80 bc 78 a3 3d 3d e6 ad 22 3c
       -0.013610489 -0.01562874 0.046298474 0.009929156
000020 50 75 02 3d ed ff 0a bc 5d ff 5f bd 48 4b d3 bb
       0.03185016 -0.008483869 -0.054686893 -0.006448183
000030 07 eb 8b 3c f7 e6 6a bd 1f d9 8d bd 5f 58 d0 3c
       0.017079843 -0.05734917 -0.06926178 0.025432764
000040 fd 3d 32 bd 40 4a 67 bd b1 1b 30 bd 11 12 0f 3d
       -0.043516148 -0.056467295 -0.04299516 0.03492934
000050 18 37 61 bd bd c0 2a bd 82 e5 85 bc ff 28 ec 3c
       -0.054984182 -0.041687716 -0.01634479 0.028828142
000060 eb c5 da 3b e7 b9 7e 3d 20 55 82 3a c1 9f 0a 3d
       0.0066764257 0.06218901 0.0009943582 0.03384376
000070 3a 15 aa 3b ad 26 33 3c 10 27 03 3b e4 f9 ad 3c
       0.0051905187 0.010934514 0.0020012297 0.021237321
000080 55 87 95 bd 26 87 4e 3c ed 40 56 3d 18 91 d4 3d
       -0.07301203 0.012605464 0.05230801 0.10379237
000090 4a fd 0c bc fd f6 fc bc 1e 0b 2f 3b 6b 9d 05 bd
       -0.008605311 -0.030879492 0.0026709507 -0.03262083
0000a0 2c 09 95 3c ec cb 6c bd bc 7f b9 bd 94 5f ac bd
       0.01819285 -0.057811663 -0.090575665 -0.084166676
0000b0 a2 29 5e 3a 82 3f 98 bc 02 7f cb 3c 89 97 82 3d
       0.00084748317 -0.01858497 0.024840835 0.06376559
0000c0 2e e2 44 bc 97 ff e0 3d ed c8 be 3d 00 02 c4 3c
       -0.012016816 0.1098625 0.09315667 0.023926735
0000d0 ae 16 ab 3c 83 d8 26 3d c9 16 6f b9 ce 43 8b bc
       0.020884838 0.040733825 -0.00022801304 -0.017000105
0000e0 f0 ad fc ba 57 9b 2b 3c 72 fe 9a bc de a8 62 bd
       -0.0019277912 0.010474048 -0.018920157 -0.055336826
0000f0 6a e6 ae bb 93 12 20 3d 2b 1f 12 bd 1b 19 58 bc
       -0.005337526 0.039080214 -0.035674255 -0.013189579
000100 0d a6 09 bd 7c b9 36 bd 82 37 09 bc 1c 97 3f 3c
       -0.033605624 -0.044610485 -0.0083750505 0.011693742
000110 6a 61 15 3c ec e6 85 3c 66 b2 f5 bc 1c 93 ae bc
       0.009117464 0.016345464 -0.029992294 -0.021310382
000120 4d 6f 5e 3d f0 5e 8e bc 9f df 6d 3d 0e ca 0c bd
       0.054305363 -0.017379254 0.05807459 -0.034372382
000130 7f 5a 8b bc 48 34 29 bd b6 30 af bc 85 12 62 bc
       -0.017010925 -0.041309625 -0.021385532 -0.013798361
000140 a7 1b 50 bd bc cb ae bd 34 96 2b be 42 a3 c0 bd
       -0.05080762 -0.08534953 -0.16756517 -0.09406139
000150 27 b9 a3 3c f4 02 22 bc 32 92 a4 3c 3d db 10 3d
       0.019985748 -0.009888399 0.020089243 0.035365332
000160 f9 6e 2b 3d af b5 94 3c e9 15 a2 3d 18 88 46 3d
       0.04185388 0.01815304 0.07914335 0.048469633
000170 ba 1a f8 3b e5 0e 87 3c 8b bf 63 3d 5d ee 2c 3d
       0.0075715454 0.016486594 0.05560259 0.04221951
000180 ec c8 69 bd 13 1c 74 bd 0b 67 e2 3c 0a d1 de 3c
       -0.05707638 -0.059597086 0.027637025 0.027199287
000190 e9 0e 1e bd 91 1d 3b 3c fe 49 1e 3d b9 70 5d 3d
       -0.03858844 0.011420623 0.038644783 0.05406258
0001a0 a4 9b 41 bc 63 89 7a 3c a7 ff 27 3d b0 db 0f 3d
       -0.011816893 0.015291545 0.041015293 0.03512162
0001b0 e9 c6 23 3d 5c 92 5b bc e4 df 39 bd 92 41 bd bc
       0.039984617 -0.013401594 -0.045379534 -0.023102555
0001c0 47 7a 0c 3b 62 ca bd 3c 5a 5a a5 bb a6 7c 5b 3d
       0.0021435188 0.023167793 -0.005046171 0.05358567
0001d0 1e 4f 82 3d ed 6e c3 39 ce 24 05 3b 35 c2 3b bd
       0.06362747 0.00037275944 0.0020316127 -0.045839507
0001e0 e7 3f 97 3c 7e 70 c9 3c b2 ba 5f bc 6e 87 1b 3d
       0.018463088 0.024589773 -0.0136553515 0.037970953
0001f0 1c d5 64 bd 01 07 93 bd 92 47 a2 3c e2 6b f9 bc
       -0.0558673 -0.0717907 0.019809518 -0.03044695
000200 f0 98 99 3d 2c 5a 4e 3a 61 b8 8f 3b 55 ff b8 3c
       0.07499874 0.0007871713 0.0043859934 0.02258269
000210 6d 03 86 3d a1 15 62 3c 09 32 72 bb a6 ae c4 3c
       0.06543622 0.013799102 -0.0036956093 0.02400906
000220 94 e0 ad 3c 5b b9 fb 3b a0 04 1c 3c 16 f4 02 bd
       0.021225251 0.007682008 0.009522587 -0.03197106
000230 69 38 54 bc 50 fd 4b bd e7 b8 ea bb 6a 50 08 bc
       -0.012952902 -0.049802125 -0.0071631554 -0.008319953
000240 a1 a2 0a 3c e9 5d 85 bd cb 9e ab bd c6 b8 c8 bd
       0.008461625 -0.065120526 -0.08379897 -0.09800868
000250 ca 16 9c 3c 58 76 19 3d 70 bf 7e 3c 55 27 c7 bb
       0.019053835 0.037466377 0.015548572 -0.006077687
000260 0e 28 89 bd 88 0a d6 3c 80 73 1c bd 55 fd 41 bc
       -0.06697093 0.026128069 -0.038196087 -0.011840184
000270 15 a7 86 bd c2 88 27 3d f0 79 aa bb 0a 10 87 3d
       -0.06574837 0.040901907 -0.0052025244 0.06594856
000280 58 8e 92 bd 17 55 62 bd 88 ea cb 3b ac b4 33 3d
       -0.07156056 -0.05525693 0.0062230267 0.043873474
000290 38 fa 58 bd 5d a9 e7 3c c9 ec 9e 3c a3 c6 c1 bc
       -0.052973002 0.028279 0.019400017 -0.023654288
0002a0 7f 11 3e bc 6c 5f d1 3c 55 4c 92 3d fc aa bd 3c
       -0.011600851 0.025558196 0.071434654 0.02315282
0002b0 ab 5e ed 3c 11 d0 fe 3a 06 03 fa bc 4f 18 21 bd
       0.028975805 0.0019440671 -0.03051902 -0.039329823
0002c0 18 bc f6 bd 18 b4 f6 bc c9 91 e8 bc d6 ed fa 3b
       -0.12047595 -0.030115172 -0.028389828 0.007657747
0002d0 e2 9a 15 bc f3 db ec bc 5a 28 e7 bc fa 44 19 3d
       -0.009131165 -0.028913474 -0.028217483 0.037419297
0002e0 a4 d7 a9 3c 7e ed 5a bd 70 84 c7 bc 97 19 a0 bc
       0.020732708 -0.053449146 -0.024355143 -0.019543452
0002f0 14 b8 8b bc 7b 34 24 bd ea 51 63 bd 7b c0 ec bc
       -0.017055549 -0.04008911 -0.05549804 -0.028900376
000300 00 2f 22 3e 5e 51 35 3e 56 01 2b 3d 3e 96 8c bd
       0.15838242 0.1770682 0.04174932 -0.06864594
000310 a1 be a3 3d e2 ab a6 3c ff b9 20 bd 2b 62 ba bd
       0.07995344 0.020345632 -0.03923988 -0.09100755
000320 b7 4d 5f bc ea 60 5e bd 3b 25 40 bd 7c 2d 16 bd
       -0.0136293685 -0.054291643 -0.046910506 -0.03666447
000330 2e ef 72 3a 2f 2b 42 3d 25 b3 c6 bc 3e 4e bf bc
       0.0009267208 0.047404464 -0.024255345 -0.023352738
000340 60 e9 77 bc 7d ec 19 3d cb db 8f 3d 78 c6 67 3d
       -0.0151313245 0.03757905 0.07024344 0.05658576
000350 9a 5f 0c bd ad 6a 09 3d 58 6f 46 bd e4 26 87 3c
       -0.03427086 0.033549 -0.04844603 0.016498037
000360 4c bf 2d 3d 06 1e ff bc a9 81 03 bc 32 b7 a0 bd
       0.042418763 -0.031142246 -0.008026519 -0.07847442
000370 d9 d0 00 bc e6 81 0f 3d ee b7 4c 3c be 68 84 bd
       -0.007862293 0.03503599 0.012495024 -0.064652905
000380 f0 e2 d8 bd 2b 73 a0 bd 26 4c db bd 00 2f 6a 3d
       -0.1059016 -0.078344665 -0.107078835 0.05717373
000390 9d eb 31 bd 80 04 ad 3b 61 fe f8 bb 79 d7 97 bc
       -0.04343759 0.0052800775 -0.0075986837 -0.018535363
0003a0 c1 e5 58 3d 35 d3 56 3d 2d ac 22 3d 7f 10 c9 3b
       0.052953485 0.052447516 0.03971498 0.0061359997
0003b0 f5 f6 8d 3c 1a 57 0e bc 33 dd 0e bc 69 99 be bc
       0.017329672 -0.008687759 -0.00871973 -0.023266511
0003c0 ce 73 b4 bd 60 0b db bd 74 7a 02 be c9 40 9c bd
       -0.088111505 -0.10695529 -0.12742025 -0.07629544
0003d0 dd 7a ae bd 66 75 69 3c d9 3c 74 3c c6 63 91 bd
       -0.08519528 0.014249181 0.014907085 -0.070991084
0003e0 49 91 0a 3d 65 40 72 bc 14 f2 d6 3b 63 a8 35 3c
       0.03382996 -0.014785861 0.0065596197 0.01108751
0003f0 92 d0 d5 3a c4 3b 10 3d fc 30 25 3c 2b 16 8e 3a
       0.0016312769 0.035213247 0.01008248 0.0010840347

class_classifier.0.bias f4 [100]
000000 fd e0 bb 3b 6b ef 0e 3d b5 84 86 bc 18 0a 58 bc
       0.005733608 0.034896296 -0.016420702 -0.013186
000010 f3 1a 4f 3c 09 97 0f bd ee 47 c7 bc 83 e1 67 3c
       0.012640703 -0.035056148 -0.024326291 0.014152887
000020 b2 19 a9 3b fb 1f 8b 3c 97 e4 a8 bc 2a 6a 2e 3c
       0.005160534 0.016983023 -0.020616813 0.010645429
000030 05 24 09 3d f2 37 83 3c 91 9f 80 bb 52 55 e0 bc
       0.033481617 0.016017888 -0.003925272 -0.027384434
000040 49 73 98 bc 74 56 f8 3c b0 bc 02 3b 37 fa e7 3c
       -0.01860966 0.030314662 0.0019948892 0.028317554
000050 6a 82 08 bd f3 e5 8b bc 18 6f c3 3c df e6 83 bb
       -0.033327498 -0.017077422 0.023856685 -0.0040253247
000060 fc c2 8b bc 2a e9 93 3c 83 25 cf bb 3e 6a e6 3c
       -0.01706075 0.018055517 -0.0063216104 0.028126832
000070 f6 63 15 bc c0 ea cb ba dc 8e 78 bc 19 9a 73 bc
       -0.009118071 -0.0015557632 -0.015170779 -0.014868283
000080 d9 69 0c 3c 88 f2 9c bc 93 40 b1 bc 8f 03 9b bc
       0.008570158 -0.019158617 -0.021637237 -0.018922595
000090 35 9c b1 bb e7 61 12 3d 39 d8 9d bc a2 91 6c 3c
       -0.0054202327 0.0357379 -0.019268142 0.014439018
0000a0 1e 33 51 3c 43 dc 92 3c de 97 12 3d f2 98 4d bc
       0.012768535 0.017927295 0.035789363 -0.012548672
0000b0 9b 0c 75 bc 9a 00 18 bc de fc 18 3c 0a 8d e6 3c
       -0.014956619 -0.009277487 0.009337632 0.028143425
0000c0 20 3d e8 bb 9b aa db 3c 24 d0 f7 3c b0 b9 99 bc
       -0.007087365 0.02681475 0.030250616 -0.0187653
0000d0 5b 1a 08 bd 12 0d 04 bd 4b 30 1b 3c 8f fa 8b 3a
       -0.03322826 -0.032239027 0.009471963 0.0010679531
0000e0 8d e4 66 bb 3f 43 f2 3b d6 20 d7 3c a0 98 e6 3c
       -0.0035231442 0.0073932703 0.026260775 0.02814895
0000f0 86 a1 66 3c 9e 2e 1b 3c 23 15 27 3c ba 5b 96 3c
       0.014076596 0.009471564 0.0101979105 0.018354286
000100 59 d0 fd ba 0b a1 cd bc 09 3d 07 3c 8b b3 06 3d
       -0.0019364461 -0.025101205 0.008254298 0.03288607
000110 e1 02 87 ba c1 9c bc bc 1c 90 fa 3c ef 11 88 bc
       -0.0010300541 -0.023023965 0.030586295 -0.016610114
000120 96 c8 5e 3c bd 11 8d 3c 30 8f cd bc d8 9e 0a bd
       0.013597628 0.017220372 -0.025092691 -0.03384289
000130 02 64 e6 bc fa a5 0c bd d1 fa c3 3c 4c 90 85 3c
       -0.02812386 -0.034337975 0.02392331 0.016304158
000140 3b 9f 78 3c bc 90 da bc b0 80 fd 3c 85 c6 2f bc
       0.015174682 -0.026680343 0.030945152 -0.010728483
000150 69 b6 b4 3c 2c 0b ae 3b 5a 31 04 3d 42 60 b1 3c
       0.022059636 0.0053113904 0.032273628 0.021652345
000160 18 af be 3c 19 a6 e9 b9 8c f0 1f bc 30 8d ca 3c
       0.02327685 -0.00044564976 -0.009761941 0.024725527
000170 cf 01 11 bd de d9 f6 bc 1e 80 0e bd 99 8e 99 3c
       -0.035402115 -0.030133184 -0.03479015 0.018744754
000180 a0 28 9b bc 76 38 a3 3c 1f 12 09 3d 7c 17 01 3d
       -0.01894027 0.019924384 0.033464547 0.031516537

class_classifier.1.weight f4 [100]
000000 dd 47 33 3f c0 4e 9b 3e 8b 3d 15 3f 17 5b 1c 3f
       0.7003153 0.3033352 0.5829703 0.6107649
000010 af a6 1a 3f da 22 fd 3e 65 58 37 3f ca 3a c1 3e
       0.6041059 0.49440652 0.71619254 0.37740165
000020 3b 47 3d 3f 41 0e ec 3e ec 37 9d 3e e4 e7 ac 3e
       0.73936814 0.46104625 0.30706728 0.33770669
000030 66 b3 09 3f dc 8f 0a 3f 93 46 3e 3f 86 ad 4e 3f
       0.53789365 0.5412576 0.7432644 0.80733526
000040 7c 63 1a 3f 2b 06 ef 3e f6 48 2c 3f 76 c3 30 3f
       0.6030805 0.46684393 0.6729883 0.6904825
000050 e0 84 52 3f c4 46 0e 3f 33 71 ce 3e 53 d7 be 3e
       0.82234 0.5557673 0.4032074 0.37273654
000060 f9 d0 1a 3f bc 81 d0 3e 50 ef 9c 3e 01 a1 56 3f
       0.60475117 0.4072398 0.3065133 0.8383942
000070 e5 d1 c3 3e 26 a5 32 3f ed bc 07 3f 11 b0 3e 3f
       0.38246074 0.69783247 0.5302265 0.74487406
000080 5c 14 e1 3e fe 34 44 3f cc 0c 0e 3f 96 15 a7 3e
       0.43960845 0.7664336 0.55488276 0.32633656
000090 a2 17 df 3e 87 3a 61 3f f4 75 fd 3e 76 2f e5 3e
       0.43572718 0.8797993 0.49504054 0.44762772
0000a0 03 40 ba 3e a5 1a f4 3e 18 83 79 3e ee 3f 3a 3f
       0.36376962 0.47676578 0.24366415 0.727538
0000b0 5d 71 e0 3e d5 26 2c 3f bd 03 8e 3e 17 7b 11 3f
       0.4383649 0.6724675 0.27737227 0.56828445
0000c0 c4 97 10 3f 46 60 26 3f 26 3c 22 3f b6 3a 1e 3f
       0.56481576 0.6499065 0.6337303 0.61808336
0000d0 da 57 19 3f 4d 99 db 3e a2 fd 9e 3e 73 8b 1e 3f
       0.59899676 0.42890397 0.3105288 0.6193153
0000e0 ff e2 d4 3e bd 4c 0d 3f 4b 8e 45 3f 03 4b 8b 3e
       0.41579434 0.5519522 0.77170247 0.27205667
0000f0 d4 6f fc 3e 9e af 30 3f 5e 14 8e 3e 52 24 61 3f
       0.49304068 0.6901797 0.27749914 0.87946045
000100 8d 93 26 3f ff 54 0c 3f ba 57 85 3e 3d 23 68 3e
       0.65068895 0.54817194 0.26043493 0.22669692
000110 95 e6 e4 3e 1d 16 57 3f 72 ab d5 3e ab 48 f1 3e
       0.4470717 0.8401812 0.41732365 0.47125754
000120 e6 4b 10 3f e2 cb 7d 3e 98 47 53 3f d8 de d8 3e
       0.5636581 0.24784806 0.8253112 0.42357516
000130 1a 5a 8c 3e cb 95 49 3f 6e bf 15 3f 65 01 93 3e
       0.27412492 0.7874419 0.58495224 0.28712
000140 93 65 34 3f 74 4b e5 3e 2b 50 a2 3e f6 c4 ea 3e
       0.7046749 0.4478413 0.31701788 0.45853394
000150 39 6f 46 3f ba fe df 3e 82 9d 50 3f 0e 60 4a 3f
       0.7751346 0.43749028 0.8149034 0.7905282
000160 84 63 11 3f f2 55 a7 3e 5e 67 8b 3e 05 17 c5 3e
       0.56792474 0.3268276 0.272273 0.38494125
000170 b5 59 05 3f 87 12 eb 3e e3 5b 39 3f d7 ca 12 3f
       0.5209001 0.45912573 0.72405833 0.5734076
000180 e4 d4 0d 3f 33 8d c9 3e 0e 6b 25 3f 54 29 bd 3e
       0.5540297 0.3936554 0.6461648 0.36945593

class_classifier.1.bias f4 [100]
000000 a7 b2 68 be 4f 74 9b bd 67 a5 e7 bd 88 a6 38 be
       -0.227244 -0.075905435 -0.11310845 -0.18032277
000010 e3 85 cd bd 0a 40 9a bd a3 b3 43 be 2c 4c c3 bd
       -0.100353025 -0.07531746 -0.19111495 -0.09536013
000020 ce bc 1a be d6 29 74 bd 3f 90 86 bc 07 57 fb bd
       -0.15111086 -0.05961021 -0.016426204 -0.122724585
000030 c6 64 3e be 78 c2 21 be 65 2f f7 bd 4d 58 78 be
       -0.1859313 -0.1579684 -0.12069587 -0.24252434
000040 06 4f d0 bd 49 d4 01 be cb 4e ee bd ff 75 61 be
       -0.101713225 -0.12678637 -0.11636122 -0.22017668
000050 2c 78 1c be 3d 62 80 be 55 11 b3 bd e3 e7 20 be
       -0.15280217 -0.2507495 -0.0874354 -0.15713458
000060 bd 21 22 be 7c 4b 0b be 37 c4 87 bc bc a1 53 be
       -0.15833183 -0.13603014 -0.016573055 -0.20667166
000070 bf 38 1c be 86 83 c5 bd 7d 83 0f be 7c ec f9 bd
       -0.15256022 -0.09644227 -0.14015003 -0.12203309
000080 cf 67 d5 bd 8a 78 3c be 1a fc 0a be ef d5 a4 bd
       -0.104201905 -0.18405357 -0.13572732 -0.08048617
000090 bb a5 a6 bd 18 f7 7c be fa 4d 0d bd f1 8d 3a be
       -0.08137079 -0.24703634 -0.034498192 -0.18218209
0000a0 4b b5 0b be e3 de 24 be ea f6 8c bd 0b db f1 bd
       -0.13643377 -0.1610065 -0.068830326 -0.11809357
0000b0 ad bb b2 bd 54 63 40 be a5 bf ff bc ac 14 1f be
       -0.087272026 -0.1878789 -0.031219313 -0.1553523
0000c0 d0 4b dc bd c2 2a 65 be 63 f2 19 be 84 a2 27 be
       -0.107566476 -0.22379592 -0.1503387 -0.16370589
0000d0 73 09 37 be 13 b3 22 be 38 ec 80 bd 5e fb 19 be
       -0.17874698 -0.15888624 -0.06295055 -0.15037295
0000e0 66 96 21 be e2 1f 51 be 4c b1 25 be 00 c1 36 bd
       -0.15780029 -0.20422319 -0.16180915 -0.044617653
0000f0 87 5a 73 bd c4 51 86 be 5c 6e 51 bd 2c 09 11 be
       -0.059412505 -0.26234257 -0.051130638 -0.14163655
000100 e1 70 4a be d5 5e 1a be 86 7f 27 bd 50 8d 9a bd
       -0.19769622 -0.15075238 -0.0408931 -0.075464845
000110 e0 cd 89 bd fd e9 14 be f8 bd 12 bc b9 9a 7b bc
       -0.06728721 -0.14542384 -0.008956425 -0.015356713
000120 73 be d9 bd 41 f9 4e bd d2 0f 87 be 0b a8 01 be
       -0.106320284 -0.050530676 -0.26379257 -0.1266176
000130 2c c8 55 3c 4b e1 00 be 7a 85 19 be 58 74 ac bc
       0.013048213 -0.12585942 -0.14992324 -0.02105157
000140 3e 8b 47 be 51 c4 c0 bd a0 ae 07 bc 1c 5e ea bd
       -0.1948671 -0.094124444 -0.00828138 -0.11443731
000150 58 43 c0 bd 0a 7c f6 bd 2a f9 29 be a6 88 41 be
       -0.09387845 -0.12035377 -0.16598955 -0.18899783
000160 fa 87 bf bd 7e 0d 28 3c eb bc fb bc 10 db be bd
       -0.09352107 0.010257123 -0.030729732 -0.093191266
000170 75 7c 05 be e9 5e bd bc 76 f3 de bd f9 2a e8 bd
       -0.13035758 -0.023116546 -0.1088628 -0.113363214
000180 f0 ff 2d be 36 00 1c be aa 44 56 be 12 21 19 be
       -0.16992164 -0.15234455 -0.20924631 -0.14954022

class_classifier.1.running_mean f4 [100]
000000 5a f9 93 bf 0e 42 3f bf 29 f1 e6 be 18 60 b5 be
       -1.1560471 -0.74710166 -0.45105866 -0.35424876
000010 34 8c 2d be fc c8 59 bf d6 7c 5c bf 18 17 2f bf
       -0.16948014 -0.850723 -0.86127985 -0.68394613
000020 b1 bc 97 bf 75 bb 22 be e6 50 b4 bf 7f 42 a4 bf
       -1.1854459 -0.15891822 -1.4087188 -1.2832793
000030 e3 dd 65 be db 52 87 bf 1a a4 fe be cc 50 b2 bf
       -0.22447924 -1.057216 -0.49734575 -1.3930907
000040 47 c7 8c bf c6 cb ae bf 54 ce 73 bf 54 12 67 bf
       -1.0998315 -1.3655937 -0.95236707 -0.9026234
000050 0e 99 10 bf f9 06 d0 bf 31 84 79 bf aa e1 df bf
       -0.5648354 -1.6252128 -0.97467333 -1.7490742
000060 22 dd 97 bf 0b 3c d4 bf 34 d8 0b be 31 96 96 bf
       -1.1864359 -1.6580824 -0.13656694 -1.1764585
000070 52 10 a1 bf 73 da 1c bf 9a e8 13 bf 03 41 6b be
       -1.2583106 -0.6127083 -0.57776797 -0.22974019
000080 26 ee b1 be 62 49 22 bf 20 6c 1f 3e 71 d2 62 bf
       -0.34752005 -0.63393223 0.1556859 -0.8860236
000090 8b 42 58 bf 50 5e a3 bf ac 37 30 3e 67 88 c8 bf
       -0.84476537 -1.2763157 0.17208737 -1.5666627
0000a0 12 eb ef be 81 58 9d bf b2 e1 15 bf d5 3c a7 bf
       -0.46859032 -1.2292634 -0.5854751 -1.306544
0000b0 7e e5 74 be c3 ab e3 be 5f 72 74 bf c6 af 5c be
       -0.2391567 -0.4446698 -0.95487016 -0.21551427
0000c0 d1 a1 9e bf ee 97 4d bf c4 5a 32 bf b3 d8 9b bf
       -1.2393132 -0.8030995 -0.6966975 -1.2175506
0000d0 61 1b 0a bf f3 36 b0 bf 7c 23 6f bf f3 fa 95 bf
       -0.53948027 -1.3766769 -0.9341352 -1.1717209
0000e0 7f 09 64 bf c7 8f 27 bf 00 2b 35 bf 9e ea 85 bf
       -0.8907699 -0.6545376 -0.7076874 -1.0462224
0000f0 7b 29 0c bf 12 eb b0 bf 31 a0 48 bf 61 8e 2d bf
       -0.54750794 -1.3821738 -0.7836943 -0.6779538
000100 8d 1e 86 bf 4e e8 b5 bf f2 13 52 bf 1f 43 4f bf
       -1.0478073 -1.4211519 -0.82061684 -0.80961794
000110 f5 ae 70 bf c0 45 48 be e0 e8 3b bf 15 e7 82 bf
       -0.94016963 -0.19557858 -0.73402214 -1.0226771
000120 fb 47 81 bf 4f cf 4d bf 88 3a a0 bf 6b 17 38 bf
       -1.0100092 -0.8039445 -1.2517862 -0.71910733
000130 7c 7a be bb 73 00 a4 bf a4 e0 ad bf db 04 3a bf
       -0.005812941 -1.2812637 -1.358418 -0.7266366
000140 c6 7f 7c be e0 3b 92 bd ba 68 03 bf 48 c0 9f bf
       -0.24658117 -0.071403265 -0.51331675 -1.2480555
000150 6a a6 23 bf 31 5a 69 bf 17 f4 8d be 4e 18 72 be
       -0.639258 -0.91153246 -0.27725288 -0.23642084
000160 7b 3d 54 bf fe 04 a9 be 9b f0 3f bf 0f 97 2a bf
       -0.8290631 -0.3301162 -0.7497651 -0.6663675
000170 a5 ba 54 bf b9 e7 e2 bd fd 6e 6e bf 57 b3 34 bd
       -0.83097297 -0.11079354 -0.93138105 -0.044116344
000180 a2 e1 1e bf 40 ba 82 bf 2c ab e1 be c0 76 bc bf
       -0.6206304 -1.0213089 -0.44075906 -1.472374

class_classifier.1.running_var f4 [100]
000000 b1 03 33 40 98 d5 24 40 d5 02 0c 40 61 38 f4 3f
       2.7971003 2.5755367 2.1876729 1.9079705
000010 6d b7 11 40 af df 08 40 dd d0 26 40 68 2b 1d 40
       2.2768204 2.1386526 2.606498 2.4557743
000020 cb b5 1c 40 00 d5 e8 3f de 17 71 40 2f 6d 25 40
       2.4485958 1.8190002 3.7670817 2.584789
000030 4b 82 f8 3f 28 69 1a 40 37 3c 0b 40 30 08 01 40
       1.9414762 2.4126682 2.1755502 2.0161247
000040 a4 bf 2c 40 64 ea 26 40 54 da 0b 40 53 a0 fb 3f
       2.6991968 2.608056 2.1852007 1.9658302
000050 e1 ae 18 40 49 89 20 40 83 60 47 40 48 c9 2e 40
       2.3856738 2.5083792 3.1152656 2.7310352
000060 5c 92 0c 40 c1 3e 69 40 eb 17 0d 40 e6 10 08 40
       2.196433 3.6444552 2.2045848 2.1260314
000070 f0 4b 50 40 01 30 d3 3f c4 87 00 40 19 ee 17 40
       3.2546349 1.6499025 2.0082865 2.3739073
000080 45 27 72 40 19 2f 07 40 f4 ff ca 3f 7b 73 37 40
       3.7836468 2.1122496 1.5859361 2.8664234
000090 a0 c9 14 40 78 d2 58 40 4b 85 f9 3f e9 6b 15 40
       2.3248062 3.387846 1.9493803 2.3347113
0000a0 21 38 4a 40 2b 50 0f 40 83 f9 0a 40 00 03 12 40
       3.1596758 2.239268 2.171479 2.281433
0000b0 b6 5a 09 40 8a 65 f9 3f ef 82 81 40 c3 b4 ff 3f
       2.1461616 1.9484112 4.047233 1.9977039
0000c0 f6 de 50 40 65 5b 02 40 67 c7 d2 3f 14 40 69 40
       3.2636085 2.0368283 1.6467103 3.644536
0000d0 95 36 01 40 8c e0 10 40 be 21 57 40 fc f9 50 40
       2.0189564 2.2637053 3.3614345 3.2652578
0000e0 73 a5 01 40 5d fa f3 3f 42 79 f3 3f 4b 52 38 40
       2.0257232 1.906078 1.902138 2.8800228
0000f0 22 4a 28 40 33 f3 2a 40 b0 51 51 40 1d 83 a6 3f
       2.6295247 2.6710937 3.2706108 1.3008763
000100 d9 23 18 40 cc d1 62 40 5f 2b 69 40 a4 e3 0d 40
       2.377188 3.544055 3.6432722 2.217019
000110 17 b0 30 40 39 ab 11 40 e5 5d 2d 40 61 62 18 40
       2.7607477 2.2760756 2.7088559 2.3810046
000120 42 cb 00 40 4d de 12 40 e0 f7 d7 3f 6d d6 e3 3f
       2.0124059 2.2948182 1.687252 1.7799813
000130 33 4e 6a 40 1a bc 1d 40 f2 08 3d 40 51 c3 1c 40
       3.661023 2.4646058 2.953671 2.4494212
000140 d7 00 0a 40 c8 e8 01 40 8c 94 6d 40 f2 55 e7 3f
       2.1563013 2.0298328 3.7121916 1.8073103
000150 7b da 07 40 8c 82 06 40 4b b5 c1 3f af a9 07 40
       2.12271 2.101718 1.5133451 2.1197317
000160 17 de 2e 40 d3 78 22 40 43 a1 84 40 2c 52 17 40
       2.7323053 2.5386245 4.1446853 2.3643904
000170 d4 e2 c8 3f 61 f6 11 40 7c aa 25 40 22 7f 1e 40
       1.5694222 2.2806628 2.5885305 2.4765096
000180 95 1c 32 40 57 38 53 40 e2 f9 b0 3f 35 dc 57 40
       2.7829945 3.3003137 1.3826258 3.3728154
