hw3/models/usps_mnistm.pth (torch_old, 836884 bytes, 34 tensors)

feature.0.weight f4 [32, 3, 5, 5]
00000000: 4944 edbd 0ef3 26bd fcaf c73d 3af0 f63d
00000010: c9f2 13bc f7b0 edbd 186b b13d 9b86 36bd
00000020: 5728 16bd a8bf 213e 7f24 883d 6238 f63c
00000030: 1a36 1bbe ac90 d0bd 0a33 163d abef babc
00000040: 84cf 083e 8393 13be 26dd b7bc 063f 693d
00000050: 7642 06be a8ea 533c 5def a5bd e1ac b13a
00000060: 1eb7 933c 24fe 943d a182 dd3d 946f 59bc
00000070: 24cc a4bd d8bd b83c 62b9 c83d 04cf e4bd
00000080: 85cb 443d 1a0a 12be 8296 9ebc 7857 f93c
00000090: 86a2 cb3d b903 babd 8419 84bd 5ff4 d33d
000000a0: 245c 16bc 219c 20bd ecdb 82bd fd74 18be
000000b0: fb1f a13d f1f2 bc3c eb4b 6c3c eb5b 86bd
000000c0: 829a a5bd 5680 f73c 870f 42bd dd9d d33d
000000d0: c0e5 8abd b58c c93b 4292 1c3d af1c aebb
000000e0: 7e75 75bd f091 abbd 768d 2dbe 0f97 223e
000000f0: 2301 f83d eabf a4bc 0913 63bd bcd4 b3bd
00000100: 9af3 253e 6470 a63d 96a0 333e c942 093e
00000110: b8df 843c c673 d1bc 73cc b53c b602 2b3e
00000120: d5dc 053e 643a a03d a662 6c3d f45e 3a3c
00000130: f8de 923d 57af beba 1dd4 d5bd cb28 d43d
00000140: ed1a 913d 8eb6 edbd ada0 663d 1d1b 9c3c
00000150: e339 12be 47a5 603d 7bbb a4bd 5d5a 91bd
00000160: 5929 0ebe feab b7ba fba6 acbd 66ca 31bd
00000170: 88ab b0bd 2563 0ebd 1fec 6fbd 2494 0abe
00000180: 16ec d33c 0da6 823d 0e4c e0bd cc8b b83d
00000190: 4167 c53c 7160 ce3d 9cac 75bc 0f26 f53d
000001a0: 51fc 70bd 3fc7 b93d b493 b4bc f17a a1bc
000001b0: d9a6 99bd 233a 82bd cd12 99bd 19e0 e53a
000001c0: 6c0a 703d b674 c1bd db1c e3bc ed71 aebd
000001d0: 49c0 d8bd f8e3 633d f199 ec3c 4c03 eebd
000001e0: af16 d9bd ea2c 91bd 6af2 babd f79b aebd
000001f0: 46df eebd d31c b83c f460 063e 81b5 853c
00000200: 1874 043e 68f7 ec3d 32bb 99bd 1592 9eba
00000210: 66a5 0b3e e771 d03d a0eb 213c edff d43d
00000220: 4545 c83c 0a40 61bc b808 12bd c03e a03d
00000230: 88f5 25be 3988 3aba 26fd b1bd 47ad 8bbd
00000240: b7eb 6cbd 75ce 30be f411 d5bd 0fa3 433d
00000250: 58a5 ccbd d4b2 c83c a41c 163d ed15 9b3c
00000260: 0f86 153d 7f88 fe3a ea53 fe3d 5194 a6bd
00000270: d6e5 6cbd b72e f43d 1f00 6b3c 6312 393d
00000280: a5da 943d 7b8c 93bd 6ab4 55bc 5c8e 4e3d
00000290: b0c1 653d 16f6 c0bd d1d6 ccbd c6bf c33d
000002a0: a624 143d 3194 0ebc de23 1cbd d9d1 f1bd
000002b0: b83a 8cbd e37f 6f3c cf5f fc3d 5877 11bd
000002c0: b61f 81bd 3d7c a8bd b174 42bd 6b75 083e
000002d0: dfc1 9ebc 7e1e dbbd 7ff0 f7bc bad9 e0bc
000002e0: 91bf 28bd 51fc dbbc 0c1a 3cbd 63e5 8bbd
000002f0: 4add 31be 5c66 21bb be30 783d ac98 9bbd
00000300: eb73 1fbd 5b4e 84bd ada4 7c3c 97af 5b3d
00000310: 5a17 13bd 89a1 8dbc 45c6 403d c0ef 8b3a
00000320: faaa 9e3d e666 a83d ff32 633d 71b9 eb3d
00000330: 849e 223e 926b d13d 7c0d 60bc b6b4 633e
00000340: 8b43 c13c c912 81bd 4560 d93d e2bb edbc
00000350: 74fb f13d 23f6 edbb 013d dbbd ef8e cf3d
00000360: fbde 3c3d 87ef 3a3e 8bd1 eabd 90a4 b1bd
00000370: ff4f 023e 329c d03d 30fa 26bd 6c3d ad3c
00000380: 48df 6ebd d7dd 243d 134d d43d 02b8 693d
00000390: e158 97bc 29d6 fb3d f3c5 e9bd 3ece b4bd
000003a0: 0149 e53d 591b b33c 2c2c 36bd 5b54 c5bd
000003b0: 7b50 6abd 1c55 f33d ea66 e4bc 066b cbbd
000003c0: cedb 0cbd d149 883d a038 d5bb 2fa2 883d
000003d0: eea2 8d3c a76c 47bd 5fb2 64bd 8d97 453d
000003e0: 2b21 e3bd e0b4 183d 56d9 ed3c 9cb0 963d
000003f0: c8e0 0c3d 899c a93d 2483 08bd 3b29 b9bc
-0.1158529 -0.04075914 0.09750363 0.12057538 -0.009030052 -0.11606019 0.08663005 -0.044561964
-0.036659565 0.15795767 0.06647586 0.030056182 -0.15157357 -0.10183844 0.03666977 -0.02281936
0.13360411 -0.1441174 -0.022444319 0.05694487 -0.1311129 0.012934364 -0.081022955 0.001355555
0.018031653 0.07275036 0.10815931 -0.013271231 -0.08046749 0.022551462 0.09800984 -0.111722976
0.048045654 -0.14261666 -0.019358877 0.030437216 0.09943108 -0.09082741 -0.06450179 0.103493445
-0.0091772415 -0.039211396 -0.06389603 -0.14888377 0.07867428 0.023065062 0.014422397 -0.06560501
-0.08086111 0.030212563 -0.04737809 0.103328444 -0.067821026 0.006150807 0.03822542 -0.005313478
-0.059926502 -0.08377445 -0.16948494 0.15877937 0.12109592 -0.020111043 -0.055438075 -0.0878081
0.16206208 0.081269056 0.17541727 0.13404383 0.016219959 -0.0255679 0.022192216 0.16700253
0.13072522 0.07823637 0.057711266 0.011375178 0.07171434 -0.0014548105 -0.10440848 0.10359343
0.07085214 -0.11607085 0.056305576 0.019055897 -0.14279895 0.05484512 -0.080435716 -0.070973136
-0.1388296 -0.001401305 -0.084302865 -0.043405913 -0.08626467 -0.03476252 -0.058574792 -0.13533074
0.02586941 0.06379328 -0.10952006 0.09011039 0.024097087 0.100769885 -0.014994767 0.1197015
-0.058834378 0.09071206 -0.022043087 -0.019711943 -0.07502527 -0.06358745 -0.07474289 0.00175381
0.05860369 -0.09446089 -0.02772372 -0.08517823 -0.105835505 0.05563733 0.028881999 -0.116217226
-0.1060003 -0.07088645 -0.09128268 -0.08525842 -0.1166368 0.022474682 0.13122922 0.0163219
0.12934911 0.115706265 -0.07506408 -0.0012097979 0.13637313 0.10177975 0.0098828375 0.104003765
0.024447093 -0.013748178 -0.035652846 0.078244686 -0.16206944 -0.00071156357 -0.08690862 -0.068201594
-0.057841983 -0.17266257 -0.10403815 0.047762927 -0.09992474 0.024499334 0.036648408 0.018931353
0.0365048 0.0019419341 0.12418349 -0.08133758 -0.057836376 0.11922973 0.014343291 0.04518355
0.07268266 -0.07204529 -0.013043502 0.050428733 0.056092918 -0.09421937 -0.100019105 0.09558062
0.036167763 -0.008702324 -0.038120143 -0.118076034 -0.06847137 0.014617893 0.123229615 -0.035514206
-0.063048765 -0.082268216 -0.047474567 0.13326041 -0.019379554 -0.10699175 -0.030266045 -0.02744757
-0.041198317 -0.026853712 -0.045923278 -0.068308614 -0.17369571 -0.0024627661 0.06059336 -0.07597479
-0.038928907 -0.064602576 0.015420121 0.053634252 -0.03591094 -0.01728894 0.047064085 0.001067631
0.07747455 0.08222751 0.055468556 0.115099795 0.15880781 0.102255955 -0.01367509 0.22236905
0.023591777 -0.06302411 0.10614065 -0.029020254 0.11815539 -0.007262008 -0.10704995 0.10134684
0.04611109 0.18255435 -0.114657484 -0.08673966 0.12725829 0.10186042 -0.04076594 0.021147452
-0.058318406 0.040250625 0.10366263 0.05706025 -0.018474998 0.12296707 -0.11414709 -0.088284
0.11195565 0.021863626 -0.04447572 -0.0963523 -0.05720566 0.11881468 -0.027881104 -0.099325225
-0.03438931 0.06654704 -0.0065069944 0.06671559 0.017289605 -0.048687603 -0.05583417 0.048240233
-0.11090311 0.03728187 0.029034298 0.07357904 0.034394056 0.0828181 -0.03332819 -0.022602668

feature.0.bias f4 [32]
00000000: cdbd 523d cc6f 713d 7bce dd3c 5b71 e1bd
00000010: 234d f3bb c695 bf3d 4895 7d3d 6048 76bc
00000020: d85d 40b9 e115 b23d d099 5b3d 1398 61bd
00000030: b0f8 dcbd 7aca 333a c22a 69bd 0c15 08bd
00000040: ca6d 2cbd a0de 39bd 778a f73d 289a 4e3d
00000050: 49b3 e03d 32f8 4cbb 82f5 ccbd 096a 603d
00000060: a932 4abd 3c18 9e3d 7d92 0d3d 77b3 2dbe
00000070: d504 833d 4d69 a2bd c9a4 17be 7b23 aabb
0.05145054 0.05894451 0.027075997 -0.11007949 -0.007424967 0.09354739 0.061909944 -0.015031904
-0.00018345506 0.08695579 0.053613484 -0.05507667 -0.10789621 0.00068584795 -0.056925543 -0.033223197
-0.04209689 -0.045378327 0.12086957 0.050439984 0.10971696 -0.0031275866 -0.100077644 0.054788623
-0.04936472 0.07719466 0.03456353 -0.16962992 0.06397406 -0.07930241 -0.14808954 -0.005192218

feature.1.weight f4 [32]
00000000: 084f f03e da32 eb3e 8b8f f53e e3a8 373f
00000010: 2afd 593f 2433 083f fe46 dd3e 0fee 5b3f
00000020: 2579 833e 712b 963e ca35 5d3f 3b03 c13e
00000030: 2f32 3e3f 2d65 2cbe ff43 023f 7729 f03e
00000040: f92a 9a3e 8e71 9d3e 4e2f 903e b156 363f
00000050: a85b 913e 4618 b33e 4a0e b73e 4a74 c33e
00000060: e6fa 823e 79a4 2b3f c4a4 433f d1d8 f93e
00000070: 43d1 1c3f 601f 463f 0196 723e 49b1 83be
0.46935296 0.45937234 0.47961077 0.71742076 0.8515192 0.53203034 0.43218225 0.85910124
0.25678363 0.29330018 0.864102 0.37697777 0.74295324 -0.1683547 0.50885004 0.46906635
0.3011091 0.30750698 0.2816109 0.7122603 0.2839024 0.34979457 0.3575309 0.3817466
0.25582045 0.6704784 0.7642329 0.4879823 0.6125681 0.77391624 0.23690034 -0.25721195

feature.1.bias f4 [32]
00000000: 4c77 563c dbd2 aabd 8a4e c1bd 11da 37be
00000010: 0a14 23be 72a6 99be 930c 323c 2a39 87be
00000020: 279d 43be 8fe0 ccbd 2bcb 4cbe 56da d53d
00000030: 2648 dcbc 6c57 433d 7b9d 033e 3617 65be
00000040: 2f93 63be 83f6 65be aa1f 9fbd 5980 a73c
00000050: abad 15be 675e 84be c355 5ebe f50b 66be
00000060: 50ea 23be 8f96 e9bc 20de b6bd 5f40 61be
00000070: dfdf 24bc 3014 5ebe 9cc6 4bbd d2a2 35be
0.013089966 -0.08340999 -0.09438808 -0.1795428 -0.15925613 -0.300098 0.010867256 -0.264108
-0.19102918 -0.10003769 -0.19999377 0.10442035 -0.026889872 0.047690794 0.12853043 -0.22372136
-0.22224115 -0.22457318 -0.07769711 0.020446943 -0.1461703 -0.25853273 -0.21712403 -0.22465499
-0.16007352 -0.028514175 -0.08929086 -0.21997212 -0.010063141 -0.21687388 -0.049749956 -0.17737892

feature.1.running_mean f4 [32]
00000000: ffd6 4b3e a64b eabe ec6e 7a3e 78e2 cb3e
00000010: af05 3e3e 1658 4d3d b1d5 30bf cf68 31be
00000020: c7dc 9c3e 1dc3 bcbe 2e99 843e d91f 4dbf
00000030: 2ca5 b7bd a0c1 5ebf 77cd d6be c2bc b23c
00000040: 1f24 9bbd c4d8 3fbe 2718 883e c7c8 a43f
00000050: 94e1 333f c424 353f 2dce 383f 627a f33d
00000060: 1d9c 5f3f ba07 123e 700a 313e 5e6f bbbe
00000070: 1a75 f23d 4168 0b3f 4154 093e 05fe 40bd
0.19906233 -0.4576084 0.24456376 0.3982122 0.18556856 0.050132833 -0.6907607 -0.17325138
0.3063719 -0.3686761 0.25898117 -0.8012672 -0.08967051 -0.870142 -0.41953632 0.021818522
-0.07575249 -0.18735033 0.26580927 1.2873772 0.7026608 0.70759225 0.721896 0.11888577
0.87347585 0.1426076 0.17289138 -0.36608404 0.118387416 0.54455954 0.13411047 -0.047117252

feature.1.running_var f4 [32]
00000000: 9c51 d23c b427 343e d7b3 193d b572 043e
00000010: b22c ad3d 2afd ab3d ab62 683e 54e2 003e
00000020: 9fa1 803d 3223 e43d 6d4b 183d 0334 a13e
00000030: e67f 343d 3524 9d3e 4692 a53d 6444 6c3d
00000040: e44b 973d 211f a23d fef0 c63d 7bff 1e3f
00000050: 14f5 2a3e f2ee 773e 2bac c63e 5800 683d
00000060: 572d c03e ebfa 043d c875 4f3d 6194 b03d
00000070: 49f4 153d 8c14 1d3e b8a0 9a3d 8a88 753d
0.02567368 0.1759327 0.037525024 0.12934382 0.084557906 0.083978966 0.22693889 0.12586337
0.06280827 0.111395255 0.037181307 0.31484994 0.044067286 0.30691686 0.0808454 0.05768241
0.07387522 0.079160936 0.09713934 0.6210858 0.16695052 0.24212244 0.3880323 0.056640953
0.37534592 0.032465857 0.050649434 0.08622051 0.03660992 0.1533987 0.07550186 0.059944667

feature.4.weight f4 [48, 32, 5, 5]
00000000: 0145 da3b 6e58 923c bfff f53c a8de 9bbd
00000010: 7d82 99bd 0d76 1c3d f0b1 873d 5438 61bb
00000020: 0fb5 7bbd 368a 52bc 29e5 4c3c 69fc fb3c
00000030: ba46 c1ba 49bc 89bd 5410 7bbc b586 163d
00000040: 9bcc 333c bdcb 513d d9e9 3fbd 8851 89bd
00000050: c247 a93c 2235 96bd 158a 09bd e720 a4bd
00000060: 6905 b5bd e333 e33c aaa1 b63a dd26 80bd
00000070: 81cf 04be fb45 0bbe 6d27 00bd 2af4 a1bc
00000080: db8a 86bd dfb1 d4bd 0556 bdbd 4d19 7fbd
00000090: abea e5bd c159 9dbd 8de9 d9bd eda9 e1bd
000000a0: cf6e 7cbc c562 c13c 12e3 03bc 9d0d 00bd
000000b0: 5c4b f6bd e0cf 843d 5af7 573d 74fa 7f3c
000000c0: 38ba 92bc f5e3 37bd 094c 4e3c 7a8d 89bc
000000d0: 2dd0 15be 2c51 dbbd c4e7 c1bd f77c e1bb
000000e0: c706 f0bd 6d16 02be 3e3b c6bd f805 06bd
000000f0: 7b25 68bd 650f 3dbd 12e8 aabd ff46 fcbd
00000100: c7c1 b3bc 9b2b 143d 2b8f a5bc 3383 e1bc
00000110: 836f 66bc e0a6 eabc 5b3c 1c3d 5d86 ec3c
00000120: 8fb1 83bc f95e f4bc 0144 03be 38cf 1c3d
00000130: cc2c 833c 2de7 7f3c fbeb 143d 09dc 28bc
00000140: f95d 883d 39d5 793d 2de3 973d f7dc 833d
00000150: f889 5a3d c296 713d d72e 5c3d ae3c b83d
00000160: 5611 583d c0e7 103d ff65 d6bc 59b9 563b
00000170: 2e11 663b 9516 f43d 7f44 883c 5a57 10be
00000180: 63e9 fdbd 4add edbc f8f4 083d 570f 523d
00000190: 2b05 903d cdce 923d 57e3 893c e2ce debc
000001a0: 781f 8a3c d307 7c3d 3549 813d 759a a43c
000001b0: 26c7 6cbc e93c 283d 1df2 de3c 5803 843d
000001c0: b8ee 023c 4f24 213d ebd3 8a3d afa5 44bd
000001d0: d00a 983c 18e1 403a 53fc a6bc 3925 3d3d
000001e0: 3e8c 313d 344a 953d 73f9 1bbd cb66 fbbd
000001f0: 66ca 2bbd 93b7 03be 3646 363d b12f c03d
00000200: ace4 12bd 0acb 813d fdf6 35bd 2921 eb3d
00000210: 1d86 7a3d 9c07 20bc e73b 093d 45df 423c
00000220: 676c 773d 3e06 463c a059 70bc cf32 373d
00000230: e638 82bd 929c 1cbc 4fa7 48bd c772 30bd
00000240: 9908 bd3c 953d 29bd 8c5f 96bd e602 50bd
00000250: 9e7f 8fbd 13bc e13c 0055 5d3d 4cbc 1f3d
00000260: 6b44 8fbc bbe5 86bb bb19 56bd c7a1 a83d
00000270: 7a8a 703d 3952 a83d f1d3 113d 74a8 4ebc
00000280: bf72 d2bc ebc8 403d 80b2 b83a 60db 193c
00000290: 34b8 133d e524 7bbd 2f16 153c 94b8 123b
000002a0: 19db 90bc 8d44 943d 697c 63bd e813 ecbb
000002b0: ce32 123d 2aa4 c83b 4462 8f3d 8103 03be
000002c0: 3314 3b3c ba3c bf3c 5220 f1bc 43f5 723d
000002d0: a165 6fbc c556 073d 989d 1c3d a5ac 323c
000002e0: 9b63 953d dff2 373a 44e8 e7bc 6e30 dd3b
000002f0: 75d3 b9bc 4b4b da3d be59 b93a 9ec4 a0bc
00000300: 51c2 87bc bd30 55bb 270b b83d e762 3ebc
00000310: b10e 3cbd fd57 01bd d6f5 b83c 398a 5c3d
00000320: e26a 99bd 971e 93bd 3cf1 6c3c 5687 f93d
00000330: 047d dd3d f776 99bd d6c1 5b3c e706 af3d
00000340: f89a 733d 6eee 123d 8543 60bc 2e58 883c
00000350: 9b5a c83d a555 17bb 2285 97bd f973 43bd
00000360: fe9a 3cbd 379f 2b3d d335 23bd c56f a9bd
00000370: 39dd b0bd 2b5e 0cbe 26da 9cbd ceff 96bd
00000380: 92ad 3cbd f33e 993c cf2a 8bbc 3977 723c
00000390: 2d7c 813d 792f 4a3d d9e4 15bd 22ba cabd
000003a0: c33e 84bd 2742 a23c 4366 583d 813f 6bbd
000003b0: 7223 203b 606f 75bd a5b2 2b3d d296 613d
000003c0: a33d bebd 858a 70bd 3f39 59bd 3b2c 743d
000003d0: 7baf b23d f55c ec38 1912 68bd 1a8f 0abd
000003e0: 9b6a fe3c 4433 c8bc 9a47 3f3d 79a2 ae3c
000003f0: a811 4e3d 4a77 04bd 865d 09bd 597a 713d
0.006661058 0.017864432 0.030029176 -0.07610828 -0.07495592 0.03819852 0.06625736 -0.003436585
-0.061451968 -0.012850335 0.012505808 0.030760007 -0.001474581 -0.06725366 -0.015323717 0.03674956
0.010974075 0.05121969 -0.046853874 -0.06705004 0.0206641 -0.07334353 -0.03357895 -0.08014088
-0.088389225 0.027734702 0.0013933678 -0.062574126 -0.12969781 -0.13600914 -0.0312876 -0.019769747
-0.06569453 -0.10385489 -0.092449225 -0.062279988 -0.112264 -0.07683135 -0.106402494 -0.11018739
-0.015407278 0.023606667 -0.008049743 -0.031262983 -0.120260924 0.064849615 0.052726127 0.0156236775
-0.017911062 -0.04489513 0.01259137 -0.016791094 -0.14630194 -0.10708842 -0.09468034 -0.006881352
-0.11720043 -0.12703867 -0.09679268 -0.032720536 -0.05667637 -0.04615726 -0.08345045 -0.12318229
-0.021942986 0.036174398 -0.02020987 -0.027528381 -0.014064672 -0.028644025 0.038143497 0.028872663
-0.016075877 -0.029830443 -0.1281891 0.038283557 0.016012572 0.015619081 0.03635786 -0.010306367
0.06658549 0.06099436 0.07416377 0.0643863 0.053354234 0.058981664 0.053755607 0.08995949
0.052750908 0.035377264 -0.026171682 0.0032764284 0.0035105455 0.1191837 0.016634224 -0.14095822
-0.123980306 -0.029036183 0.033436745 0.05128416 0.07032236 0.0716835 0.016832037 -0.027198259
0.016860709 0.0615309 0.06312791 0.020093182 -0.014451778 0.041073713 0.027215058 0.0644595
0.007991485 0.039341267 0.067787014 -0.04800957 0.018559843 0.00073577603 -0.02038399 0.046178076
0.043346636 0.07289544 -0.03807969 -0.122754656 -0.04194107 -0.12862997 0.044500552 0.093840964
-0.03586261 0.06337555 -0.044425 0.11480934 0.061163057 -0.009767439 0.033504393 0.011894052
0.060406115 0.012086449 -0.014669806 0.04472619 -0.06358509 -0.009558814 -0.048987683 -0.04307821
0.023075389 -0.041318495 -0.07342443 -0.050784014 -0.07006763 0.027555501 0.05403614 0.038997933
-0.017488679 -0.0041167415 -0.052270632 0.082339816 0.05872581 0.08218808 0.035602514 -0.012613405
-0.02568948 0.04706661 0.0014091283 0.009390682 0.03606434 -0.061314482 0.009099527 0.002238785
-0.017682599 0.072396375 -0.05553857 -0.0072045214 0.035692982 0.0061230855 0.070011646 -0.12794305
0.01141839 0.023344386 -0.029434357 0.05931593 -0.014611633 0.033041734 0.03823623 0.0109054195
0.07294389 0.00070170866 -0.028308995 0.006750158 -0.022683838 0.10658892 0.0014141125 -0.019625004
-0.01657215 -0.003253027 0.08986502 -0.01162026 -0.04591245 -0.031578053 0.022578161 0.053842757
-0.074910894 -0.07183569 0.014461812 0.121840164 0.108148605 -0.07493394 0.013412913 0.085462384
0.05947396 0.035871916 -0.013687973 0.01664361 0.097829066 -0.002309182 -0.0739844 -0.047718022
-0.04604625 0.041899886 -0.039846253 -0.082732715 -0.08635945 -0.13707797 -0.07658796 -0.073730096
-0.046063967 0.018706774 -0.016988186 0.014798933 0.06322513 0.04936168 -0.0365952 -0.09898783
-0.06457283 0.019806935 0.0528319 -0.05743361 0.002443519 -0.05992067 0.041918416 0.055075474
-0.092891 -0.058725853 -0.05303311 0.059612494 0.087248765 0.000112706715 -0.056657884 -0.03382788
0.031056693 -0.024438508 0.046699144 0.021317707 0.050309807 -0.032340325 -0.033536457 0.05895457

feature.4.bias f4 [48]
00000000: b112 4bbc c13e 83bc 409c 05bd b3e4 393c
00000010: 2544 ff3b 4c94 90bc f4d4 8b3b 82e4 6d3a
00000020: 9968 0abd d24e 04bd c74e ba3c 1978 183d
00000030: 64e2 c43a 49f7 173b 3b7b 17bc c249 823c
00000040: b8cc bcbc 29cb cd3c fb5b 15bd 3eee a43c
00000050: 0081 823c aac3 0a3d d19a d1bb 0474 dc3c
00000060: 2b6a 0fbb 89b5 b5bc bfc3 abbc bfec c23c
00000070: a953 5e3c c5cb f1bc b44e a33b 8257 f5bc
00000080: e7cc 01bc b6e0 ecbb bf6c b8bc d98e afbc
00000090: a827 dbbc 8a96 dcbc 9482 bd3b 83f9 45bc
000000a0: afb7 9dbb 0eee de3c e0d2 043d b2a8 db3a
000000b0: d103 683b 7bbb feba 4b4a ec3c cf4c 0fbd
-0.012394593 -0.016021134 -0.032619715 0.01134603 0.007790106 -0.017648838 0.0042673294 0.0009074883
-0.03379116 -0.03230173 0.022742642 0.03722391 0.0015021083 0.0023188165 -0.009245689 0.015904311
-0.023046836 0.025121288 -0.036464673 0.020133134 0.015930653 0.033878006 -0.0063966294 0.02691079
-0.002188335 -0.02218129 -0.020967362 0.02379453 0.013569751 -0.02951611 0.0049837474 -0.029948954
-0.007922388 -0.007228936 -0.022512792 -0.02143042 -0.026752308 -0.026927251 0.0057833884 -0.012083414
-0.0048131566 0.027213123 0.03242767 0.0016758649 0.0035402665 -0.0019434536 0.02884402 -0.03498536

feature.5.weight f4 [48]
00000000: fede 0d3f 117b 163f 057c 053f 6e50 163f
00000010: e53f 123f 2276 da3e 7781 063f 40c3 f53e
00000020: cebb 1a3f 013c 313f 2d6d 3a3f 556b 173f
00000030: e335 d53e 5239 1e3f 4c9d c03e f02f 183f
00000040: 6f0f 213f 4572 b73e 8ba8 073f fd28 563f
00000050: 637c 203f d5da bc3e 36d6 073f 693c e93e
00000060: c7aa 0b3f 1e43 ef3e 95f4 433f 8c7a 543f
00000070: 4d0b 0c3f 0448 193f 60fe 0e3f a52a ed3e
00000080: bacc f43e 07ff b93e 549a 593f f0f9 2b3f
00000090: 506f 8c3e 306d d83e d469 0e3f 62d3 383f
000000a0: 4b61 be3e ab56 5f3f 2667 7d3e 4b7f 2d3f
000000b0: 89b6 1c3f 0f53 443f eab5 833e ba77 0e3f
0.55418384 0.58781534 0.52142364 0.58716476 0.57128745 0.42668253 0.525413 0.48000526
0.6044282 0.69232184 0.7282284 0.5914815 0.41642675 0.61806214 0.37620008 0.59448147
0.62914175 0.35829368 0.5299155 0.83656293 0.626898 0.36885706 0.53061235 0.45553902
0.5455746 0.46730894 0.7654508 0.8299949 0.54704744 0.5987551 0.55856895 0.46321598
0.47812444 0.36327383 0.8500111 0.6717825 0.27428675 0.42270803 0.5563023 0.72197545
0.37183604 0.8724162 0.2474638 0.6777236 0.61216027 0.7668924 0.25724727 0.5565144

feature.5.bias f4 [48]
00000000: 872b 033e 5823 7ebd cba5 003e 0c3c 0abb
00000010: b6f9 993b 8fa3 173d e31b 813d 6f4a 3dbd
00000020: c8ac d23b b38e 02bd 9b92 babc b121 293e
00000030: 48d1 4d3d 3004 9c3d e524 afba 78a8 7bbd
00000040: 0477 e4b9 f06f 8a3d 16c0 b4bd 5451 7abd
00000050: 446f 103e a577 fb3d ab0c afbe bddf 6fbe
00000060: 7eb0 523e 89a2 17be c093 613c ed89 f23d
00000070: 0487 aabc 5467 96bd e35b 08bc 2767 4bbe
00000080: 2162 0fbe 50ba 513e 4ddd 53bd 8026 18be
00000090: fff9 e7bd e6d1 27bd abc6 94bd 7b99 9c3c
000000a0: 3ee4 b93d a928 463e eb3b 6f3e cd65 7abe
000000b0: ce7e 71be 3900 d8bd 0587 babd 394f 0d3c
0.12809573 -0.062045425 0.12563245 -0.002109292 0.0046989573 0.037021216 0.06304147 -0.046213564
0.0064292885 -0.03187437 -0.022774985 0.16516759 0.050248414 0.07617986 -0.0013362436 -0.06143996
-0.00043576222 0.06759632 -0.088257 -0.061112717 0.14104944 0.1227868 -0.34189352 -0.23425193
0.20575139 -0.14808096 0.0137681365 0.118427135 -0.020816334 -0.07343927 -0.008322689 -0.19863568
-0.14002277 0.20481229 -0.05172472 -0.14858437 -0.1132698 -0.04097166 -0.072644554 0.019116154
0.09076737 0.19351448 0.233627 -0.24452896 -0.23583528 -0.105469175 -0.09107784 0.008624845

feature.5.running_mean f4 [48]
00000000: 9ccf d3bf 59e4 a4bc bd99 d5be 7c21 a0bf
00000010: 0f99 31bf 3b55 13c0 a6e4 44c0 8d32 f2bf
00000020: ba2e d1bf 5ea2 79bf f648 98bf b578 cebf
00000030: 9d9d 033f 4793 b53e 2769 29bf 2299 00bf
00000040: ae42 b4bf a004 47be d6bc b2bf cd88 abbf
00000050: c83e 06c0 c51a 40bf 3ae8 09c0 ff52 4ebf
00000060: ef81 18c0 f441 9cbe 29a9 d9bf d705 48bf
00000070: aaaf 50bf 5046 20bf 2b20 433e fce8 f7bf
00000080: 5c14 e8bf ad77 b9be 9ab0 a2bf c51b 7cbf
00000090: 1da3 81bf 8566 cabf 13a4 8fbf 3e4b a1bf
000000a0: aeef d0be c042 28c0 7c3e 17bf db2a b9bf
000000b0: 7052 89bf 04b7 4fbd e3c3 813e 0cf8 ab3e
-1.6547732 -0.020128416 -0.41718856 -1.2510219 -0.69374174 -2.302077 -3.0764556 -1.8921677
-1.6342385 -0.9751338 -1.1897266 -1.6130587 0.51412374 0.35463926 -0.66176075 -0.5023366
-1.4082849 -0.19435358 -1.3963878 -1.3401123 -2.0975819 -0.7504085 -2.154799 -0.8059539
-2.3829305 -0.30519068 -1.7004749 -0.7813391 -0.8151804 -0.6260729 0.1905524 -1.9367976
-1.8131213 -0.36224118 -1.2710145 -0.9847987 -1.0127903 -1.5812536 -1.1221946 -1.2601087
-0.4080786 -2.629074 -0.5907972 -1.4466203 -1.0728283 -0.050711647 0.25344762 0.33587682

feature.5.running_var f4 [48]
00000000: bbf5 0040 6aac 833f bafc 783f b3ad d63f
00000010: e74f db3f 7fea 7d40 1d42 7840 4c36 1340
00000020: 8e37 e73f 3c8b db3f f365 0740 70df e83f
00000030: c1c7 873f 5e0a 943f 86f1 983f 9204 c73f
00000040: 8244 aa3f 6fe8 c13f e212 b23f 473a 0340
00000050: bbd3 4740 5e00 e33f 31a9 4140 b6e8 aa3f
00000060: 6dff 943f 42a2 873f 0fcf 7e3f 1ebe d23f
00000070: f999 803f 78bd 4440 267c 4c3f ef31 0b40
00000080: 12fc d53f 53f1 6d3f 48ca fb3f 9196 1240
00000090: 3157 853f 58ff 2540 36f1 f53f 6265 af3f
000000a0: de20 573f 749a 5b40 6834 a93f 992c 0440
000000b0: 3d49 aa3f 27eb 983f 20ae a33f 2ea7 913f
2.0149982 1.0286992 0.9726063 1.6771759 1.7133759 3.9674375 3.8790352 2.300189
1.8063829 1.7151866 2.1155975 1.8193188 1.0607835 1.1565664 1.1948707 1.554827
1.3302157 1.5149058 1.3912013 2.050432 3.122298 1.7734487 3.0259516 1.3352268
1.164045 1.0596392 0.99534696 1.6464269 1.0046989 3.0740643 0.79876935 2.1749227
1.6717551 0.92946357 1.9671106 2.2904398 1.0417234 2.59371 1.9214237 1.3702815
0.84034526 3.431302 1.3219118 2.065222 1.33036 1.1946763 1.2787514 1.1379144

class_classifier.0.weight f4 [100, 768]
00000000: 32bd 0e3d 2583 523d a63a 893c 49e0 593d
00000010: 0f1a 8dbd f148 36bd 5c84 a0ba 6d2d e63d
00000020: 0243 56bc 11ba b8bc 233a 4b3c 2b79 3e3d
00000030: 65a9 11bc 790f 813d 2bfd 22bd f9f5 07be
00000040: d700 213d 62ec 60bd 7e2f 8cbc 0160 adbd
00000050: ee32 093e b1b6 b7bc 2578 9d3c ccc9 44bb
00000060: 59c3 0a3e 9a76 023d 22da cbbc fef2 11bd
00000070: dc7a ee3c ad6f 2e3d 7fba 00bd 58b5 04be
00000080: 5034 c9bd 9172 50bd 6219 22bd 2f21 8abd
00000090: 81e1 d23c 56a2 5f3c ed33 c83c a348 78bd
000000a0: 5554 ac3d e74f df3c e82c ac3d eb75 c3bd
000000b0: 47e5 603d b491 a03d a6d2 933c f3bc e8bc
000000c0: 37f6 1ebc 0aae b1bc 5fa4 693d 439f 9e3b
000000d0: 2b24 6abd 50ea 21bd 1851 32bd 4818 b13c
000000e0: d6d3 28bc db04 c8bb ef66 89bc a692 8fbc
000000f0: 635b 3e3d 98d1 54bd 83a5 f23c b83c e43c
00000100: d9ad 5b3d ebfc 113c c536 dc3c 76db 9fbc
00000110: cde9 ea3d 155a 113d 4bd1 813d 391d bd3c
00000120: 6d86 af3d a177 da3c a1b9 8d3c c526 8ebd
00000130: f19f 393d b184 10bd 2e15 a2bd 5c98 b7bd
00000140: d937 a93d e69d ae3c 817c 3dbd 0405 90bd
00000150: 261c 1c3d 40c1 47bc eb3d 4abb a70e 243d
00000160: 66f5 5cbc 3f8c 363d 43bb 383d e5e1 5a3d
00000170: 5720 3abd 0479 a8bd 8c0e b1bc 5623 acbd
00000180: b23a 713d c885 0f3d 6648 f6bc 0b8a 9e3d
00000190: 2554 243c 3a23 363c e503 49bd 265a 893d
000001a0: 09ca 68bd bbc2 49ba fd64 cebd a121 5ebc
000001b0: f302 8d3a 6d46 aa3d 9176 043c afee 59bd
000001c0: f5dd 623d 1869 343b fb7c d53c b4ea 1b3e
000001d0: e96a 5e3c 2a27 12bd 8b7a d33c fe2a cd3d
000001e0: a7fd 3bbe 6b5f cbbd 81f1 29bd 4a61 b53c
000001f0: e6fc 75bd b364 ad3d ca8c 0d3c ee84 d63c
00000200: 1af4 073d 0647 883c 0690 683d c6f4 f83c
00000210: 2172 cf3b 5a3a 81bb 02fa b33d d492 bebb
00000220: d99b 2fbd cd31 e7bd fb51 3d3d 235f 133c
00000230: fe39 4dbd 93af e8bd 7d24 68bc 7bc2 a53d
00000240: 3611 8ebd b2db 9fbd 8107 03bd e2c1 5fbd
00000250: 9cef fd3a 6af1 f43a 4e4d a9bc 75fb b23c
00000260: b7b5 c1bb 1d01 5e3c 0e62 30bb c8d7 853c
00000270: ae67 de3c 621b 74bd cf47 5c3d 4308 4c3e
00000280: 39f8 a2bd 5afc 19bd 6d91 c2bc 474a 92bc
00000290: e74d e6bc 6c9f 92bc 9e7e 8c3b d8ed 81bc
000002a0: d4ac 22bc 7594 7f3c 97a1 8e3c 3cb5 0b3d
000002b0: 1120 57bd a35e 1a3d d828 a33d 0e7e d93d
000002c0: fd21 ae3c c104 02bd 77b8 f4bc d4d9 0bbd
000002d0: 106a c0bc 345e dabc 834e 253c 80fc a53d
000002e0: 5159 093d 3ebf 48bd fa85 903d 5756 563d
000002f0: ce19 b0bd be2c b53b 107f 00bc ad2e 06bd
00000300: 9141 973d 226a 0a3d 2d7a 28bd 2a4e 5fbd
00000310: 87d3 d33d ebf7 133d 5ccb 62bd 8375 9e3c
00000320: 3909 2c3e 2e64 323d 0064 97bc 172e 69bd
00000330: 2104 cd3d 8b96 0bbb 5eee 8ebd f977 703d
00000340: 0a08 97bc 7fb9 74bd 759e 173d 51e0 603c
00000350: a864 d53c 95b5 a2bc d373 d13c cb94 263d
00000360: c81c 853d ee07 18bc b8ab 673d a1bc a8bd
00000370: 000c c63d 281f fabc fa93 4fbd 2abc 01be
00000380: f827 5abd e03d 0fbe 664a 07bd 157c 3dbd
00000390: 594d 97bd 81cb adbd 5c0c 7cbc 6f36 cdbd
000003a0: 06cd 123d 41b5 78bd d4a5 e1bb 4232 383c
000003b0: c102 023e 16d4 a0bd 7f06 05bd 0191 cf3d
000003c0: 0427 493d 8049 96bd 006a 8bbb c636 693d
000003d0: 6549 913d 79ab 57bd f6f0 afbd f966 3f3c
000003e0: 8bcc c03c c2c6 59bc 5ff2 13bd 5f87 003d
000003f0: 3df6 13bc 49db fabd ae50 01bb 0e65 ab3d
0.0348484 0.0513946 0.016751599 0.05319241 -0.06889736 -0.044503156 -0.0012246477 0.11239133
-0.013077499 -0.02254966 0.012403998 0.046502274 -0.008890484 0.06301779 -0.03979222 -0.13277425
0.03930744 -0.054912932 -0.01711249 -0.08465577 0.13398334 -0.022425981 0.019222328 -0.0030027507
0.13551082 0.03185139 -0.024884287 -0.035632126 0.029111318 0.04258697 -0.031427857 -0.12959802
-0.09824431 -0.05089051 -0.03957499 -0.067446105 0.025742294 0.013649544 0.024438823 -0.060616147
0.084145226 0.02725978 0.08407003 -0.095439754 0.054906156 0.07840291 0.018044781 -0.02841041
-0.009702257 -0.021689434 0.057041522 0.004840763 -0.0571634 -0.0395301 -0.04353437 0.021618024
-0.010304412 -0.0061040944 -0.016772715 -0.017525982 0.046473872 -0.051957697 0.029619938 0.027860984
0.05363259 0.008910398 0.026881585 -0.019513827 0.11470375 0.0354863 0.063387476 0.023085224
0.085705616 0.026668372 0.017300429 -0.069409885 0.045318548 -0.035282794 -0.07914196 -0.08964607
0.08262605 0.021315526 -0.046261314 -0.07032207 0.038112782 -0.0121920705 -0.003085966 0.040053036
-0.013486242 0.044567343 0.04510046 0.053438086 -0.045440998 -0.08226207 -0.021613382 -0.08405177
0.058893867 0.035039693 -0.03006382 0.07741173 0.010029827 0.011116797 -0.04907598 0.067066476
-0.0568333 -0.00076965586 -0.10077856 -0.013557822 0.0010758325 0.08314214 0.008084909 -0.053206142
0.055387456 0.002752846 0.026060572 0.15226251 0.013575294 -0.03568188 0.025815269 0.10017966
-0.1835848 -0.09930309 -0.04149008 0.022141118 -0.060055636 0.084664725 0.008639524 0.026186433
0.033191778 0.01663543 0.056777976 0.030390155 0.006330744 -0.0039437236 0.087879196 -0.005815843
-0.042873237 -0.112887956 0.04622076 0.00899485 -0.050104134 -0.11361613 -0.014168856 0.08093735
-0.069368765 -0.078055754 -0.03198958 -0.05462826 0.0019373777 0.001868767 -0.020666745 0.02184842
-0.0059115547 0.01355007 -0.0026913914 0.016338244 0.027149048 -0.059596427 0.05377942 0.19925027
-0.07957501 -0.037594177 -0.023750985 -0.017857684 -0.028113319 -0.017898284 0.004287555 -0.015860483
-0.009928901 0.01559936 0.017411036 0.034108385 -0.052520815 0.03768791 0.07966775 0.10619746
0.021256441 -0.031742815 -0.029873116 -0.034143284 -0.023488075 -0.026656248 0.010089519 0.08104801
0.033532444 -0.049010508 0.07056804 0.052328434 -0.08598672 0.0055290153 -0.007842794 -0.032759357
0.07385553 0.033792622 -0.04113214 -0.054517902 0.1034308 0.036125105 -0.05536972 0.019343143
0.16800393 0.04355257 -0.0184803 -0.05692872 0.10010553 -0.0021299447 -0.06979059 0.058708165
-0.01843645 -0.059747215 0.03701635 0.013725356 0.026048973 -0.019861976 0.025567925 0.040669244
0.0649963 -0.009279234 0.056560248 -0.08239103 0.096702576 -0.030532435 -0.05067823 -0.12669435
-0.053260773 -0.13988447 -0.033029936 -0.046260912 -0.073878 -0.08486081 -0.015383806 -0.10020148
0.035840057 -0.060719732 -0.0068862233 0.011242451 0.12696363 -0.07852952 -0.0324769 0.10135079
0.049109474 -0.07338238 -0.0042545795 0.056937 0.07094077 -0.052653763 -0.085908815 0.011682265
0.023535034 -0.013292016 -0.036119815 0.0313791 -0.009030876 -0.122488566 -0.0019731927 0.08368884

class_classifier.0.bias f4 [100]
00000000: af85 843c 5742 b2ba 6478 fbb9 6760 a33c
00000010: 1136 743c df48 4abb cfc8 2d3c 028a 4ebb
00000020: 3d6d a93b 04c5 0f3b 2880 ff3c e470 a5bc
00000030: 370b 97bc cd4a f43c 3bba 84bb 4ed5 57bb
00000040: a5ab 6eba e473 143c 5be4 41bc 6682 cfbc
00000050: 3e75 88bc fc43 b3b8 00c9 f7bc a989 0a3d
00000060: 30c8 83bc 7abe a9bc fa27 fbbc 23e0 86bb
00000070: c1de a53b be2b 043d 6f26 82bc b86f a63c
00000080: b15d f6bc 5b4a ba3c e129 933a b3c7 48bb
00000090: d598 4f3c b951 e73c 3556 043d 0393 ad3b
000000a0: 650d 5fbc 3df7 5dbc b17f b7bb a3e5 8eba
000000b0: 8be2 f13c 2a71 a63c 7776 7abb 765e a5bc
000000c0: 6394 07bd 6961 b1bc dc0f 0cbd af63 a2bc
000000d0: 5fb0 82bc 9a9f 0d3d c133 7cbc 973f 81bc
000000e0: 8303 cabc 5401 01bd f051 8bbc 4ed9 55bc
000000f0: c1d0 c03c f955 1bbc 75ed 1a3c 962c eb3a
00000100: fa6f 8ebc 2c0c 113b 2083 b93c 01c6 b8bc
00000110: d3ba b83c e059 063d bccb ddbb 935f 96bc
00000120: 4d57 cabb 3bae 163d 3b26 38bc 4ab5 fbbb
00000130: ed15 96bc df11 a6bc 9375 11bb 12c8 423c
00000140: 39b4 0abd 50da ce3a 65ba 223c d10d 0739
00000150: ab52 063d fdeb 01bd d0b1 fbbc 1f17 c93c
00000160: d535 9c3c 34cf a43c 635c b93c 69f0 60bc
00000170: 9c2c 853c f79c f539 70bf 02bc a655 1dbb
00000180: 5682 3b3c a723 44bb 274e 7c3b 3788 f03c
0.016177027 -0.0013600093 -0.0004796415 0.01994343 0.014905469 -0.0030866188 0.0106069585 -0.0031515365
0.005170493 0.0021937499 0.03118904 -0.020195432 -0.018437965 0.029820824 -0.0040505207 -0.0032933536
-0.00091045565 0.009060834 -0.011834229 -0.025330734 -0.016657468 -8.548048e-05 -0.030247211 0.03382269
-0.016086668 -0.02072071 -0.03065871 -0.0041160746 0.0050619547 0.03226828 -0.015887467 0.020316944
-0.030073972 0.022740534 0.0011227691 -0.0030636608 0.012670715 0.02823721 0.032308776 0.005297066
-0.013614033 -0.013547716 -0.005599939 -0.0010902177 0.02952697 0.020317633 -0.0038217583 -0.020186644
-0.033100497 -0.021652894 -0.034194812 -0.019822923 -0.01595324 0.034576036 -0.0153931985 -0.015777392
-0.024659878 -0.031495407 -0.017006844 -0.013052298 0.023537042 -0.009480947 0.009456028 0.0017942365
-0.017387379 0.00221325 0.022645533 -0.022555353 0.022550022 0.032800555 -0.006768672 -0.01835612
-0.006174958 0.036787253 -0.011239584 -0.0076815234 -0.018321002 -0.020272193 -0.0022195324 0.011888521
-0.03386328 0.0015781615 0.009932135 0.0001287975 0.032793682 -0.031719197 -0.030724436 0.024547158
0.019068638 0.020118333 0.022627061 -0.013729193 0.016256623 0.0004684699 -0.007980213 -0.002400735
0.011444649 -0.0029928477 0.003849873 0.029361827

class_classifier.1.weight f4 [100]
00000000: 14c1 593e 37df 953e b365 c83e 4c60 a63e
00000010: 7e0b d73e 9f1b 303f 18f0 da3e 55ff 2f3f
00000020: 144f 413f 39e1 cd3e 0da8 4c3f 4f57 333f
00000030: 489b c23e d35c 373f fb4f ae3e 71f2 243f
00000040: b31b b23e 3502 793e 934e b53e 1327 be3e
00000050: 424d 8a3e 0485 c13e e891 c03e 3192 f13e
00000060: b8de 833e bea7 ee3e ea1b b43e 09f1 433f
00000070: 1305 d63e 650a 8b3e 99f1 c13e 44db 373f
00000080: b953 d43e 5a26 893e 9d95 413f 3997 493f
00000090: 38ac a13e fe77 cb3e 0b33 583e af7b bf3e
000000a0: e292 a93e 48c5 e73e 56d6 223f 2b29 003f
000000b0: 333a 013f 3bdd 0c3f 8787 2f3f 3e88 b53e
000000c0: 3e2c 073f 2a6a bb3e 6d8a 8e3e 1cba 223f
000000d0: c041 d63e 0eb2 fa3e bac1 a63e eb08 173f
000000e0: a5fe 443e 73d5 7e3e 6d1e 153f 5a7d c13e
000000f0: a83d 013f baa0 473f 69b8 923e 34ab 893e
00000100: 2340 893e c2a4 4a3f 83e8 0f3f 7ff6 fe3e
00000110: 656b 023f 0f99 ab3e 8962 b73e 13da a03e
00000120: f225 363f 8cf6 d43e d440 9a3e 3f1b f33e
00000130: 8111 b03e b178 373f 1dc9 c53e b12a e93e
00000140: 2120 a93e 9b65 3e3f 8146 1f3f 80de bb3e
00000150: cc7a 1a3f 8ee8 b93e c997 083f 8e23 373f
00000160: 5b27 413f 0e99 ac3e 446e 533f 83b7 9f3e
00000170: 6c22 8f3e 0d08 0d3f db30 363f 62a0 ff3e
00000180: 2c5f b83e 54bf 033f bf73 873e e8cd 9a3e
0.2126506 0.29271862 0.3914009 0.32495344 0.42000955 0.68792146 0.42761302 0.6874898
0.7551129 0.40210894 0.79943925 0.700551 0.38009095 0.71626014 0.34045395 0.64432436
0.34786758 0.24317248 0.3541151 0.37139186 0.27012068 0.37796795 0.37611318 0.47181848
0.25755858 0.46612352 0.35177547 0.76539665 0.41800746 0.27156368 0.37879637 0.7181895
0.41470125 0.26787072 0.75618917 0.7874637 0.31576705 0.39739984 0.21113221 0.3739905
0.33119875 0.452677 0.636083 0.5006282 0.5047943 0.5502507 0.68566173 0.35455507
0.52801883 0.36604434 0.27839985 0.6356523 0.41847038 0.4896397 0.32569677 0.5899798
0.19237764 0.24886112 0.5824955 0.37790948 0.50484705 0.77979624 0.2865632 0.2688843
0.26806745 0.7915765 0.5621416 0.49797437 0.5094512 0.33515212 0.35817364 0.31416377
0.7115165 0.4159435 0.30127585 0.47481725 0.34388354 0.71668535 0.3863 0.45540383
0.33032325 0.7437379 0.62216955 0.36693192 0.60343623 0.36310238 0.53356606 0.7153863
0.75450677 0.3371052 0.82590127 0.31194696 0.2795595 0.5509041 0.711683 0.4992705
0.3601011 0.5146382 0.26455495 0.3023522

class_classifier.1.bias f4 [100]
00000000: d758 01bd 9815 94bd e95b c5bd d048 0ebd
00000010: b64e bbbd 6ca8 29be cdbd c1bd 6870 7bbe
00000020: 3015 6bbe d862 cabd 20f6 36be 54fa 75be
00000030: 0307 88bc c8ea 90be f516 29bc ef6c 41be
00000040: a264 bbbd 51f4 4bbd b14c f6bd 01bb a9bd
00000050: 23c3 02be f4b2 ebbd 13ea 80bd 435e acbd
00000060: 428f 5bbd ee9e 96bd c67a 0abd 7d36 4dbe
00000070: df8d 11be 018b 96bd 1a45 c5bd 2f22 76be
00000080: a681 5bbe 4dde ebbd 69ee 15be 1d55 a0be
00000090: 1f84 27be d97d 1ebe e364 80bd e3d2 8cbd
000000a0: b0b3 bfbd c897 a7bd 4fbd 45be 14bc 6bbe
000000b0: df74 13be 3e58 72be bf0e c9bd 35ae 1cbe
000000c0: 85d2 e7bd 4936 2fbd 1594 04be 5c41 62be
000000d0: d0fd 5bbe d83b 8fbe a635 40bd 6313 23be
000000e0: 76fe 7bbd 78cd 91bd dfb2 84be 0bf2 ecbd
000000f0: 103f 2bbe b175 32be 63ca fcbd 4a65 38bd
00000100: 40db d4bd 0afc 12be edad ebbd 18cb a1be
00000110: a746 26be fd63 8cbd 6fe4 29be a5c8 6abd
00000120: 5ce6 76be 7869 60be 6f9f ecbc 208f 00be
00000130: 1d5c 63bd aedb 66be 3ade fdbd f8bc 15be
00000140: 8419 26be 4b3d 7fbe 701a 0abe e311 7fbe
00000150: df50 f6bd cc8d b5bd ea34 2abe 79bb 56be
00000160: eea2 0ebe aca7 17be 4d35 7fbe dfca c8bd
00000170: 074b 8fbd 4d2a 32be 206f 7cbe a29e 2cbe
00000180: 86e0 43be 45b0 edbd 57b3 c7bc c12f 68bd
-0.031578865 -0.07230681 -0.09636671 -0.03473741 -0.09145872 -0.16568154 -0.0946003 -0.24554598
-0.22957301 -0.09882134 -0.17867327 -0.24021274 -0.016604906 -0.28304124 -0.010320415 -0.18889211
-0.091500536 -0.049793545 -0.120263465 -0.08287621 -0.12769751 -0.11508742 -0.06294646 -0.084164165
-0.05360342 -0.07354532 -0.033808492 -0.20040317 -0.14214276 -0.07350732 -0.09632321 -0.24036478
-0.21436176 -0.1151701 -0.14641728 -0.31314936 -0.16358994 -0.15477695 -0.062692426 -0.06876161
-0.093604445 -0.08183247 -0.19310497 -0.23020965 -0.14400052 -0.23666474 -0.09817266 -0.1530083
-0.1131945 -0.04277638 -0.12947114 -0.22095245 -0.2148354 -0.27975345 -0.046926163 -0.15925364
-0.06152197 -0.07119268 -0.25917718 -0.115696035 -0.16723275 -0.17427708 -0.1234329 -0.04501847
-0.10393381 -0.14353958 -0.11507783 -0.3160026 -0.16237889 -0.06855009 -0.16591047 -0.057320256
-0.24111313 -0.21915233 -0.028884618 -0.12554598 -0.055507768 -0.22544739 -0.12395902 -0.14622867
-0.16220671 -0.24925725 -0.13486648 -0.24909167 -0.12027144 -0.08864936 -0.16621748 -0.20969953
-0.1392934 -0.14810055 -0.24922676 -0.098043196 -0.06996732 -0.17398949 -0.24651766 -0.16857389
-0.19128618 -0.11605886 -0.024377508 -0.056686167

class_classifier.1.running_mean f4 [100]
00000000: 8694 27bf 9c9e 32bf 277a 8cbe 2b7b 33be
00000010: 44d2 92be 6159 aabf 4065 3dbe 83c5 e8be
00000020: 3954 60bf 1ccc 99bd 66ce e13e 9fdd 39bf
00000030: 500c bebe 08dc 343d 53fc 64bf 75dc c0be
00000040: 915f 12bf beae de3b e3e6 a1bf a28a 95be
00000050: 8ee4 99bf d3d9 55bf 8b59 8dbf b687 ecbe
00000060: aebe f0bd 71d5 dbbf 20fc ecbe 984f a2bf
00000070: ca25 66bf 4abc abbe fa74 56bf 29b1 6abe
00000080: 1ec4 59bf e8df 40be 3c56 1dbf 3dd8 43bf
00000090: 98dc d5bf a8d4 27bf 76c3 8c3e d8e0 213c
000000a0: 0d38 42bf 77f0 47bf ab49 62be 913e bdbc
000000b0: b83f 14bf f079 06be c6ea b1be 9be8 44bf
000000c0: 0397 3fbf 2b42 12bf f922 72bf f119 84bf
000000d0: 6025 58bf 675c efbf 7c04 26bf a489 3fbf
000000e0: 4280 2abf 77fa 64bf afb7 0ebd 4548 fbbd
000000f0: 4723 32bf 67cd 94bf b0b1 40bf a7f7 54bf
00000100: 6eaf a1bf 0d41 4ebe 6465 6fbf be2f 40bf
00000110: 38f5 59bf 611d 1bbf da1b 45bf 2ffa 31bf
00000120: 8619 dabe 89de 42bf eb7c 9f3e b9a7 7fbf
00000130: 6ea0 ec3e ac35 c6be 0f90 8dbf 211e 07c0
00000140: d5b5 a6bf 647a 26bf 09c2 60bf 6006 cbbe
00000150: 79d5 6cbf 2150 47bf 11fc f33d bb66 11be
00000160: 8aa2 8fbf 542f 5dbf f391 40bf c66a ebbe
00000170: 3826 56bf 070c 6bbf fabb 7cbf 94e4 1ebf
00000180: 6925 2ebf 9e3f 22be 4e1a 2dbf e66f 50bf
-0.65461004 -0.6977327 -0.27436945 -0.17527454 -0.28676045 -1.3308526 -0.18495655 -0.4546319
-0.87628514 -0.07509634 0.44102782 -0.7260379 -0.3711877 0.04415515 -0.89447516 -0.37668195
-0.5717707 0.0067957332 -1.2648586 -0.2920733 -1.2022874 -0.835355 -1.1042951 -0.4619729
-0.11755119 -1.7174512 -0.46286106 -1.268054 -0.8990141 -0.3354209 -0.8377224 -0.22919144
-0.85064876 -0.18835413 -0.6145971 -0.7650183 -1.6707945 -0.6555886 0.27492875 0.009880267
-0.75866777 -0.78101295 -0.22098415 -0.023101123 -0.5790973 -0.13132453 -0.3474943 -0.7691743
-0.748398 -0.57132214 -0.94584614 -1.0320417 -0.8443203 -1.8700074 -0.6485059 -0.748194
-0.66601956 -0.8944468 -0.034843143 -0.12269644 -0.6958508 -1.1625184 -0.7527113 -0.8319039
-1.2631662 -0.20142002 -0.93514085 -0.7507285 -0.851398 -0.60591704 -0.76995623 -0.69522375
-0.42597598 -0.7612081 0.31149992 -0.998653 0.46216148 -0.38712823 -1.1059588 -2.111214
-1.3024241 -0.65030503 -0.87796074 -0.396533 -0.92513233 -0.7785664 0.11913312 -0.14199345
-1.1221478 -0.8640034 -0.752227 -0.459799 -0.8365207 -0.9181523 -0.9872433 -0.6206753
-0.68025833 -0.1584458 -0.6761826 -0.81420743

class_classifier.1.running_var f4 [100]
00000000: ceed d23f 951d 0d40 991e e73f 3de2 d93f
00000010: 6d34 0940 7cf9 ab3f acb4 b13f a9d1 ce3f
00000020: 98e0 903f 61f8 8e3f e8f4 cf3f acf3 c83f
00000030: 3174 f43f 620f 8f3f 211c c73f c501 c83f
00000040: 9ff8 0640 b844 e03f d874 f53f c99c a73f
00000050: 0572 3440 20be e03f 6504 3940 d5eb 953f
00000060: 0ae4 fc3f d5ed ce3f 0a73 1f40 b064 b43f
00000070: 158a 0940 7437 b93f 1017 ad3f dbf0 9a3f
00000080: 92c2 c83f fc30 0d40 3515 ba3f 4c1a bd3f
00000090: 366e 1340 e335 9e3f c5c1 0f40 fa10 ca3f
000000a0: 73c8 0340 0106 e23f f9c9 903f 1241 a83f
000000b0: a01d 8c3f 118e a93f db69 c13f 010e bf3f
000000c0: d1a6 fa3f 578d e13f ca1e 8d3f 400f cc3f
000000d0: 1710 f73f ba19 2240 732d b33f f606 a83f
000000e0: b24c ec3f 1d6a 1940 41ff 0040 6b32 0240
000000f0: dc40 0240 25e1 b63f a862 a73f 4975 0440
00000100: 65a7 4940 3025 ce3f 5b0f fd3f d82d bd3f
00000110: 1a3f 9e3f 1cc8 1240 9c85 ee3f b6ef ff3f
00000120: d60a 803f 7470 0840 6129 2340 dd7c 3240
00000130: 8d85 0240 8acf b23f 6e92 1140 dba8 2d40
00000140: a19e b53f 2321 9e3f ffd5 c73f b1b9 ee3f
00000150: f087 ed3f 05ab 1540 ddd6 c93f a5f2 b33f
00000160: c222 0140 85c8 cb3f d2ad d53f a0a1 c43f
00000170: 8007 3040 f91b 8a3f 05fa b03f ab41 873f
00000180: 72f7 0f40 fdb5 c63f 80d7 e13f d35e 853f
1.6478822 2.2049305 1.8056213 1.7022167 2.1438248 1.3435512 1.3883262 1.6157733
1.131854 1.1169549 1.6246614 1.5699363 1.9097959 1.117657 1.5555459 1.562554
2.1089246 1.7520971 1.9176283 1.3094722 2.8194592 1.7558022 2.8908932 1.1712595
1.9757092 1.616633 2.4913964 1.4093227 2.1490529 1.4470048 1.3522663 1.2104753
1.5684378 2.2061148 1.4537722 1.477365 2.3036017 1.2360195 2.2462018 1.5786431
2.0591094 1.7658082 1.1311637 1.3144858 1.0946541 1.324648 1.511043 1.4926149
1.9582158 1.7621258 1.1025021 1.5942154 1.9301785 2.5328202 1.3998245 1.3127124
1.8460906 2.3971016 2.0155795 2.0343273 2.0352087 1.4287459 1.3076982 2.0696585
3.150842 1.6105099 1.9770311 1.4779615 1.2363007 2.2934637 1.8634524 1.9995029
1.0003307 2.1318636 2.5494006 2.788871 2.0394013 1.3969586 2.2745624 2.7134311
1.4189035 1.2353863 1.5612181 1.8650419 1.855711 2.3385632 1.5768696 1.4058424
2.0177464 1.5920569 1.6693671 1.5361824 2.7504578 1.0789787 1.38263 1.0566915
2.2494779 1.5524288 1.764389 1.0419563

class_classifier.4.weight f4 [100, 100]
00000000: 1f0e 123c 1100 e2bc e86e b83c f033 763d
00000010: 0fe5 1d3d f7b1 a23d 7a43 a8bb 9884 91bb
00000020: 551a 393c a57c 013b 2f3d 9bbd cf17 ea3c
00000030: f7c9 e03c 2014 4a3d 3a36 513e 4268 88bd
00000040: 17a9 8fbd 2844 b0bd ee73 9dbc d2d1 dcbd
00000050: 8b0b f0bd 6ee5 523c f731 f7bd 9409 4b3d
00000060: 5481 98be 9e71 1b3c 2f92 ab3d aa2f b53b
00000070: 996a 51be a633 c23d 6a29 073d b271 46bd
00000080: 5e37 f0bd 82c0 c93d 4ece 803c c729 21bd
00000090: 1e97 b7bd 4ba7 5bbe 3942 1ebe e80d c23d
000000a0: bcc3 a23d 6b09 923d 7eca 06bd 8d52 0fbd
000000b0: 6a35 103e 4c7b 5c3b 2ec0 163c cfc2 cabd
000000c0: 9055 cbbd 7eb0 ce3d e029 6a3d 2708 963d
000000d0: 6308 e8bc 3cb8 96bc 1f3e ad3d 0610 e5bd
000000e0: 9410 5f3e 2444 1b3e 873c 173d ee6b bbbd
000000f0: 25a2 31be f737 a8bd 9524 b2bd 029a 4bbd
00000100: bafb b5bd f372 1e3c 1b99 053d b5ca cabd
00000110: 3e86 1c3c 4359 2a3d 1917 57bd fca4 b83d
00000120: fa4f 123e 5c24 4ebd 6568 02be afe0 4ebd
00000130: c0d4 ac3b bb76 4bbd 03bf 7abc afd5 acbd
00000140: d519 64be 2da7 0abe ab0f f53c c8f4 c6bd
00000150: 4cc9 ac3d 2509 bcbd de67 12bd 083e 033d
00000160: 5644 e13c be3b e03d cd4d e73b 2a3c cc3d
00000170: f105 1ebc 1d4f 273d b54b 913d dd81 053d
00000180: e220 cdbc b123 393d b246 5cbd f068 873e
00000190: b4b5 443c 5d10 89bc 0d9c 16be 68b0 353c
000001a0: 51ae 22be 1c3d 71bd daa6 12bd c130 0f3e
000001b0: 9732 1ebc 63f0 17be ca0a 3ebd 419f 4cbd
000001c0: 6d8a c63d 461a c2bb 5f8f 313d 0fd3 313d
000001d0: 6335 9bbd 46b1 033b e578 04bd 8b59 133e
000001e0: 79aa d3bd 6345 fc3c c15a 27be bf8b 343c
000001f0: c31a 83bc ece7 86bd 73ff bc3d 7a2d 8f3d
00000200: 92c7 803d fedb 973d 7c9a c73c ba4a 9c3d
00000210: d1a3 ed3d f43b 433b 7781 b8bc 1e00 72bd
00000220: 0b9f a33d 56f3 bc3d 1ffc 743d 0e09 9e3d
00000230: a422 34bd 395f 093e fcee c93b dde7 853d
00000240: 87e6 29bd 247a 51bd 2c6d b33d 0f4a 1c3d
00000250: 115c e1bd 7c11 c53d 4994 aabd d5a8 5cbd
00000260: 7cec c3bc 336a 7dbd 58db 053d ae8e 11bd
00000270: 2eb6 a6bd 6e6e 533e 8c37 6bbc 7036 6ebd
00000280: ef99 aabd 40f7 263d e294 2fbe 313c 49be
00000290: 8047 e6bd 3c5c 4739 9478 183d 39d2 9f3d
000002a0: c6e2 b13d 4075 c33d 02ce dc3d b48b 203e
000002b0: 3210 a73b bb7f af3b cb05 d03d eeea 26be
000002c0: 90a9 433b 531a 183d 4930 07be fc6f 67bc
000002d0: c686 803d 7217 0a3d 08c1 babd e2e2 ae3c
000002e0: a283 f3bd d895 3fbc b97f 86bc 0d12 2abc
000002f0: ba5e a7bd 589b c9bd 9ac9 67bc 2837 6a3c
00000300: 87d0 46be 9efc 0dbd 759b 9c3d e115 e23c
00000310: 69db 90bd 7569 bcbd 67ff 9b3d b86e 4dbd
00000320: af91 28bd f91a febd bf8d 57be a698 9ebd
00000330: f161 a13d 389b 9fbd 00e4 153d 6f3b 2abd
00000340: 63b6 8cbd c76e f6bd 8159 9bbb e86f 29bd
00000350: 0273 823c 4114 cfbb 0b6c 35be d395 653c
00000360: ea91 e5bd fb0a b1bd 7bde 72bd 56b3 193c
00000370: bdd9 81bc b94b 2ebe d345 8a3d 9b8c cebd
00000380: 2a33 97bd b84b 8bbd 720b 3cbe bade 103c
00000390: bbeb aebd 6725 333d d8c5 97bd a542 fa3c
000003a0: 00b2 57bc 984a 15bd 5d4e f0bd af30 08bd
000003b0: ab49 4abc cd3e 08be 436a 323e 7180 05bd
000003c0: 0f34 b2bc d477 9f3d a88f a8bc 69c3 b43c
000003d0: 60d6 fd3c 5028 6d3b 9681 823d 5baf 403e
000003e0: 688d 64bd 3b28 1e3b e5ec eebd c7ea 753c
000003f0: 396c a8bd 61be 763d aaf7 99bc 4822 d3bc
0.0089145 -0.027587922 0.022513822 0.060108125 0.038548525 0.079441 -0.005134997 -0.0044408552
0.011297782 0.0019758132 -0.07580029 0.028575806 0.027440054 0.0493356 0.20430842 -0.066605106
-0.07014673 -0.0860675 -0.019220319 -0.107822075 -0.11720952 0.012872083 -0.12070077 0.04956968
-0.2978617 0.009487538 0.08377492 0.0055293636 -0.2045082 0.094825074 0.03299848 -0.048448272
-0.117293105 0.09851171 0.015723374 -0.039346483 -0.0896437 -0.21450536 -0.1545495 0.09475309
0.079474896 0.071307026 -0.032907955 -0.034990836 0.14082876 0.0033642827 0.009201093 -0.09900438
-0.09928429 0.10092257 0.05716884 0.07325774 -0.028324312 -0.018398397 0.08459114 -0.11184697
0.21783668 0.15162712 0.036922958 -0.09151445 -0.1734701 -0.082137994 -0.08698384 -0.04970742
-0.08885904 0.009670961 0.032616716 -0.099019445 0.00955349 0.041589033 -0.052512262 0.09015843
0.14288321 -0.050327644 -0.12735136 -0.050507244 0.005274385 -0.049673777 -0.01530433 -0.084391944
-0.22275479 -0.13540335 0.029914698 -0.09714657 0.08436832 -0.09181432 -0.035743587 0.03204158
0.027498405 0.10948895 0.007058835 0.09972413 -0.009644971 0.040846933 0.07094518 0.03259455
-0.025040094 0.045200054 -0.053778358 0.26447248 0.012006212 -0.016731435 -0.14707966 0.011089422
-0.15886809 -0.05889617 -0.035803653 0.13983442 -0.009655616 -0.14837794 -0.046397008 -0.049956564
0.09694371 -0.005923542 0.04334962 0.04341417 -0.07578542 0.0020094677 -0.032341857 0.14389627
-0.103352495 0.030794805 -0.16343214 0.011019646 -0.016003972 -0.06587204 0.092284106 0.06991096
0.06288065 0.07415007 0.024365656 0.076314405 0.11603511 0.0029790374 -0.022522671 -0.059082143
0.079893194 0.092261 0.059810754 0.07716571 -0.04397835 0.13415231 0.0061625224 0.06538365
-0.041479614 -0.051141873 0.08761057 0.038156565 -0.110038884 0.096224755 -0.083290644 -0.05387195
-0.023916475 -0.061868858 0.032679886 -0.03553646 -0.08140217 0.20647594 -0.014356505 -0.058157384
-0.08330142 0.04076314 -0.17146638 -0.19651867 -0.11244106 0.00019012479 0.037224367 0.07803769
0.08685832 0.09543848 0.1078148 0.15678293 0.005098366 0.005355803 0.10157355 -0.16300556
0.0029855706 0.03713448 -0.13202013 -0.01412582 0.06275706 0.033713765 -0.09118849 0.02134842
-0.11890341 -0.01169344 -0.016418325 -0.01038028 -0.081723645 -0.098440826 -0.014147187 0.014295377
-0.19415484 -0.034664743 0.076468386 0.027598323 -0.07073099 -0.09199802 0.076170735 -0.050154418
-0.04115456 -0.124074884 -0.21050166 -0.07743959 0.07880009 -0.077932775 0.03659439 -0.041560587
-0.06870725 -0.12032848 -0.0047408943 -0.041366488 0.01592398 -0.006319553 -0.17716996 0.014012772
-0.112094715 -0.086446725 -0.059294205 0.009381136 -0.015850896 -0.17021073 0.06751599 -0.10085412
-0.07382806 -0.068015516 -0.18363741 0.008842165 -0.08541056 0.04373684 -0.074107826 0.030549357
-0.013164997 -0.03644809 -0.117336966 -0.033249553 -0.012346665 -0.13305207 0.17423348 -0.032593194
-0.02175334 0.07786527 -0.020576313 0.022065835 0.030986011 0.0036187358 0.06372373 0.18816893
-0.055798918 0.0024132866 -0.11666278 0.015009589 -0.08223767 0.060240153 -0.018794853 -0.025773183

class_classifier.4.bias f4 [100]
00000000: 4875 92bb 4a34 f6ba 7264 1ebd b801 3d3d
00000010: 1f0d 9d3d c188 883c ca07 28bd 7860 ce3c
00000020: 03de ad3d c640 943d 097f a53d 4192 afbc
00000030: 1c25 a63d 4e55 0abc 45af cdbc fead 4fbd
00000040: 1a37 15bd fa1a 0e3d 8b6e 02bd 540b 5dbd
00000050: 0c4e be3d 081a 7f3d 91bb a3bd 3ee9 48bd
00000060: 9422 a53d 98f3 c9bd fadc f7bc 0f70 163d
00000070: 9e0b eb3c 9314 11bc e784 bd3d 535e 1bbc
00000080: ef67 a6bd 0c35 ccbd 0526 75bd a3d0 663d
00000090: bcfc 703d 6839 a2ba 5b5a 31bb e257 b5bd
000000a0: 3ef6 bd3c ceb2 b7bd 9254 85bd 3edb 84bd
000000b0: 5405 07bd ee68 493c 816a 3abd f6cd a53d
000000c0: 76c2 8f3d b1e6 68bc f2c2 b8bd 2945 92bd
000000d0: bdd1 8b3d a735 483d f411 163d d2f6 953d
000000e0: ba95 743d 3293 2dbd 9c95 9ebd 9160 243d
000000f0: 2ca8 be3b d0ea 70bd 4725 8bbd 985d 4d3d
00000100: 032c 30bd 9fb0 a7bd d88e 85bd 03c4 923d
00000110: 565c 6c3c 748f 503d 1490 a7bc 16e4 c53d
00000120: 0300 8f3d 82ef 993d 5535 1abd 4152 f1bc
00000130: 82ad 94bd 875f c5bd ad5a c7bd c1be 98bd
00000140: 8adc 89bd fd51 2e3d b307 c33d 268b 02bd
00000150: 4402 c53d 7e49 cb3c 3dcd 883d 49a3 303d
00000160: 41fa 363b 1e19 55bd d6ce 17bc d00f 0a3c
00000170: cd6e 263d ff12 fc3a f993 793d d6d3 91bd
00000180: 2543 c33d 03bb 3dbc 68cf 55bd b3af e8bc
-0.0044695474 -0.0018783894 -0.03867001 0.046144217 0.07668518 0.016666772 -0.041023053 0.025192484
0.08489611 0.07238917 0.08080871 -0.021432044 0.08112547 -0.00844319 -0.02510799 -0.05070304
-0.036429502 0.034693696 -0.031843703 -0.05396588 0.0929223 0.062280685 -0.0799476 -0.049050562
0.08063236 -0.09860915 -0.030256737 0.03672796 0.028692063 -0.008855003 0.09253865 -0.009482938
-0.081252925 -0.099710554 -0.05985071 0.056351315 0.058834776 -0.0012376728 -0.0027061913 -0.08854653
0.023188706 -0.08969651 -0.06510271 -0.0648713 -0.032964066 0.012293084 -0.045511726 0.080959246
0.07019512 -0.014215157 -0.09021558 -0.071420975 0.06827114 0.04887929 0.036638215 0.07322468
0.059713103 -0.042376705 -0.077433795 0.040131155 0.0058183875 -0.058817685 -0.067942195 0.050138086
-0.043010723 -0.08187985 -0.06521386 0.071662925 0.0144263115 0.050918058 -0.020454444 0.096626446
0.06982424 0.075163856 -0.037648518 -0.029458167 -0.072596565 -0.09637361 -0.09734092 -0.074582584
-0.067315176 0.04255866 0.09522953 -0.031870984 0.09619573 0.024815317 0.06679771 0.04312447
0.002792016 -0.052025907 -0.009265622 0.008426622 0.04063301 0.0019231735 0.060932133 -0.071204826
0.09534291 -0.011580232 -0.05219975 -0.028404092
